models/monopoly_ai_600.pth (torch, 379901 bytes, 8 tensors)

network.0.weight f4 [256, 205]
0	0x3ca28081	0.019836666
1	0xbe11578b	-0.14193551
2	0x3d715df6	0.0589275
3	0x3d329e60	0.04360807
4	0xbc98a500	-0.018633366
5	0x3d5ef552	0.054433174
6	0x3991f000	0.0002783537
7	0x3d44cfe3	0.04804982
8	0xbd9d1a13	-0.07670989
9	0xbcc9549f	-0.024576483
10	0x3d5fe714	0.054663733
11	0xbca64e10	-0.020300895
12	0x3c385e60	0.0112529695
13	0xbbc53320	-0.0060180575
14	0xbbe17490	-0.0068803504
15	0x3d556366	0.052096747
16	0xbc4a3fb8	-0.012344293
17	0x3d02a6ab	0.03189723
18	0xbc2be96d	-0.010492665
19	0x3db85661	0.090008505
20	0x3c4ec5c8	0.012620397
21	0x3c7c4218	0.015396617
22	0x3cb7b44c	0.02242484
23	0xbd7aa8ab	-0.06119601
24	0x3d4cd1c2	0.05000473
25	0x3d5b429e	0.053530328
26	0x3b7b1ea0	0.0038317814
27	0xbd923bb0	-0.07140291
28	0xbc605319	-0.013691687
29	0xbd282689	-0.041052375
30	0x3d03eade	0.03220641
31	0xbcc5fdee	-0.024168935
32	0x3d0eb4fe	0.034840576
33	0x3c6422b8	0.013924293
34	0xbd01712e	-0.031602077
35	0x3c701a00	0.014654636
36	0xbd22e4a6	-0.039768837
37	0x3d47d5f8	0.04878804
38	0x3aefc440	0.001829274
39	0xbd80195a	-0.062548354
40	0xbd0843fe	-0.033267967
41	0x3ce558d8	0.027996466
42	0xbcd58c14	-0.026067771
43	0xbd1a99e4	-0.037744418
44	0xbd0d3e0d	-0.034483004
45	0x3d3853e0	0.045001864
46	0xbcc890b8	-0.02448307
47	0xbdc7c06b	-0.09753498
48	0xbcabd0d7	-0.020973606
49	0xbd8c492d	-0.06849895
50	0xbd1420df	-0.03616416
51	0x3ce4f564	0.027949043
52	0xbd8882de	-0.06665586
53	0x3d8a868b	0.06763943
54	0x3d35b9d6	0.04436668
55	0x3d0418c8	0.032250196
56	0x3d8dfcdf	0.06932997
57	0xbd1d892f	-0.038460907
58	0xbd2d0893	-0.042244505
59	0x3c4afa3a	0.01238876
60	0xbd827b23	-0.06371143
61	0x3d0e327e	0.03471612
62	0xbd418885	-0.047249336
63	0xbd63380c	-0.055473372
64	0x3ce58e71	0.028022023
65	0x3d0bb2f4	0.03410621
66	0xbca241e8	-0.019806817
67	0xbdb374bb	-0.08762499
68	0xbdb00e51	-0.08596481
69	0x3d126478	0.035740346
70	0x3cff28e0	0.03114742
71	0x3d601052	0.054703064
72	0xbb270ff3	-0.0025491684
73	0xbd9e7c37	-0.07738536
74	0x3cf10dce	0.029425528
75	0xbd362c40	-0.044475794
76	0xbccc05a6	-0.024905037
77	0xbd721c6a	-0.05910913
78	0xbb98c6e9	-0.004662384
79	0x3d183be7	0.037166502
80	0x3d30dbd6	0.043178402
81	0xbd75fbca	-0.060054578
82	0xbd591e61	-0.053007487
83	0xb9c3cc98	-0.00037345733
84	0xbd227ccb	-0.039669793
85	0xbd04e4c7	-0.03244474
86	0x3d218cf8	0.03944108
87	0x3bc5a620	0.0060317665
88	0x3cf2b424	0.029626913
89	0x3c89d720	0.016826212
90	0xbc40a51c	-0.011758115
91	0x3d0e56ae	0.034750633
92	0xbda403fb	-0.08008572
93	0x3bfd3948	0.0077277757
94	0xbdaca8bb	-0.0843062
95	0x3d67630a	0.056490935
96	0xbd469498	-0.048481554
97	0xbda4e409	-0.08051307
98	0xbdda48c2	-0.10658409
99	0xbc1429e5	-0.009043192
100	0x3d7becc6	0.0615051
101	0x3d6139f4	0.05498691
102	0x3c3bd840	0.011465132
103	0xbd8c7ff1	-0.068603404
104	0xbce6ecb2	-0.028189037
105	0xbd50eec8	-0.05100897
106	0xbc8fca7e	-0.01755261
107	0xbd03d3c7	-0.03218439
108	0xbd86e4a6	-0.0658658
109	0xbdbceb93	-0.0922462
110	0x3d7b8a6e	0.061411314
111	0xbd71be31	-0.05901927
112	0x3d8b5597	0.06803434
113	0xbcbf5fd4	-0.023361124
114	0xbd234ea6	-0.039869927
115	0xbcbd45b6	-0.02310453
116	0x3bb5aa90	0.0055440143
117	0x3dae58af	0.08513009
118	0xbbe2496b	-0.0069057248
119	0xbd47ea1c	-0.04880725
120	0x3d52436c	0.05133383
121	0xbd0f272e	-0.034949474
122	0xbcb2e452	-0.021837387
123	0xbda7cd24	-0.08193424
124	0x3d30f5d0	0.043203175
125	0xbd0a82e6	-0.03381624
126	0xbc824280	-0.01590085
127	0xbd7cde7c	-0.061735615
128	0x3d3e334b	0.046435636
129	0xbd39e062	-0.045380004
130	0x3d40c984	0.04706718
131	0x3d37cef2	0.044875093
132	0xbd4928a7	-0.049111035
133	0xbc9a73df	-0.01885408
134	0xbd589124	-0.052872792
135	0x3d03f214	0.032213286
136	0xbd851949	-0.064989634
137	0xbd46cd7d	-0.048535813
138	0x3bebcaaa	0.0071957903
139	0xbcb5c83c	-0.022190206
140	0x3cab8468	0.02093716
141	0xbd5e8bb2	-0.054332443
142	0x3d09e8b9	0.033669207
143	0xbc5e2019	-0.013557457
144	0xbd90a7b4	-0.07063237
145	0x3d17dd8a	0.03707651
146	0xbc2d0db8	-0.010562353
147	0xbde0f328	-0.109838784
148	0xbcb730ef	-0.0223622
149	0xbd1912c8	-0.037371427
150	0xbc953db6	-0.018217903
151	0x3d07fb2c	0.03319852
152	0xbd86b15f	-0.065767996
153	0x3d84bc23	0.06481197
154	0x3d1d4bd6	0.0384024
155	0x3d8bb9b3	0.06822529
156	0xbb96ce00	-0.004602194
157	0x3cde1c3b	0.02711307
158	0xbd36cd30	-0.044629276
159	0x3cbb0904	0.022831447
160	0xbd0c5bd5	-0.034267265
161	0x3cc7e300	0.024400234
162	0xbc0dcf5a	-0.0086553935
163	0xbd250fd7	-0.04029831
164	0xbc33572a	-0.0109460745
165	0x3cc09628	0.0235091
166	0x3d081324	0.03322138
167	0xbd480f94	-0.04884298
168	0xbcddd55a	-0.027079273
169	0xbc457ebc	-0.012054142
170	0x3d32c930	0.0436489
171	0xbd15a65c	-0.036535606
172	0xbc0cda44	-0.00859696
173	0xbd2e90ec	-0.042618677
174	0x3d532cad	0.051556278
175	0x3d1f1a5e	0.038843505
176	0xb9fe8000	-0.00048542023
177	0x3d55cc38	0.05219671
178	0xbd1a423b	-0.03766082
179	0xbd19baaa	-0.037531532
180	0x3bb75d20	0.005595818
181	0x3c55ba30	0.013044879
182	0xbc2ffa70	-0.010740861
183	0xbd2835c8	-0.041066915
184	0xbd81ba80	-0.063344
185	0x3c8c5b7c	0.017133467
186	0x3d222778	0.03958842
187	0xbda3f303	-0.08005335
188	0xbc91a86a	-0.017780501
189	0xbd798c5b	-0.06092487
190	0x3d5484ce	0.051884465
191	0xbce09670	-0.027415484
192	0xbce32a1a	-0.027730037
193	0x3ca847ac	0.020541988
194	0xbd87686e	-0.06611715
195	0xbd8b4727	-0.068006806
196	0xbd8b2c69	-0.0679558
197	0x3cd728b2	0.026264522
198	0x3abe55bf	0.0014521404
199	0x3d7780b1	0.060425464
200	0xbc0d47a8	-0.008623041
201	0x3c92e84c	0.017933033
202	0xbd6fa447	-0.058506276
203	0xbd751cc0	-0.05984187
204	0xbc9225b0	-0.017840236
205	0xbe2c916d	-0.1685235
206	0xbecce05c	-0.40014923
207	0x3d52117e	0.051286213
208	0xbd61ab30	-0.055094898
209	0x3c6b0c58	0.014346205
210	0x3cd6d35c	0.02622383
211	0x3d3d55fe	0.046224587
212	0x3e5f4f92	0.21807697
213	0xbe4312c2	-0.19050124
214	0xbc4ce71e	-0.0125062745
215	0x3cac9e24	0.021071501
216	0xbc16bd14	-0.009200353
217	0x3d53830a	0.05163864
218	0xbd4a60a7	-0.04940858
219	0xbc422080	-0.011848569
220	0x3c868e18	0.016425177
221	0xbcea64e0	-0.028612554
222	0xbd9ceefd	-0.07662771
223	0xbcd3f55c	-0.025873832
224	0xbd8bf6e0	-0.06834197
225	0x3c217ec0	0.00985688
226	0xbd8d99d3	-0.06914105
227	0x3d4c1116	0.049820982
228	0xbd8dc198	-0.06921691
229	0xbcbfcb8c	-0.023412488
230	0x3cc80abc	0.024419181
231	0x3c86849c	0.016420655
232	0x3d1909ee	0.037362985
233	0xbe646fcb	-0.2230827
234	0x3d8d55dc	0.06901142
235	0x3d86c5e5	0.06580714
236	0xbd85c838	-0.06532329
237	0x3d13d753	0.03609402
238	0xbe89e438	-0.2693193
239	0xbc3e07c8	-0.011598535
240	0x3d8384fb	0.064218484
241	0x3c77d238	0.015125804
242	0x3d7b562a	0.06136147
243	0xbd3b9706	-0.045798324
244	0x3d7465ce	0.0596674
245	0xbc1acc08	-0.009448059
246	0x3d825755	0.063643135
247	0xbdfc0868	-0.12306291
248	0x3e3588c6	0.17727956
249	0xbea52f23	-0.32262525
250	0xbbdc4610	-0.0067222193
251	0xbbd142f0	-0.0063861534
252	0xbd6b996f	-0.057519373
253	0x3d9f51f2	0.07779302
254	0xbe7c1a26	-0.2461935
255	0x3d079a8a	0.033106364

network.0.bias f4 [256]
0	0xbd112576	-0.035436116
1	0xbd84f45a	-0.06491919
2	0xbcd3abfc	-0.025838844
3	0x3d8ddd0d	0.06926928
4	0xbd16c641	-0.036810163
5	0xbdb94490	-0.090462804
6	0x3cd1992a	0.02558573
7	0xbd9c2aa7	-0.07625323
8	0xbd0c24dc	-0.03421484
9	0x3d687ef2	0.05676169
10	0xbd88a1a5	-0.06671456
11	0xbceceb62	-0.028920833
12	0xba8c4584	-0.001070187
13	0xbd95301a	-0.07284565
14	0xbe0577b4	-0.13033944
15	0xbc684d9f	-0.014178663
16	0xbc1c604a	-0.0095444415
17	0xbdd6da47	-0.10490852
18	0xbb2a15ac	-0.002595286
19	0xbad914ef	-0.0016562025
20	0xbdab390d	-0.08360491
21	0x3c8a3b4d	0.01687398
22	0x3df197aa	0.11796506
23	0x3c0fbf4d	0.008773637
24	0xbd79a9d1	-0.060952965
25	0x3bfd168d	0.0077236355
26	0xbda3207f	-0.079651825
27	0xbb80f791	-0.003935762
28	0xbc87198f	-0.01649168
29	0xbcde8c1c	-0.027166419
30	0xbd7da5fb	-0.06192587
31	0xbd9d17c4	-0.076705486
32	0xbd89c6a7	-0.06727343
33	0xbc064ca9	-0.008196988
34	0x3bf9094e	0.007599986
35	0x3cd39a5b	0.025830438
36	0x3d61561b	0.055013757
37	0xbd216c64	-0.03941001
38	0xbc66893b	-0.014070804
39	0xbdadc268	-0.08484346
40	0xbda3a59e	-0.07990573
41	0x39bd7640	0.00036136992
42	0xbdee9894	-0.11650196
43	0x3d84e63b	0.064892255
44	0x3d34f1a2	0.04417575
45	0xbdab161e	-0.08353828
46	0x3be7fb3c	0.00707951
47	0xbc5d9c57	-0.013526044
48	0x3cd2a089	0.025711315
49	0xbdc5c5f6	-0.09656899
50	0xbd2acfe5	-0.04170217
51	0x3dfc8668	0.123303235
52	0xbd19d85e	-0.03755986
53	0x3d0afe8e	0.03393417
54	0xbd427e11	-0.047483508
55	0x3d260ed3	0.04054148
56	0xbd9237f7	-0.07139581
57	0x3d86c5b3	0.06580677
58	0x3d056942	0.032571085
59	0xbd49806e	-0.049194746
60	0xbdba8c88	-0.091088355
61	0x3d099f5d	0.033599246
62	0x3cf2a319	0.029618787
63	0x3c244ce9	0.010028102
64	0xbda3e68e	-0.08002959
65	0xbd5ddaa8	-0.054163605
66	0x3cbb26cc	0.022845648
67	0x3d164ec3	0.036696207
68	0x3ba3e1f2	0.0050013
69	0xbd4d1d22	-0.05007661
70	0xbc868682	-0.01642156
71	0xbe285541	-0.16438772
72	0xbd329546	-0.04359939
73	0x3d3d4425	0.046207566
74	0x3e07e3cd	0.13270493
75	0xbd1a21e6	-0.037629984
76	0x3d199c5f	0.037502643
77	0x3d2a68c8	0.041603833
78	0xbd8d9523	-0.06913211
79	0xbdad548f	-0.08463394
80	0xbdf2fdda	-0.118648246
81	0xbd4c4ab6	-0.049875937
82	0x3dc4e040	0.09613085
83	0xbd84170a	-0.06449707
84	0xbccf93db	-0.025339058
85	0xbd8d4c6f	-0.06899344
86	0x3dc671c3	0.09689667
87	0xba8c1a07	-0.0010688909
88	0x3c43c563	0.011948916
89	0xbe0e9b1c	-0.13926357
90	0xbdb67f8a	-0.08911045
91	0xbdc47466	-0.09592514
92	0xbcb6ccbc	-0.022314422
93	0xba7d4a00	-0.0009662211
94	0x3dda82bb	0.10669466
95	0xbbeef582	-0.0072924504
96	0xbc389ede	-0.011268346
97	0xbd8bfb27	-0.06835013
98	0xbcca40ac	-0.024689041
99	0xbbf64cda	-0.0075164856
100	0x3d87b453	0.06626191
101	0xbdbbd0c5	-0.09170679
102	0xbd932dad	-0.07186446
103	0xbd9c7c20	-0.076408625
104	0xbd2fba40	-0.04290223
105	0xbcf6f77c	-0.030147307
106	0x3cb4529b	0.022012046
107	0x3af5ea5d	0.0018761862
108	0xbc58d65a	-0.013234699
109	0xbb05df4d	-0.0020427287
110	0xbbb22e82	-0.005437673
111	0xbd50856e	-0.0509085
112	0xbd60f1bb	-0.054918032
113	0xbd88500a	-0.06655891
114	0x3c551867	0.013006306
115	0xbcc50e69	-0.024054723
116	0xbd0c0fb2	-0.034194656
117	0x3d154bdd	0.036449302
118	0xbcc86910	-0.02446416
119	0xbdb12c7a	-0.08651061
120	0xbd3b9431	-0.045795623
121	0xbda37ab4	-0.07982388
122	0x3bb117ec	0.005404463
123	0x3c6021e9	0.01367996
124	0xbd40b367	-0.04704609
125	0xbdb833ec	-0.08994278
126	0xbd4bb7dd	-0.049735893
127	0x3d5c2468	0.053745657
128	0x3bd15070	0.0063877627
129	0xbce10498	-0.02746801
130	0x3c94055a	0.018068958
131	0xbc4f92fb	-0.01266932
132	0x3b5d9cec	0.0033815457
133	0xbcb0be8c	-0.021575235
134	0xbdb1fb57	-0.086905174
135	0xbd0b5b6c	-0.034022734
136	0x3bfbbbca	0.0076822983
137	0x3c3f8ca5	0.011691247
138	0x3cd6aa26	0.02620418
139	0xbdc70dfa	-0.09719463
140	0xbce192e7	-0.027535869
141	0xbe05adca	-0.13054577
142	0x3d0d11d1	0.03444082
143	0xbde5fa41	-0.11229373
144	0xbd289140	-0.041154146
145	0xbd5f3dcd	-0.054502297
146	0xbd3d756b	-0.046254557
147	0x3cf48e93	0.029853141
148	0xbd7332a7	-0.059374478
149	0xbda6ff4a	-0.08154161
150	0xbda055f1	-0.07828892
151	0xbda6e7c6	-0.08149676
152	0xbdea6a0d	-0.11446009
153	0xbdcf204c	-0.10113582
154	0xbd8bd4cf	-0.068276994
155	0x3be8939b	0.007097674
156	0xbd66ac76	-0.056316815
157	0xbd6022f7	-0.054720845
158	0xbc0a2ef0	-0.008434042
159	0xbc495292	-0.012287753
160	0xbde088f2	-0.1096362
161	0x3dff5511	0.12467397
162	0xbdad3dcc	-0.084590524
163	0xbe1375a5	-0.14400347
164	0xbc4ba6fe	-0.012429951
165	0x3ad9ef26	0.0016627058
166	0xbd6625ce	-0.056188397
167	0x3e438d4e	0.19096872
168	0xbbb71eba	-0.0055883797
169	0x3c6601ee	0.014038546
170	0x3d948033	0.072510146
171	0x3e137f1e	0.1440396
172	0x3cc1aacd	0.023641014
173	0xbc3df8f2	-0.011594998
174	0x3d0a1a5f	0.033716556
175	0xbd73ccbc	-0.05952142
176	0xbdddff20	-0.10839677
177	0x3d281bae	0.041042022
178	0x3d81f455	0.06345431
179	0xbc54dfcd	-0.012992811
180	0xbd00b838	-0.031425685
181	0xbbd81881	-0.006594718
182	0x3d3d6fcc	0.046249196
183	0xbd003323	-0.031298768
184	0x3d02d6cb	0.031943124
185	0xbbdfda69	-0.0068314564
186	0xbde7b307	-0.11313444
187	0x3d921295	0.071324505
188	0x3dcf84c9	0.10132749
189	0xbdc3c29a	-0.09558602
190	0xbd27dd9b	-0.040982824
191	0xbc005ece	-0.007835103
192	0xbd543501	-0.05180836
193	0x3b49c2e4	0.003078633
194	0xbafb071e	-0.0019151901
195	0xbca6ae56	-0.020346802
196	0xbc8cbe87	-0.017180694
197	0xbd8c4525	-0.06849126
198	0xbd3e23e6	-0.046420954
199	0xbd81bbbe	-0.06334637
200	0xbdaf2105	-0.0855122
201	0xbbd5ce68	-0.0065248497
202	0x3c6a6918	0.014307283
203	0xbdcbd6d3	-0.09953084
204	0x3d9a331d	0.0752928
205	0xbc104489	-0.008805403
206	0x3e3a90a2	0.18219236
207	0xbc94ae48	-0.01814951
208	0xbdbfc0ce	-0.093629465
209	0xbdb580f8	-0.088624895
210	0xbdd1024d	-0.10205517
211	0x3d217cb6	0.039425574
212	0xbdcd4146	-0.100222155
213	0xbd02c84b	-0.031929296
214	0x3ac2e048	0.0014867866
215	0x3cee0d71	0.029059144
216	0xbd3b8074	-0.0457768
217	0x3df56d70	0.11983764
218	0xbdc35b17	-0.095388584
219	0xbdfd6450	-0.12372649
220	0x3deb5de0	0.114925146
221	0xbc2d2ecc	-0.010570239
222	0xbcb958ab	-0.022625288
223	0x3c87daac	0.016583763
224	0xbd2e4945	-0.042550344
225	0xbd93240e	-0.07184611
226	0x3daa76c9	0.08323438
227	0xbd5efe82	-0.054441936
228	0xbd4bfac5	-0.0497997
229	0xbd51425c	-0.051088676
230	0xbdb1af33	-0.08675995
231	0xbd920eb1	-0.071317084
232	0x3aa469fb	0.0012543792
233	0xbd8e558a	-0.06949909
234	0xbcd4379a	-0.02590542
235	0xbdb0f9aa	-0.0864137
236	0x3dc755ad	0.09733138
237	0x3be62218	0.0070231073
238	0xbc8e781e	-0.01739126
239	0xbd3e7ce2	-0.046505816
240	0xbd82c475	-0.063851275
241	0x3da723db	0.08161136
242	0x3ca31348	0.019906655
243	0xbdf050fe	-0.11734198
244	0x3c350e74	0.011050809
245	0xbd946f90	-0.07247841
246	0xbddddf8b	-0.10833653
247	0xbd6783e1	-0.056522254
248	0x3b1e3b5e	0.0024144272
249	0xbc856cf0	-0.016287297
250	0xbd3c3ace	-0.045954518
251	0xbcf40b77	-0.029790623
252	0x3cb760ff	0.022385119
253	0xbd2951d1	-0.04133779
254	0xbc0d3886	-0.008619433
255	0xbdb17973	-0.08665743

network.2.weight f4 [128, 256]
0	0x3d7e6a80	0.062113285
1	0xbd5a665a	-0.053320266
2	0xbc93d213	-0.018044507
3	0x3c2a1570	0.010381088
4	0x3cc52763	0.024066633
5	0x3d47e17c	0.048799023
6	0xbdba68a6	-0.09101991
7	0xbcbfc27c	-0.023408167
8	0xbc518c60	-0.012789816
9	0xbd9e010c	-0.077150434
10	0xbd8e39c7	-0.06944614
11	0x3ae2b73e	0.0017297042
12	0x3c874523	0.01651246
13	0x3d256822	0.040382512
14	0x3c100178	0.008789413
15	0x3d12682a	0.03574387
16	0xbc379aae	-0.011206312
17	0x3c1b818a	0.009491334
18	0xbc7910a0	-0.015201718
19	0xbd6fd20a	-0.05854992
20	0xbd4174bc	-0.047230467
21	0xbd3dbad8	-0.046320766
22	0xbd90d682	-0.07072164
23	0xbc719505	-0.014745002
24	0xbd404ab4	-0.046946242
25	0x3d3d62ce	0.046236806
26	0x3d230d4e	0.03980761
27	0x3c8b64bf	0.017015813
28	0xbd4544a9	-0.048161183
29	0xbd8b07b8	-0.067885816
30	0x3c8cd540	0.01719153
31	0x3cdcfd40	0.026976228
32	0x3c5aa100	0.013344049
33	0xbd07dfd4	-0.033172444
34	0xbcbaf9a4	-0.022824116
35	0xbc98fc3c	-0.018674962
36	0xbd30aec2	-0.043135412
37	0xbcdc22ec	-0.02687212
38	0xb8cd8000	-9.7990036e-05
39	0x3d5904fe	0.052983277
40	0xbb72b315	-0.003703301
41	0x3d2bc108	0.041932136
42	0x3cc04390	0.023469716
43	0xbd78fd46	-0.060788415
44	0x3cacd4d9	0.021097587
45	0xbd2ce952	-0.0422147
46	0x3d38ddc6	0.045133375
47	0x3ad608cf	0.001632953
48	0x3bc6e480	0.00606972
49	0xbbeff129	-0.0073224497
50	0x39f85401	0.00047364834
51	0xbc5cd050	-0.0134774
52	0xbd7c6490	-0.06161934
53	0x3b1ade94	0.0023631202
54	0x3b951f70	0.004550867
55	0xbcdcaa9d	-0.026936824
56	0xbd86f339	-0.0658936
57	0x3cc2d6bc	0.023784034
58	0x3cdc88da	0.026920725
59	0x3d08093e	0.03321194
60	0xbd539808	-0.05165866
61	0xbc0c7f24	-0.008575235
62	0x3b19a35a	0.0023443312
63	0xbd17e66e	-0.03708499
64	0x3ca40484	0.020021684
65	0x3d66da2e	0.056360416
66	0x3d4ecac9	0.05048636
67	0xbd72b9fc	-0.0592594
68	0x3c8f4abb	0.017491689
69	0xbd8553e5	-0.06510142
70	0xbd5326fc	-0.05155085
71	0xbd3f7154	-0.046738937
72	0x3c2eaf00	0.01066184
73	0x3c9dc8ab	0.019260725
74	0xbc2eb3d8	-0.010662995
75	0x3ca144ac	0.019686066
76	0xbd2d4dfe	-0.042310707
77	0x3c94cf70	0.01816532
78	0xbc253068	-0.010082342
79	0xbae73780	-0.0017640442
80	0xbd79be20	-0.060972333
81	0xbc056c3e	-0.008143483
82	0x3bfe9b45	0.0077699744
83	0x3d534551	0.051579777
84	0xbd262a98	-0.040567964
85	0xbd1c15c5	-0.0381067
86	0x3c8067f3	0.015674567
87	0xbd2e0044	-0.042480722
88	0x3cf35e63	0.029708093
89	0xbc1eabfa	-0.009684557
90	0xbd4e0e26	-0.05030646
91	0xbaae84c8	-0.0013314718
92	0xbd79ce1a	-0.06098757
93	0xbda53b71	-0.08067978
94	0xbb73c038	-0.0037193429
95	0x3d0bc8f6	0.0341272
96	0xbc9f4014	-0.019439735
97	0x3ca36d4e	0.019949581
98	0xbc061350	-0.008183315
99	0x3d066839	0.03281424
100	0xbdab3746	-0.08360152
101	0x3c249750	0.010045841
102	0xbd5bf6cb	-0.053702157
103	0xbd4cbd31	-0.049985114
104	0x3c87e344	0.01658786
105	0xbd8b609f	-0.068055384
106	0x3c645348	0.013935871
107	0xbcce9258	-0.025216267
108	0x3cddad10	0.027060062
109	0xbd6d0cde	-0.0578736
110	0x3c4e0323	0.01257399
111	0xbcebd642	-0.02878869
112	0x3d388374	0.04504724
113	0xbdac64bf	-0.08417653
114	0xbd0c9b2c	-0.03432767
115	0x3c9b151c	0.018930964
116	0xbcd42255	-0.025895277
117	0xbb36af06	-0.0027875318
118	0x3b9963d3	0.0046810894
119	0xbc3eb4f8	-0.011639826
120	0xba7f3a80	-0.0009736195
121	0xbd7551ce	-0.05989247
122	0xbd1cb296	-0.03825625
123	0x3c8b25b0	0.016985744
124	0xbd5c8a6b	-0.053842943
125	0x3d05e5a6	0.032689713
126	0x3c83f1df	0.016106544
127	0xbdcbe638	-0.0995602
128	0xbd4a14c4	-0.04933621
129	0x3c7287d0	0.014802888
130	0x3cf93fb8	0.030425891
131	0x3d338519	0.043828104
132	0xb9426c00	-0.00018541515
133	0x3b095f20	0.002096124
134	0x3c8c89cc	0.01715555
135	0xbc2e3e7a	-0.010635013
136	0xbdcb9c09	-0.09941871
137	0x3c20a348	0.009804554
138	0xbd7c82e7	-0.061648276
139	0x3c996a2b	0.018727383
140	0x3cec0fd6	0.028816145
141	0x3d680254	0.056642845
142	0x3d775926	0.060387753
143	0x3c625090	0.013813153
144	0x3d5399c0	0.0516603
145	0x3af0f040	0.0018382147
146	0xb98b806d	-0.0002660783
147	0xbd09139a	-0.03346596
148	0x3b44f640	0.0030054003
149	0x3cbe2692	0.023211751
150	0x3a8edaa6	0.0010898903
151	0x3ca1bd00	0.019743443
152	0x3c67330b	0.014111291
153	0xbbd88fd1	-0.006608941
154	0x3cdde8c8	0.027088538
155	0x3c8da6f7	0.01729153
156	0x3d14fff7	0.03637692
157	0xbb7d23fe	-0.003862619
158	0x3d39e90a	0.04538826
159	0x3d1e2e32	0.038618274
160	0xbd8598d4	-0.0652329
161	0xbdb079fd	-0.086170174
162	0xbd81f819	-0.06346149
163	0x3c59fb4f	0.013304546
164	0x3d4da53f	0.05020642
165	0xbd29a251	-0.041414563
166	0x3b2dec00	0.0026538372
167	0x3d260932	0.040536113
168	0x3b194e7f	0.0023392735
169	0xbdaa93f4	-0.08329001
170	0x3b5836de	0.0032991688
171	0x3c7fdd27	0.015616692
172	0xbca37218	-0.019951865
173	0xbccbe75d	-0.024890596
174	0xbd686ef2	-0.05674643
175	0xbd6ae178	-0.05734393
176	0xbc79bb6d	-0.01524244
177	0x3acab1fb	0.0015464419
178	0xbc7425cb	-0.014901589
179	0x3d0c34e7	0.03423014
180	0xbc312a6e	-0.010813339
181	0xbd6c2422	-0.057651646
182	0xbada9cfa	-0.0016678863
183	0xbcad0580	-0.021120787
184	0xbce8e3d9	-0.028428959
185	0xbda776be	-0.08176945
186	0x3d4deb3f	0.050273176
187	0xbd73d784	-0.059531704
188	0xbcf7e902	-0.030262474
189	0xbd82ddd7	-0.06389969
190	0x3d04220f	0.032259043
191	0xbd249fcc	-0.040191457
192	0x3d1dea78	0.038553685
193	0x3d55c1f6	0.05218693
194	0x3d6776ba	0.05650971
195	0x3c84b8a6	0.016201328
196	0x3bbd3591	0.005774208
197	0xbd39475a	-0.04523406
198	0x3c5a2a77	0.0133157885
199	0xbd03cf69	-0.032180224
200	0x3c1dfea0	0.009643227
201	0xbd16b994	-0.036798075
202	0xbdb3b458	-0.08774632
203	0x3d44fd78	0.04809329
204	0x3d063414	0.03276451
205	0x3cf1f9ec	0.029538117
206	0x3c167c12	0.009184854
207	0x3c2299be	0.00992435
208	0x3cd635ac	0.02614864
209	0xbabf28c0	-0.0014584288
210	0xbd44b02b	-0.04801957
211	0x3a093858	0.0005234531
212	0xbc2163b6	-0.009850433
213	0xbc75438a	-0.014969716
214	0x3a0d4680	0.00053892285
215	0x3d360e3a	0.04444716
216	0xbd692b0c	-0.05692582
217	0xbb340a34	-0.0027471902
218	0x3c9fd023	0.019508427
219	0x3cdc9d7d	0.026930565
220	0x3bc12125	0.0058938437
221	0xbd27c00b	-0.04095463
222	0x3d19c9fc	0.037546143
223	0xbd0b9c81	-0.0340848
224	0x3cac6db5	0.021048406
225	0x3d0e1e30	0.034696758
226	0xbd1034f8	-0.035206765
227	0xbd3eadae	-0.046552353
228	0x3cc86ddc	0.024466448
229	0x3d5162e8	0.051119715
230	0xbc726b97	-0.014796159
231	0x3c29df30	0.010368153
232	0xbc9dbfe0	-0.019256532
233	0x3d40c67c	0.04706429
234	0xbd672245	-0.056429166
235	0xbd5c30cb	-0.05375747
236	0x3c75dfd8	0.015006982
237	0x3d62c2f4	0.055361703
238	0xbd550a76	-0.05201193
239	0xbd6b02ae	-0.057375602
240	0xbd79a66c	-0.060949728
241	0xbce61950	-0.028088242
242	0xbd466767	-0.048438456
243	0x3d4b7a72	0.04967732
244	0xbced68f1	-0.028980704
245	0x3d07f71a	0.03319464
246	0x3cdc127a	0.026864279
247	0xbcdadc9a	-0.02671652
248	0x3c68dcd7	0.014212809
249	0xbd890e0b	-0.066921316
250	0x3cb5d177	0.022194607
251	0xbdb0dce0	-0.086358786
252	0xbda4636e	-0.08026777
253	0xbd1e237a	-0.03860805
254	0x3c0b2050	0.008491591
255	0xbd81ec23	-0.06343868

network.2.bias f4 [128]
0	0xbd691068	-0.05690041
1	0xbda5a662	-0.08088376
2	0xbc1b7e66	-0.009490585
3	0xbd2ed865	-0.04268684
4	0xbc74d89c	-0.014944222
5	0x3bffd107	0.0078069004
6	0xbd3857c0	-0.04500556
7	0xbd724a49	-0.059152875
8	0x3d7cc7b9	0.061713908
9	0x3e13867d	0.14406772
10	0xbd538358	-0.05163893
11	0xbdd500b1	-0.104005225
12	0xbd7670f1	-0.060166303
13	0xbd879a21	-0.06621195
14	0xbda76b33	-0.081747435
15	0xbcf06284	-0.02934385
16	0xbca5c61c	-0.020236067
17	0xbdc868dd	-0.09785626
18	0xbc3e1f1b	-0.011604096
19	0x3d8f768b	0.07005032
20	0xbd6018e8	-0.054711252
21	0xbd839f82	-0.06426908
22	0x3c168f83	0.009189489
23	0xbdcba103	-0.0994282
24	0xbd472bc0	-0.048625708
25	0x3d59409d	0.053040136
26	0x3e18ce8c	0.14922541
27	0xbdb0100f	-0.08596813
28	0xbe033469	-0.12812962
29	0x3acda602	0.0015689733
30	0xbd3e646c	-0.04648249
31	0xbd3977a3	-0.04528011
32	0x3c9b8fa9	0.018989401
33	0xbd3ec066	-0.046570204
34	0x3ba53525	0.0050417357
35	0xbd496271	-0.049166147
36	0xbd443a0f	-0.04790693
37	0xbd54333d	-0.051806677
38	0x3dd600b7	0.10449355
39	0xbd381219	-0.044939134
40	0xb9176903	-0.00014439602
41	0xbe0ae2d7	-0.13563095
42	0xbd10a8c1	-0.035317186
43	0xbe3d5722	-0.1849027
44	0xbdac67f1	-0.08418263
45	0xbcf278bc	-0.029598586
46	0x3d973eaf	0.07385003
47	0x3d101804	0.035179153
48	0xbd883e4f	-0.066525094
49	0xbe5332fe	-0.2062492
50	0xbba50204	-0.0050356407
51	0xbcaf9968	-0.021435454
52	0xbd76d496	-0.06026133
53	0xbd1e426f	-0.038637575
54	0x3c6634db	0.014050688
55	0x3b89bff9	0.004203793
56	0x3e225e1c	0.15856212
57	0x3dd1b42c	0.10239443
58	0xbd43d4d1	-0.04781038
59	0xbcb3c7b2	-0.021945808
60	0xbdd81672	-0.10551156
61	0xbb680862	-0.0035405387
62	0xbd2d60bc	-0.04232858
63	0x3e8c1a22	0.27363688
64	0xbd9fabab	-0.07796415
65	0x3cabfaff	0.020993708
66	0xbd8a1f56	-0.06744258
67	0xbd9b3511	-0.07578481
68	0x3cc80ac5	0.024419198
69	0x3cd207f4	0.025638558
70	0xbdc51d62	-0.09624745
71	0x3dc92393	0.09821238
72	0xbbc01c78	-0.0058627687
73	0xbc9e242f	-0.019304363
74	0xbd00f1f3	-0.03148074
75	0xbc406173	-0.011741984
76	0x3d26f33f	0.04075932
77	0xbd086d71	-0.033307496
78	0xbdb2bc75	-0.087273516
79	0x3d678c5a	0.056530334
80	0xbdc1e71f	-0.09467911
81	0x3d4edf97	0.0505062
82	0x3e15cfba	0.14630023
83	0xbbf13b2c	-0.00736179
84	0xbcb43758	-0.021999046
85	0xbd3486f8	-0.04407403
86	0xbc6b604e	-0.014366223
87	0xbd8fcaf6	-0.070211336
88	0xbd345904	-0.044030204
89	0x3c294e5e	0.010333626
90	0xbda713f3	-0.08158102
91	0xbd6e01eb	-0.058107298
92	0x3cc9c215	0.024628678
93	0xbc0ccb12	-0.008593338
94	0xbd8e98f2	-0.06962766
95	0x3e0cd84a	0.13754383
96	0x3cbfb6af	0.02340254
97	0x3c8ba265	0.01704521
98	0x3e1b442d	0.15162726
99	0xbdec4dd9	-0.11538286
100	0x3ceeea19	0.02916436
101	0xbd4db789	-0.05022386
102	0x3d536e93	0.051619124
103	0xbd5d9bd3	-0.054103684
104	0x3dec9ea6	0.11553697
105	0xbd416caa	-0.04722277
106	0xbd94ed2f	-0.07271802
107	0xbd9d9d9d	-0.07696078
108	0xbd36ad08	-0.04459861
109	0xbcbc4c46	-0.022985589
110	0xbd2e72e1	-0.042590026
111	0x3c2117bc	0.009832319
112	0xbdd88657	-0.10572498
113	0xbca9029e	-0.02063113
114	0xbd562a4f	-0.052286442
115	0xbdbf5e11	-0.093441136
116	0x3e4997a0	0.19686747
117	0xbd58a7ec	-0.052894518
118	0xbd93d31f	-0.072180025
119	0xbd34b2dc	-0.044115886
120	0x3d88d557	0.06681316
121	0x3ca8597b	0.02055048
122	0xbd9da998	-0.07698363
123	0xbd8aa843	-0.067703746
124	0xbde637eb	-0.11241134
125	0xbd9eca76	-0.0775346
126	0x3d5a81bd	0.053346384
127	0x3cbb3c9c	0.02285605

network.4.weight f4 [64, 128]
0	0x3c137230	0.008999392
1	0xbcff1c89	-0.031141536
2	0xbd770dd7	-0.060315933
3	0x3d1a22b1	0.03763074
4	0xbda0f057	-0.07858341
5	0xbd4c42ab	-0.049868267
6	0x3dada655	0.08478991
7	0x3ce0f4c8	0.02746047
8	0x3d043542	0.032277353
9	0xbcce0fac	-0.025153957
10	0x3d990cab	0.07473119
11	0x3d83153f	0.06400537
12	0xbd0be714	-0.03415592
13	0x3d7e1216	0.062028967
14	0x3d89d66f	0.06730353
15	0x3c6ffe36	0.014648011
16	0xbc1b0338	-0.009461217
17	0x3dae244b	0.08503016
18	0x3d729da2	0.05923236
19	0xbb975ab0	-0.004618965
20	0xbd34959e	-0.044088
21	0xbd198d86	-0.037488483
22	0x3c8cf4e4	0.017206617
23	0x3d769372	0.06019921
24	0x3daf37b1	0.08555544
25	0xbdb1f90b	-0.08690079
26	0xbe0f766c	-0.14010018
27	0xbdb11784	-0.086470634
28	0xbba8d6e0	-0.005152568
29	0x3d965ac9	0.07341535
30	0x3d55630e	0.05209642
31	0x3da37b2e	0.07982479
32	0x3b37fb00	0.0028073192
33	0x3b1cec20	0.0023944452
34	0x3d5866ba	0.052832343
35	0x3d007eba	0.031370856
36	0xbda82a84	-0.08211234
37	0x3d26fdae	0.04076927
38	0xbda7ba59	-0.0818984
39	0x3d09dc8c	0.033657596
40	0xbd793181	-0.060838226
41	0xbd46f91d	-0.048577417
42	0xbd83af03	-0.06429865
43	0xbd66720e	-0.056261115
44	0xbd3afe9f	-0.04565298
45	0x3d51dbc2	0.051234968
46	0xbd6e5b48	-0.05819252
47	0xbd428ffb	-0.04750059
48	0xbd9b80c0	-0.075929165
49	0xbe054888	-0.1301595
50	0xbcac5698	-0.021037385
51	0xbc241a60	-0.010016054
52	0xbd519fba	-0.051177718
53	0x3d7b6fde	0.06138598
54	0xbd6d094e	-0.0578702
55	0xbd11d7ab	-0.035606068
56	0x3d7b86e4	0.06140794
57	0xbd395672	-0.045248456
58	0xbdb74091	-0.08947862
59	0x3ca81a50	0.02052036
60	0xbcf5c016	-0.02999882
61	0x3d3e8206	0.04651072
62	0x3cbf3a14	0.023343123
63	0x3c3d8553	0.0115674315
64	0xbd84b72e	-0.06480251
65	0x3cd23344	0.025659211
66	0x3ba67a10	0.005080469
67	0x3dafdd8f	0.08587181
68	0x3d3396c6	0.04384496
69	0x3ccfaa20	0.025349677
70	0xbd8e8568	-0.06959039
71	0xbd89d30a	-0.06729706
72	0xbdaeef47	-0.08541732
73	0xbce297bb	-0.027660241
74	0xbd2120a2	-0.03933776
75	0x3b10b1c0	0.0022078604
76	0xbca2b74d	-0.019862795
77	0xbcae0760	-0.021243751
78	0x3da41959	0.08012647
79	0xbd144b48	-0.036204606
80	0x3d78a02a	0.06069962
81	0x3db0b01f	0.086273424
82	0xbd38bc00	-0.045101166
83	0xbcf9328e	-0.030419614
84	0xbceb0778	-0.028690085
85	0x3c4cc3b0	0.012497827
86	0xbd0d7079	-0.03453109
87	0x3de66c80	0.112511635
88	0xbd031182	-0.03199912
89	0x3d8d02a3	0.068852685
90	0x3d595526	0.05305972
91	0xbc875f4d	-0.016524935
92	0xb9eff200	-0.00045765936
93	0xbbd9dcf0	-0.0066486523
94	0x3bff4b25	0.0077909403
95	0xbdbf354f	-0.0933634
96	0xbcf2e62c	-0.02965077
97	0xbc4030f2	-0.0117304195
98	0x3c0be850	0.008539274
99	0x3c891788	0.016734853
100	0xbd96fe84	-0.07372764
101	0x3cd9b0fc	0.02657365
102	0x3b78da20	0.003797181
103	0xbda287ff	-0.079360954
104	0xbab08560	-0.0013467483
105	0xbb411760	-0.0029463395
106	0x3d4c607e	0.04989671
107	0xbc5086b0	-0.0127274245
108	0xbda13dde	-0.07873128
109	0xbd95f962	-0.073229566
110	0x3d320bfa	0.043468453
111	0xb9b4d33d	-0.0003448966
112	0xbbe13ef0	-0.006873958
113	0x3cee6dc8	0.029105082
114	0xbd36ba7e	-0.044611447
115	0x3c62d458	0.013844572
116	0xbdb486cb	-0.08814772
117	0xba1de000	-0.00060224533
118	0x3d73b1a6	0.05949559
119	0x3cf48fac	0.029853664
120	0x3c0491b0	0.008091375
121	0xbda84cac	-0.08217749
122	0x3db1386d	0.086533405
123	0x3da6e983	0.081500076
124	0xbd35ffaf	-0.044433292
125	0x3da8cf77	0.08242696
126	0x395852f5	0.00020630269
127	0xbd39817a	-0.045289494
128	0x3d9fd021	0.07803369
129	0xbd9a3e65	-0.07531432
130	0x3bf7aaf5	0.0075582215
131	0x3c4d96c3	0.012548151
132	0xbc4a720f	-0.012356295
133	0x3d8d3e49	0.068966456
134	0xbd94b114	-0.072603375
135	0xbca604a2	-0.020265881
136	0xbd94f119	-0.07272548
137	0x3e250ce1	0.16118194
138	0xbe020708	-0.12697995
139	0xbd2e99db	-0.042627197
140	0xbd31be6e	-0.0433945
141	0x3d2c7020	0.04209912
142	0xbcbf9174	-0.023384787
143	0x3c717af3	0.014738786
144	0xbd70b214	-0.05876358
145	0x3bdcb92d	0.006735942
146	0x3cfeca34	0.031102277
147	0xbd872ec2	-0.06600715
148	0xbf737c6c	-0.9511173
149	0xbcdb2032	-0.02674875
150	0xbdb577ed	-0.08860765
151	0xbd7d3de4	-0.0618266
152	0x3b63fcd4	0.0034788148
153	0xbc00302e	-0.007823987
154	0x3ef8f97d	0.48627844
155	0x3cb7519f	0.022377787
156	0x3caf7cbd	0.021421785
157	0xbd3aeebc	-0.04563783
158	0xbdd32a1e	-0.103107676
159	0x3c0d14a1	0.008610875
160	0xbd12ab3f	-0.035807844
161	0x3d1c9304	0.038226143
162	0xbcf471f4	-0.029839493
163	0x3dd4fb2c	0.1039947
164	0xbd0a601d	-0.033783067
165	0xbd432a73	-0.047647905
166	0xbdb857ce	-0.090011224
167	0xbd42fecf	-0.047606286
168	0x3adce752	0.0016853607
169	0xbeaee78b	-0.34161028
170	0x3d1e113b	0.03859065
171	0xbc1c698c	-0.009546649
172	0x3dc67d0e	0.09691821
173	0xbd058767	-0.032599833
174	0x3c77a9e3	0.015116188
175	0xbdb257a7	-0.087081246
176	0x3e8cf8a0	0.27533436
177	0x3d9cc333	0.07654419
178	0x3db49e03	0.08819201
179	0x3c642f63	0.0139273135
180	0xbcdaab79	-0.026693093
181	0xbda00616	-0.07813661
182	0x3e98a7f2	0.29815632
183	0xbd9b5817	-0.07585161
184	0xbd41ec16	-0.04734429
185	0xbcad58b4	-0.021160461
186	0xbcafdc3f	-0.021467326
187	0x3cb32cfd	0.021872038
188	0xbd9448ce	-0.07240449
189	0x3c50aa15	0.012735863
190	0x3d9ac8e9	0.07557852
191	0xbdf6f7f8	-0.12059015
192	0xbc9ef48c	-0.019403718
193	0xbcb96e71	-0.02263567
194	0x3d2ef51f	0.042714234
195	0x3cd9cb90	0.026586324
196	0x3d89da05	0.06731037
197	0xbd967cbe	-0.073480114
198	0xbd7038f4	-0.058648065
199	0xbc8a5a45	-0.016888747
200	0x3a9a46b8	0.0011770343
201	0xbd158947	-0.03650787
202	0xbe883184	-0.26600277
203	0x3b0a802f	0.0021133532
204	0x3e877812	0.26458794
205	0x3dfd3752	0.12364067
206	0x3c180c3a	0.009280259
207	0x3e232dc0	0.15935421
208	0xbda75edd	-0.081723906
209	0xbd66f4fa	-0.05638597
210	0x3eb44352	0.3520761
211	0xbcab5beb	-0.020917853
212	0x3d94ce3b	0.07265898
213	0xbab07b56	-0.0013464491
214	0xbe2894ff	-0.16463087
215	0xbc74bc5c	-0.0149374865
216	0x3c9a5394	0.018838681
217	0x3d2f3e61	0.0427841
218	0xbd05813e	-0.032593958
219	0xbd93d699	-0.07218666
220	0xbd0734ef	-0.033009466
221	0xbcf8fe6d	-0.030394757
222	0x3cf8c5d8	0.030367777
223	0xbe200661	-0.15627433
224	0x3da747f1	0.081680186
225	0x3e2202d9	0.15821399
226	0x3d89afdb	0.06722995
227	0x3d271bca	0.040797986
228	0x3df21fb4	0.11822453
229	0x3d8d4d27	0.06899481
230	0xbd308ed5	-0.043104965
231	0x3d4bc80d	0.04975133
232	0xbe0e2383	-0.13880734
233	0xbde31377	-0.11087697
234	0x3a36839a	0.0006962359
235	0xbbb4d9a3	-0.0055191084
236	0x3d0e71df	0.034776565
237	0x3c846237	0.016160114
238	0x3d75682a	0.05991379
239	0x3e8c31f1	0.27381852
240	0x3d903728	0.0704177
241	0x3d5b2a91	0.05350739
242	0x3e89997d	0.26874915
243	0xbd02a5aa	-0.03189627
244	0x3ee655e4	0.44987404
245	0xbda29e15	-0.07940308
246	0xbbcd4792	-0.0062646354
247	0x3d48f488	0.04906133
248	0xbd54e65a	-0.051977493
249	0xbe2fd6b5	-0.17171748
250	0x3cc87851	0.024471434
251	0x3c061bae	0.00818531
252	0xbd97a8b0	-0.074052215
253	0xbd9ab4ff	-0.075540535
254	0xbdab02b9	-0.08350129
255	0xbcc3de7e	-0.023909803

network.4.bias f4 [64]
0	0xbdee5382	-0.116370216
1	0x3e5f5a18	0.21811712
2	0xbe4b4342	-0.19849876
3	0x3e338746	0.17532071
4	0x3d386644	0.045019403
5	0xbd776b8c	-0.0604053
6	0x3d43da0f	0.04781538
7	0xbb2c9cca	-0.002633857
8	0x3ec405f1	0.38285783
9	0xbd51637d	-0.05112027
10	0xbe19b107	-0.15008937
11	0xbd831688	-0.06400782
12	0x3ea19986	0.31562442
13	0xbe212d7f	-0.15740012
14	0xbe667339	-0.22504891
15	0xbaa9d0ae	-0.0012955868
16	0xbe2333e6	-0.15937766
17	0xbdebcbf5	-0.11513511
18	0xbd925f42	-0.07147075
19	0x3dcfb38f	0.1014167
20	0xbd060751	-0.03272182
21	0xbe08d199	-0.13361205
22	0x3dce3cc5	0.100701846
23	0xbde975c8	-0.11399418
24	0x3e03dd9f	0.1287751
25	0xbcc24e3d	-0.023718948
26	0xbdc9bb8e	-0.09850226
27	0x3ed19dcd	0.40940705
28	0x3d395423	0.045246255
29	0x3e88bcd9	0.2670658
30	0xbd557325	-0.052111764
31	0xbe28f82d	-0.16500922
32	0x3ca99702	0.020701889
33	0x3e26dd1f	0.16295289
34	0x3d8a474d	0.06751881
35	0x3d1b28ec	0.037880823
36	0x3e070d9f	0.1318879
37	0xbe1305fd	-0.14357753
38	0x3d6719b0	0.056420982
39	0xbd474443	-0.048649084
40	0xbda0bf17	-0.078489475
41	0xbdd87021	-0.10568262
42	0x3e485321	0.19562961
43	0xbe5bbbc4	-0.21458346
44	0x3e11f2bd	0.14252754
45	0xbdfc7fd9	-0.123290725
46	0x3e0b0b24	0.13578469
47	0x3ce6d15a	0.028175998
48	0x3dafec6b	0.08590015
49	0x3e25ddfc	0.16197962
50	0xbca95c77	-0.020673973
51	0x3e159c34	0.14610368
52	0x3ca510ed	0.020149672
53	0xbda4fa1e	-0.080555186
54	0x3ea774d1	0.3270631
55	0xbd22b8b4	-0.039726928
56	0x3e56e4bd	0.20985694
57	0x3e3f8873	0.18704395
58	0xbd894cec	-0.06704125
59	0xbdf762d0	-0.12079394
60	0x3d3aa674	0.0455689
61	0x3e446dd4	0.19182521
62	0x3e3a5ff9	0.18200673
63	0xbd665838	-0.056236476

network.6.weight f4 [2, 64]
0	0x3c98baed	0.01864382
1	0x3e59e1a0	0.21277475
2	0xbd50d53a	-0.0509846
3	0x3efa158e	0.4884457
4	0xbe1683ba	-0.14698687
5	0x3bd2ea99	0.0064366576
6	0x3dbf5191	0.093417294
7	0x3eaf7c51	0.34274533
8	0x3eaf7b12	0.34273583
9	0xbd282101	-0.0410471
10	0xbcc4d773	-0.024028515
11	0x3d41506f	0.047195848
12	0x3ed4a652	0.41533142
13	0xbca2bfb8	-0.01986681
14	0x3e1ee9aa	0.15518823
15	0xbd1523f9	-0.03641126
16	0xbd93e36d	-0.072211124
17	0x3d6d7488	0.05797246
18	0xbcf01948	-0.02930893
19	0x3d65fb23	0.056147706
20	0x3db7e0be	0.08978413
21	0xbd3af2da	-0.045641758
22	0x3e122240	0.14270878
23	0xbcf07059	-0.029350447
24	0x3e124c18	0.1428684
25	0xbefbb004	-0.49157727
26	0x3cde2c19	0.027120637
27	0x3e98d228	0.29847836
28	0x3dcd15e7	0.10013943
29	0xbf236feb	-0.6384265
30	0xbe9fa34a	-0.31179267
31	0x3e1b16fe	0.1514549
32	0x3d3763ad	0.044772793
33	0x3eb5d034	0.3551041
34	0x3ed88216	0.42286748
35	0x3ed4cace	0.41560978
36	0xbec13490	-0.37735415
37	0x3d877110	0.06613362
38	0xbeb88bfa	-0.36044294
39	0xbc0779b0	-0.008268759
40	0xbdceb082	-0.1009226
41	0xbd50ebc7	-0.051006105
42	0x3eb096df	0.34490106
43	0x3bc40656	0.0059822006
44	0x3ee34823	0.44390973
45	0xbd58bf88	-0.052917033
46	0x3dd3ce32	0.10342063
47	0x3efa1b7e	0.488491
48	0x3e1192db	0.14216177
49	0x3ed52b6e	0.41634697
50	0xbc9b4f60	-0.018958747
51	0x3eb7c423	0.35891828
52	0x3e630f9a	0.2217392
53	0x3e3f81e5	0.18701895
54	0x3ec0c143	0.37647447
55	0xbce437f8	-0.02785872
56	0x3e86899f	0.26276872
57	0xbdbda05a	-0.092591
58	0x3c6550c2	0.013996305
59	0x3e21c3fd	0.1579742
60	0x3daa1968	0.08305627
61	0x3e25ff78	0.16210735
62	0x3eb9bda7	0.36277506
63	0xbd21afdc	-0.039474353
64	0x3c65c2f1	0.014023528
65	0x3e87fb61	0.26558974
66	0xbe016eb8	-0.12639892
67	0x3e6ce9b6	0.23136029
68	0x3d781730	0.06056899
69	0xbcdf53d2	-0.027261648
70	0x3e6c8d6b	0.23100822
71	0x3e9c5823	0.30535993
72	0x3ec1d356	0.3785655
73	0xba1174ef	-0.00055487355
74	0xbcc8f6cb	-0.024531743
75	0x3d9207ec	0.07130417
76	0x3ededa73	0.4352604
77	0x3adf9db3	0.0017060548
78	0x3da9093e	0.08253716
79	0x3e57a271	0.2105806
80	0x3b5441f2	0.003238794
81	0xbbd01caf	-0.0063510756
82	0xbd5ec704	-0.054389015
83	0x3e0c9e51	0.13732268
84	0xbe96095a	-0.2930401
85	0xbe066793	-0.13125448
86	0x3e871afe	0.2638778
87	0xbcfd0b6e	-0.03088924
88	0x3e82b9bc	0.2553233
89	0xbd910eef	-0.070829265
90	0xbda2b8a5	-0.079453744
91	0x3f0d08d6	0.5509161
92	0x3e626cd4	0.22111827
93	0x3df27002	0.1183777
94	0xbcc7784f	-0.02434936
95	0x3e018bb3	0.12650947
96	0x3e1f304f	0.15545772
97	0x3eb2d745	0.34929863
98	0x3ec0aa8e	0.37630123
99	0x3e4c7b72	0.19968966
100	0x3e6b98c6	0.23007497
101	0x3bf9280e	0.007603652
102	0xbd42c840	-0.047554255
103	0x3d2a2f4a	0.041549005
104	0xbd971925	-0.07377843
105	0xbd079bde	-0.03310763
106	0x3e85767e	0.26066965
107	0xbe479c8b	-0.1949331
108	0x3ed7f27b	0.42177185
109	0x3caff69c	0.021479897
110	0x3e72c8fd	0.23709483
111	0x3e3776e7	0.17916451
112	0x3e703ef1	0.2346151
113	0x3e879b31	0.2648559
114	0x3e70c5f1	0.23513009
115	0x3e5fbd8f	0.21849655
116	0x3e7d2e2c	0.24724644
117	0x3c09455e	0.008378355
118	0x3ed33c8b	0.41257128
119	0x3cc4c029	0.02401741
120	0x3ec85826	0.39129752
121	0x3ea9bb18	0.33150554
122	0x3d30ddab	0.04318015
123	0x3e0ad665	0.13558348
124	0x3e6eb9ff	0.2331314
125	0x3edd80f1	0.43262437
126	0x3ed01118	0.40638041
127	0xbbc9dc20	-0.006160274

network.6.bias f4 [2]
0	0x3ef8bba7	0.48580667
1	0x3f17dc3a	0.59320414
