models/monopoly_ai_100.pth (torch, 379901 bytes, 8 tensors)

network.0.weight f4 [256, 205]
00000000: 8180 a23c 8b57 11be f65d 713d 609e 323d
00000010: 00a5 98bc 52f5 5e3d 00f0 9139 e3cf 443d
00000020: 131a 9dbd 9f54 c9bc 14e7 5f3d 104e a6bc
00000030: 605e 383c 2033 c5bb 9074 e1bb 6663 553d
00000040: b83f 4abc aba6 023d 6de9 2bbc 6156 b83d
00000050: c8c5 4e3c 1842 7c3c 4cb4 b73c aba8 7abd
00000060: c2d1 4c3d 9e42 5b3d a01e 7b3b b03b 92bd
00000070: 1953 60bc 8926 28bd deea 033d eefd c5bc
00000080: feb4 0e3d b822 643c 2e71 01bd 001a 703c
00000090: a6e4 22bd f8d5 473d 40c4 ef3a 5a19 80bd
000000a0: fe43 08bd d858 e53c 148c d5bc e499 1abd
000000b0: 0d3e 0dbd e053 383d b890 c8bc 6bc0 c7bd
000000c0: d7d0 abbc 2d49 8cbd df20 14bd 64f5 e43c
000000d0: de82 88bd 8b86 8a3d d6b9 353d c818 043d
000000e0: dffc 8d3d 2f89 1dbd 9308 2dbd 3afa 4a3c
000000f0: 237b 82bd 7e32 0e3d 8588 41bd 0c38 63bd
00000100: 718e e53c f4b2 0b3d e841 a2bc bb74 b3bd
00000110: 510e b0bd 7864 123d e028 ff3c 5210 603d
00000120: f30f 27bb 377c 9ebd ce0d f13c 402c 36bd
00000130: a605 ccbc 6a1c 72bd e9c6 98bb e73b 183d
00000140: d6db 303d cafb 75bd 611e 59bd 98cc c3b9
00000150: cb7c 22bd c7e4 04bd f88c 213d 20a6 c53b
00000160: 24b4 f23c 20d7 893c 1ca5 40bc ae56 0e3d
00000170: fb03 a4bd 4839 fd3b bba8 acbd 0a63 673d
00000180: 9894 46bd 09e4 a4bd c248 dabd e529 14bc
00000190: c6ec 7b3d f439 613d 40d8 3b3c f17f 8cbd
000001a0: b2ec e6bc c8ee 50bd 7eca 8fbc c7d3 03bd
000001b0: a6e4 86bd 93eb bcbd 6e8a 7b3d 31be 71bd
000001c0: 9755 8b3d d45f bfbc a64e 23bd b645 bdbc
000001d0: 90aa b53b af58 ae3d 6b49 e2bb 1cea 47bd
000001e0: 6c43 523d 2e27 0fbd 52e4 b2bc 24cd a7bd
000001f0: d0f5 303d e682 0abd 8042 82bc 7cde 7cbd
00000200: 4b33 3e3d 62e0 39bd 84c9 403d f2ce 373d
00000210: a728 49bd df73 9abc 2491 58bd 14f2 033d
00000220: 4919 85bd 7dcd 46bd aaca eb3b 3cc8 b5bc
00000230: 6884 ab3c b28b 5ebd b9e8 093d 1920 5ebc
00000240: b4a7 90bd 8add 173d b80d 2dbc 28f3 e0bd
00000250: ef30 b7bc c812 19bd b63d 95bc 2cfb 073d
00000260: 5fb1 86bd 23bc 843d d64b 1d3d b3b9 8b3d
00000270: 00ce 96bb 3b1c de3c 30cd 36bd 0409 bb3c
00000280: d55b 0cbd 00e3 c73c 5acf 0dbc d70f 25bd
00000290: 2a57 33bc 2896 c03c 2413 083d 940f 48bd
000002a0: 5ad5 ddbc bc7e 45bc 30c9 323d 5ca6 15bd
000002b0: 44da 0cbc ec90 2ebd ad2c 533d 5e1a 1f3d
000002c0: 0080 feb9 38cc 553d 3b42 1abd aaba 19bd
000002d0: 205d b73b 30ba 553c 70fa 2fbc c835 28bd
000002e0: 80ba 81bd 7c5b 8c3c 7827 223d 03f3 a3bd
000002f0: 6aa8 91bc 5b8c 79bd ce84 543d 7096 e0bc
00000300: 1a2a e3bc ac47 a83c 6e68 87bd 2747 8bbd
00000310: 692c 8bbd b228 d73c bf55 be3a b180 773d
00000320: a847 0dbc 4ce8 923c 47a4 6fbd c01c 75bd
00000330: b025 92bc 7f78 f7bd 3fe5 6fbe 7e11 523d
00000340: 30ab 61bd 580c 6b3c 5cd3 d63c fe55 3d3d
00000350: ad9d 8f3c 376f 4fbe ff75 8e3d 249e ac3c
00000360: 14bd 16bc 0a83 533d a760 4abd 8020 42bc
00000370: 188e 863c e064 eabc e966 b7bd af7a d63c
00000380: 9a49 aebd c07e 213c d399 8dbd 1611 4c3d
00000390: 98c1 8dbd 8ccb bfbc bc0a c83c 9c84 863c
000003a0: dc33 8ebc ab58 b2bd d032 583d e5c5 863d
000003b0: 38c8 85bd 0ce1 41bd b910 0fbe 7ff6 06bd
000003c0: fb84 833d 38d2 773c 2a56 7b3d 0697 3bbd
000003d0: ce65 743d 08cc 1abc 5557 823d 03b5 883c
000003e0: f1b2 a63d 78ab 01be 1046 dcbb f042 d1bb
000003f0: 674a 953c 1b5e 1e3e cb32 1cbe 8a9a 073d
0.019836666 -0.14193551 0.0589275 0.04360807 -0.018633366 0.054433174 0.0002783537 0.04804982
-0.07670989 -0.024576483 0.054663733 -0.020300895 0.0112529695 -0.0060180575 -0.0068803504 0.052096747
-0.012344293 0.03189723 -0.010492665 0.090008505 0.012620397 0.015396617 0.02242484 -0.06119601
0.05000473 0.053530328 0.0038317814 -0.07140291 -0.013691687 -0.041052375 0.03220641 -0.024168935
0.034840576 0.013924293 -0.031602077 0.014654636 -0.039768837 0.04878804 0.001829274 -0.062548354
-0.033267967 0.027996466 -0.026067771 -0.037744418 -0.034483004 0.045001864 -0.02448307 -0.09753498
-0.020973606 -0.06849895 -0.03616416 0.027949043 -0.06665586 0.06763943 0.04436668 0.032250196
0.06932997 -0.038460907 -0.042244505 0.01238876 -0.06371143 0.03471612 -0.047249336 -0.055473372
0.028022023 0.03410621 -0.019806817 -0.08762499 -0.08596481 0.035740346 0.03114742 0.054703064
-0.0025491684 -0.07738536 0.029425528 -0.044475794 -0.024905037 -0.05910913 -0.004662384 0.037166502
0.043178402 -0.060054578 -0.053007487 -0.00037345733 -0.039669793 -0.03244474 0.03944108 0.0060317665
0.029626913 0.016826212 -0.011758115 0.034750633 -0.08008572 0.0077277757 -0.0843062 0.056490935
-0.048481554 -0.08051307 -0.10658409 -0.009043192 0.0615051 0.05498691 0.011465132 -0.068603404
-0.028189037 -0.05100897 -0.01755261 -0.03218439 -0.0658658 -0.0922462 0.061411314 -0.05901927
0.06803434 -0.023361124 -0.039869927 -0.02310453 0.0055440143 0.08513009 -0.0069057248 -0.04880725
0.05133383 -0.034949474 -0.021837387 -0.08193424 0.043203175 -0.03381624 -0.01590085 -0.061735615
0.046435636 -0.045380004 0.04706718 0.044875093 -0.049111035 -0.01885408 -0.052872792 0.032213286
-0.064989634 -0.048535813 0.0071957903 -0.022190206 0.02093716 -0.054332443 0.033669207 -0.013557457
-0.07063237 0.03707651 -0.010562353 -0.109838784 -0.0223622 -0.037371427 -0.018217903 0.03319852
-0.065767996 0.06481197 0.0384024 0.06822529 -0.004602194 0.02711307 -0.044629276 0.022831447
-0.034267265 0.024400234 -0.0086553935 -0.04029831 -0.0109460745 0.0235091 0.03322138 -0.04884298
-0.027079273 -0.012054142 0.0436489 -0.036535606 -0.00859696 -0.042618677 0.051556278 0.038843505
-0.00048542023 0.05219671 -0.03766082 -0.037531532 0.005595818 0.013044879 -0.010740861 -0.041066915
-0.063344 0.017133467 0.03958842 -0.08005335 -0.017780501 -0.06092487 0.051884465 -0.027415484
-0.027730037 0.020541988 -0.06611715 -0.068006806 -0.0679558 0.026264522 0.0014521404 0.060425464
-0.008623041 0.017933033 -0.058506276 -0.05984187 -0.017840236 -0.1208353 -0.23427294 0.051286213
-0.055094898 0.014346205 0.02622383 0.046224587 0.01753124 -0.20257269 0.069561 0.021071501
-0.009200353 0.05163864 -0.04940858 -0.011848569 0.016425177 -0.028612554 -0.089551754 0.026181547
-0.08510132 0.00985688 -0.06914105 0.049820982 -0.06921691 -0.023412488 0.024419181 0.016420655
-0.017358713 -0.08708318 0.052782834 0.06580714 -0.06532329 -0.047333762 -0.13971223 -0.03294992
0.064218484 0.015125804 0.06136147 -0.045798324 0.0596674 -0.009448059 0.063643135 0.016687876
0.08139599 -0.12663066 -0.0067222193 -0.0063861534 0.018223954 0.15465586 -0.15253751 0.033106364

network.0.bias f4 [256]
00000000: 7625 11bd df46 05bd 051b 623c 6a42 c0bd
00000010: dfb3 673c 02a0 70bd 19e1 b13d af18 62bd
00000020: dc24 0cbd 0d90 463d ade9 1cbd 4554 94bb
00000030: 5941 a03d 1a30 95bd 3e82 84bd b949 cbbc
00000040: 6287 673d c1a2 0abd 4e9f ef3c 2101 8d3d
00000050: 0d39 abbd 356c 413d 1e05 b63d c51e d13d
00000060: f219 efbc f693 e83c c6c6 b1bc 7b03 3b3d
00000070: 8f19 87bc 178b 263d fb0a 15bd c417 9dbd
00000080: a7c6 89bd a94c 06bc b303 603d 5b9a d33c
00000090: 7ff4 493d 0e5b 0ebc 04bd d4bb 3268 59bd
000000a0: ef70 2dbc 5c8d 933d 3796 adbd 1736 b43d
000000b0: 80ff b13c 1e16 abbd 3cfb e73b 0f1a 653d
000000c0: a14c b43d fca1 5ebd 96da 3e3e 3b45 503d
000000d0: 7f26 91bb 7f4a d73c 70a2 8abc e98a 313d
000000e0: 9a72 74bc 4c5c 953d 6c81 123d 8403 ae3b
000000f0: d101 82bd 84d3 a53d 4c27 a73d 8421 d53d
00000100: 8ee6 a3bd 1e15 a43c 0b03 d83c b711 0cbd
00000110: 657d 753d 9008 8dbc 74ae 323d 814d bfbd
00000120: 4695 32bd 3596 003e 8d18 afbd e621 1abd
00000130: d148 b03d 0a8a 36bd 3530 4fbd b702 0abd
00000140: 8214 bbbd b64a 4cbd c3b9 213d e023 d03c
00000150: 24e8 273d 9703 0bbd b2de b83c 7186 813b
00000160: 63c5 433c b741 95bd 8a7f b6bd 5824 76bd
00000170: 94aa a33b 1ba9 f4bc 8213 803d 82f5 eebb
00000180: de9e 38bc 27fb 8bbd 8cab 173d b125 023b
00000190: 7a79 7e3d 6dae 6dbd 3aab 02bd 937d 18bc
000001a0: 40ba 2fbd 33f0 8a3c 0e24 3d3d 4f0d c53d
000001b0: 4cd9 9abd 4ddf 05bb d53a 2e3d f405 1a3c
000001c0: 9a5e 42bd b631 983d e1fa 213b 690e c5bc
000001d0: 16fc 3f3d db25 af3d b4a1 4d3d 7a2c b1bd
000001e0: 1ffc 423d e842 9abd 8c3e 183d 984c a53d
000001f0: 0e32 003c fb57 61bd 102a 453d f13a 593d
00000200: 7050 d13b 1b59 a1bc 068f 06bd 4406 0d3d
00000210: ec9c 5d3b 8cbe b0bc 243d 05bd e17a 273d
00000220: 5dfa 813d 541d 1a3d 2acf c43d ee25 cabc
00000230: f2c7 883d 920d cabd d111 0d3d 1938 89bd
00000240: 4091 28bd d78b 88bc 6b75 3dbd 742b 453d
00000250: 4365 5f3c 47fd bbbc 3e73 493b 0f89 54bd
00000260: a25b a9bd 04ee 873c cfd4 8bbd 614a 773d
00000270: 8523 e83b 1fdf 36bc f02e 0abc d753 6a3c
00000280: f692 9fbd 357d 8c3d bb85 c3bd 4525 bcbd
00000290: 7e0f 153d 79fa c13c ce25 66bd 0c3c aabd
000002a0: a7fc d53c 1070 833d 6722 d73c 5e05 ac3d
000002b0: 23ca 3f3d 4938 a53c 048c bc3d a542 54bd
000002c0: 53b9 91bc 1b19 763d 30cf c93d 4661 c33c
000002d0: 0a68 c43c 5536 643d 29a9 6d3d 2333 00bd
000002e0: a5d7 5fbd e591 683d 0367 28bd b7ee 5b3d
000002f0: 9fee 183d dd72 53bd 9bdd 27bd 137c 10bb
00000300: 0135 54bd e4c2 493b 1e07 fbba 60d2 033d
00000310: 415d 423d 601d cbbc 8311 0cbb f859 a13c
00000320: 0521 afbd 94c5 ce3c 44f7 873d 909a 973b
00000330: 7469 5fbd e2cf 4f3c 41e0 c63d 5308 1d3c
00000340: 1856 9cbc f880 b5bd 5873 19bd a4d6 5b3c
00000350: bd4a 8c3d 5abc 763d 48e0 c23a e84c ee3c
00000360: 7480 3bbd 0ddf efbc 56ab 343e e455 bcbd
00000370: fb1b 8b3d 2a71 3b3d ab58 b9bc d622 8e3d
00000380: 7929 b137 0e24 93bd e80d 033c 5289 bc3c
00000390: 9053 f1bc 62cb 18bb e6d9 28bd b10e 92bd
000003a0: c703 833d 8a55 8ebd 0e77 593d 2e36 4fbd
000003b0: 5d7a a33b 6561 e03c db08 683e 8ca7 0c3d
000003c0: 75c4 82bd e6b3 5ebd 6409 7a3d fe50 f0bd
000003d0: b47b 1b3d f4c0 6bbd 14e5 9cbd b901 84bc
000003e0: fab9 0d3d 4599 84bc 255c d83b c1dc 123c
000003f0: 1f71 1ebd 9975 67bc eb86 4d3d 2409 abbd
-0.035436116 -0.03253829 0.013800387 -0.093876675 0.014142006 -0.058746345 0.08685512 -0.05519932
-0.03421484 0.04847722 -0.038308788 -0.0045266473 0.07824964 -0.07284565 -0.06470154 -0.024815427
0.056525595 -0.03384662 0.029250767 0.06884981 -0.08360491 0.047222335 0.08887695 0.10210947
-0.029187176 0.028390866 -0.021701228 0.045657616 -0.01649168 0.04065999 -0.036387425 -0.076705486
-0.06727343 -0.008196988 0.054691028 0.025830438 0.049305435 -0.008688701 -0.006492259 -0.053077884
-0.0105860075 0.072046965 -0.08475917 0.08799379 0.021728277 -0.08353828 0.00707951 0.055933055
0.08803678 -0.0543537 0.18638071 0.050847273 -0.004429638 0.02628064 -0.01692316 0.043345366
-0.014919901 0.07292995 0.035767958 0.0053104777 -0.06348003 0.08096984 0.08161792 0.10406783
-0.08002959 0.0200296 0.026368639 -0.03419658 0.05993404 -0.017215997 0.043623403 -0.093409546
-0.04359939 0.125573 -0.085496046 -0.037629984 0.086076386 -0.044565238 -0.050583083 -0.033693995
-0.09134771 -0.049875937 0.039483797 0.025407732 0.04099287 -0.03393897 0.022567127 0.0039527942
0.011948916 -0.07287925 -0.08911045 -0.060093254 0.0049946997 -0.029865792 0.06253721 -0.0072924504
-0.011268346 -0.06835013 0.037028834 0.0019858892 0.062127568 -0.058027674 -0.031901576 -0.009307283
-0.04290223 0.016960239 0.046176963 0.09621679 -0.07560977 -0.0020427287 0.042536575 0.009400833
-0.0474535 0.074313566 0.0024716186 -0.024054723 0.046871267 0.08552142 0.05020304 -0.08651061
0.047603723 -0.075322926 0.037169024 0.0807125 0.007824434 -0.055015545 0.048135817 0.053034727
0.0063877627 -0.01969581 -0.03285124 0.034429803 0.0033815457 -0.021575235 -0.03252901 0.04088867
0.06346581 0.037625626 0.09609826 -0.02467629 0.066787615 -0.098658696 0.03444082 -0.06700153
-0.041154146 -0.016668243 -0.046254557 0.048137143 0.0136349825 -0.02294792 0.0030738856 -0.05188852
-0.08269431 0.016592987 -0.068276994 0.060373668 0.0070843124 -0.011161595 -0.008434042 0.014302216
-0.077917024 0.06859819 -0.095469914 -0.09186796 0.036391728 0.023679005 -0.056188397 -0.08312234
0.02612145 0.064178586 0.026261522 0.08399461 0.046823632 0.02016844 0.09206393 -0.05182137
-0.017788565 0.060082536 0.09853971 0.023850095 0.023975391 0.055715878 0.05802265 -0.031298768
-0.054649014 0.05677976 -0.041113865 0.053694453 0.03733694 -0.051623214 -0.040982824 -0.002204661
-0.05180836 0.003078633 -0.0019151901 0.03218305 0.047452215 -0.02479428 -0.0021372742 0.01969622
-0.0855122 0.025240697 0.06638959 0.0046265796 -0.054543927 0.0126838405 0.09710742 0.009584504
-0.019084021 -0.088624895 -0.037463516 0.0134178735 0.06850193 0.06023822 0.0014867866 0.029089406
-0.0457768 -0.029281164 0.17643484 -0.0919607 0.06792446 0.04576222 -0.022625288 0.06940238
2.1119356e-05 -0.07184611 0.007998921 0.023014698 -0.029458791 -0.0023314585 -0.04122343 -0.071317084
0.06397205 -0.06949909 0.053092055 -0.05058878 0.004988952 0.027390191 0.22659628 0.034339473
-0.063851275 -0.054370783 0.06104411 -0.11734198 0.03795977 -0.05755706 -0.07660881 -0.016114103
0.03460119 -0.016186366 0.0066027814 0.008963765 -0.0386821 -0.014127159 0.050177496 -0.08351353

network.2.weight f4 [128, 256]
00000000: 806a 7e3d 5a66 5abd 13d2 93bc 7015 2a3c
00000010: 6327 c53c 7ce1 473d a668 babd 7cc2 bfbc
00000020: 608c 51bc 0c01 9ebd c739 8ebd 3eb7 e23a
00000030: 2345 873c 2268 253d 7801 103c 2a68 123d
00000040: ae9a 37bc 8a81 1b3c a010 79bc 0ad2 6fbd
00000050: bc74 41bd d8ba 3dbd 82d6 90bd 0595 71bc
00000060: b44a 40bd ce62 3d3d 4e0d 233d bf64 8b3c
00000070: a944 45bd b807 8bbd 40d5 8c3c 40fd dc3c
00000080: 00a1 5a3c d4df 07bd a4f9 babc 3cfc 98bc
00000090: c2ae 30bd ec22 dcbc 0080 cdb8 fe04 593d
000000a0: 15b3 72bb 08c1 2b3d 9043 c03c 46fd 78bd
000000b0: d9d4 ac3c 52e9 2cbd c6dd 383d cf08 d63a
000000c0: 80e4 c63b 29f1 efbb 0154 f839 50d0 5cbc
000000d0: 9064 7cbd 94de 1a3b 701f 953b 9daa dcbc
000000e0: 39f3 86bd bcd6 c23c da88 dc3c 3e09 083d
000000f0: 0898 53bd 247f 0cbc 5aa3 193b 6ee6 17bd
00000100: 8404 a43c 2eda 663d c9ca 4e3d fcb9 72bd
00000110: bb4a 8f3c e553 85bd fc26 53bd 5471 3fbd
00000120: 00af 2e3c abc8 9d3c d8b3 2ebc ac44 a13c
00000130: fe4d 2dbd 70cf 943c 6830 25bc 8037 e7ba
00000140: 20be 79bd 3e6c 05bc 459b fe3b 5145 533d
00000150: 982a 26bd c515 1cbd f367 803c 4400 2ebd
00000160: 635e f33c faab 1ebc 260e 4ebd c884 aeba
00000170: 1ace 79bd 713b a5bd 38c0 73bb f6c8 0b3d
00000180: 1440 9fbc 4e6d a33c 5013 06bc 3968 063d
00000190: 4637 abbd 5097 243c cbf6 5bbd 31bd 4cbd
000001a0: 44e3 873c 9f60 8bbd 4853 643c 5892 cebc
000001b0: 10ad dd3c de0c 6dbd 2303 4e3c 42d6 ebbc
000001c0: 7483 383d bf64 acbd 2c9b 0cbd 1c15 9b3c
000001d0: 5522 d4bc 06af 36bb d363 993b f8b4 3ebc
000001e0: 803a 7fba ce51 75bd 96b2 1cbd b025 8b3c
000001f0: 6b8a 5cbd a6e5 053d dff1 833c 38e6 cbbd
00000200: c414 4abd d087 723c b83f f93c 1985 333d
00000210: 006c 42b9 205f 093b cc89 8c3c 7a3e 2ebc
00000220: 099c cbbd 48a3 203c e782 7cbd 2b6a 993c
00000230: d60f ec3c 5402 683d 2659 773d 9050 623c
00000240: c099 533d 40f0 f03a 6d80 8bb9 9a13 09bd
00000250: 40f6 443b 9226 be3c a6da 8e3a 00bd a13c
00000260: 0b33 673c d18f d8bb c8e8 dd3c f7a6 8d3c
00000270: f7ff 143d fe23 7dbb 0ae9 393d 322e 1e3d
00000280: d498 85bd fd79 b0bd 19f8 81bd 4ffb 593c
00000290: 3fa5 4d3d 51a2 29bd 00ec 2d3b 3209 263d
000002a0: 7f4e 193b f493 aabd de36 583b 27dd 7f3c
000002b0: 1872 a3bc 5de7 cbbc f26e 68bd 78e1 6abd
000002c0: 6dbb 79bc fbb1 ca3a cb25 74bc e734 0c3d
000002d0: 6e2a 31bc 2224 6cbd fa9c daba 8005 adbc
000002e0: d9e3 e8bc be76 a7bd 3feb 4d3d 84d7 73bd
000002f0: 02e9 f7bc d7dd 82bd 0f22 043d cc9f 24bd
00000300: 78ea 1d3d f6c1 553d ba76 673d a6b8 843c
00000310: 9135 bd3b 5a47 39bd 772a 5a3c 69cf 03bd
00000320: a0fe 1d3c 94b9 16bd 58b4 b3bd 78fd 443d
00000330: 1434 063d ecf9 f13c 127c 163c be99 223c
00000340: ac35 d63c c028 bfba 2bb0 44bd 5838 093a
00000350: b663 21bc 8a43 75bc 8046 0d3a 3a0e 363d
00000360: 0c2b 69bd 340a 34bb 23d0 9f3c 7d9d dc3c
00000370: 2521 c13b 0bc0 27bd fcc9 193d 819c 0bbd
00000380: b56d ac3c 301e 0e3d f834 10bd aead 3ebd
00000390: dc6d c83c e862 513d 976b 72bc 30df 293c
000003a0: e0bf 9dbc 7cc6 403d 4522 67bd cb30 5cbd
000003b0: d8df 753c f4c2 623d 760a 55bd ae02 6bbd
000003c0: 6ca6 79bd 5019 e6bc 6767 46bd 727a 4b3d
000003d0: f168 edbc 1af7 073d 7a12 dc3c 9adc dabc
000003e0: d7dc 683c 0b0e 89bd 77d1 b53c e0dc b0bd
000003f0: 6e63 a4bd 7a23 1ebd 5020 0b3c 23ec 81bd
0.062113285 -0.053320266 -0.018044507 0.010381088 0.024066633 0.048799023 -0.09101991 -0.023408167
-0.012789816 -0.077150434 -0.06944614 0.0017297042 0.01651246 0.040382512 0.008789413 0.03574387
-0.011206312 0.009491334 -0.015201718 -0.05854992 -0.047230467 -0.046320766 -0.07072164 -0.014745002
-0.046946242 0.046236806 0.03980761 0.017015813 -0.048161183 -0.067885816 0.01719153 0.026976228
0.013344049 -0.033172444 -0.022824116 -0.018674962 -0.043135412 -0.02687212 -9.7990036e-05 0.052983277
-0.003703301 0.041932136 0.023469716 -0.060788415 0.021097587 -0.0422147 0.045133375 0.001632953
0.00606972 -0.0073224497 0.00047364834 -0.0134774 -0.06161934 0.0023631202 0.004550867 -0.026936824
-0.0658936 0.023784034 0.026920725 0.03321194 -0.05165866 -0.008575235 0.0023443312 -0.03708499
0.020021684 0.056360416 0.05048636 -0.0592594 0.017491689 -0.06510142 -0.05155085 -0.046738937
0.01066184 0.019260725 -0.010662995 0.019686066 -0.042310707 0.01816532 -0.010082342 -0.0017640442
-0.060972333 -0.008143483 0.0077699744 0.051579777 -0.040567964 -0.0381067 0.015674567 -0.042480722
0.029708093 -0.009684557 -0.05030646 -0.0013314718 -0.06098757 -0.08067978 -0.0037193429 0.0341272
-0.019439735 0.019949581 -0.008183315 0.03281424 -0.08360152 0.010045841 -0.053702157 -0.049985114
0.01658786 -0.068055384 0.013935871 -0.025216267 0.027060062 -0.0578736 0.01257399 -0.02878869
0.04504724 -0.08417653 -0.03432767 0.018930964 -0.025895277 -0.0027875318 0.0046810894 -0.011639826
-0.0009736195 -0.05989247 -0.03825625 0.016985744 -0.053842943 0.032689713 0.016106544 -0.0995602
-0.04933621 0.014802888 0.030425891 0.043828104 -0.00018541515 0.002096124 0.01715555 -0.010635013
-0.09941871 0.009804554 -0.061648276 0.018727383 0.028816145 0.056642845 0.060387753 0.013813153
0.0516603 0.0018382147 -0.0002660783 -0.03346596 0.0030054003 0.023211751 0.0010898903 0.019743443
0.014111291 -0.006608941 0.027088538 0.01729153 0.03637692 -0.003862619 0.04538826 0.038618274
-0.0652329 -0.086170174 -0.06346149 0.013304546 0.05020642 -0.041414563 0.0026538372 0.040536113
0.0023392735 -0.08329001 0.0032991688 0.015616692 -0.019951865 -0.024890596 -0.05674643 -0.05734393
-0.01524244 0.0015464419 -0.014901589 0.03423014 -0.010813339 -0.057651646 -0.0016678863 -0.021120787
-0.028428959 -0.08176945 0.050273176 -0.059531704 -0.030262474 -0.06389969 0.032259043 -0.040191457
0.038553685 0.05218693 0.05650971 0.016201328 0.005774208 -0.04523406 0.0133157885 -0.032180224
0.009643227 -0.036798075 -0.08774632 0.04809329 0.03276451 0.029538117 0.009184854 0.00992435
0.02614864 -0.0014584288 -0.04801957 0.0005234531 -0.009850433 -0.014969716 0.00053892285 0.04444716
-0.05692582 -0.0027471902 0.019508427 0.026930565 0.0058938437 -0.04095463 0.037546143 -0.0340848
0.021048406 0.034696758 -0.035206765 -0.046552353 0.024466448 0.051119715 -0.014796159 0.010368153
-0.019256532 0.04706429 -0.056429166 -0.05375747 0.015006982 0.055361703 -0.05201193 -0.057375602
-0.060949728 -0.028088242 -0.048438456 0.04967732 -0.028980704 0.03319464 0.026864279 -0.02671652
0.014212809 -0.066921316 0.022194607 -0.086358786 -0.08026777 -0.03860805 0.008491591 -0.06343868

network.2.bias f4 [128]
00000000: 6810 69bd d53b 49bd a254 c03c 30b4 43bc
00000010: eb9a 023c aedb c13d c057 38bd 1e02 37bd
00000020: 1120 9c3d bd51 013e 44f8 09bd 89f2 93bd
00000030: e403 63bd e53f 5a3d 9fb9 4cbd 0261 60bb
00000040: 11e4 3c3c 547f 93bd 1b1f 3ebc 97ab be3d
00000050: 2108 893d 829f 83bd 49d3 583c bf92 8abd
00000060: 701f 8abc ce7c f23c 8134 653e ca49 51bd
00000070: 6934 03be 5b88 d33d c61e 71bc a377 39bd
00000080: 34a5 dd3c f848 a6bc 6b29 463d 4792 23bd
00000090: 0f3a 44bd 96a0 43bd 7e07 d23d 84d7 57bc
000000a0: d77b 013d 0467 623c c1a8 10bd fcb3 c23c
000000b0: 6b27 fabc bc78 f2bc ae47 d03d 0418 103d
000000c0: e101 443d e532 c23b 9940 d23d 42c6 1f3d
000000d0: e1d4 13bd 6f42 1ebd 133b e63d f9bf 893b
000000e0: 4408 1a3d f5b2 dd3d 8ce6 ff3c b2c7 b3bc
000000f0: 851e afbd 3b38 e73c bc60 2dbd 6e68 fa3d
00000100: f418 57bd 5c1a 583d d246 12bd 494d 34bd
00000110: c50a c83c 7e48 d43c b113 84bd 864d b83d
00000120: 781c c0bb 14ce 9a3d f036 603d 9baf e93d
00000130: 3dff 933d f971 72bc 75bc b2bd d18a 523d
00000140: 4ac5 0cbd c948 953d 28bf 1a3e 5e3e 9c3d
00000150: a704 203c eeb6 163d e688 8e3d 74de 1dbd
00000160: 0459 34bd 5b6c 8d3c f313 a7bd bfe8 ae3b
00000170: 4099 953d bbd3 bd3c f298 8ebd 46f1 bc3d
00000180: f96b e33c f769 83bd a3e7 043e d94d ecbd
00000190: aba1 4b3d 5c35 97bc 936e 533d dc2c 8cbb
000001a0: bbf2 cc3d aa6c 41bd 9cbd 27bd 9d9d 9dbd
000001b0: 08ad 36bd 464c bcbc 7c58 31bc 0dd2 193e
000001c0: 40dd 74bd 9e02 a9bc 374a 663d 115e bfbd
000001d0: 2ae7 753e eca7 58bd 6689 25bd dcb2 34bd
000001e0: 3017 df3d c8d0 963d 5f66 86bd adca 8d3d
000001f0: eb37 e6bd 76ca 9ebd b8d7 d53c 1307 b73d
-0.05690041 -0.049129326 0.023477856 -0.0119448155 0.007971506 0.09465729 -0.04500556 -0.044679753
0.07623304 0.12628837 -0.03368403 -0.07223994 -0.055423632 0.05328359 -0.04998171 -0.0034237509
0.011528985 -0.0720202 -0.011604096 0.09310072 0.066910036 -0.06426908 0.013233968 -0.06766271
-0.016860694 0.029600527 0.2238331 -0.05109576 -0.12812962 0.10328742 -0.01471681 -0.04528011
0.027056314 -0.020298466 0.048379343 -0.039934423 -0.04790693 -0.04776057 0.10255335 -0.0131739415
0.031612244 0.013818506 -0.035317186 0.023767464 -0.030536374 -0.029598586 0.10169922 0.035179153
0.047853354 0.0059264773 0.10266227 0.039007433 -0.03609169 -0.038637575 0.11241736 0.004203793
0.03760554 0.10825149 0.031237863 -0.021945808 -0.08550743 0.028225055 -0.04232858 0.1222695
-0.05251403 0.052759513 -0.03571207 -0.044019017 0.024419198 0.025913473 -0.06449068 0.089991614
-0.0058627687 0.075588375 0.054739892 0.11410447 0.07226417 -0.014797681 -0.087273516 0.051401917
-0.034367837 0.07289273 0.15111983 0.07629083 0.009766734 0.03679555 0.06959705 -0.038542226
-0.044030204 0.017263582 -0.08158102 0.005337804 0.07304621 0.02317225 -0.06962766 0.09225707
0.027761446 -0.064166956 0.12978987 -0.11538286 0.049714725 -0.01845806 0.051619124 -0.0042778086
0.10007235 -0.04722277 -0.04095231 -0.07696078 -0.04459861 -0.022985589 -0.010824319 0.15021534
-0.059781313 -0.02063113 0.05622312 -0.093441136 0.24013963 -0.052894518 -0.040414236 -0.044115886
0.108930945 0.073640406 -0.065624945 0.06923423 -0.11241134 -0.0775346 0.02610384 0.08936896

network.4.weight f4 [64, 128]
00000000: 3072 133c 891c ffbc d70d 77bd b122 1a3d
00000010: 57f0 a0bd ab42 4cbd 55a6 ad3d c8f4 e03c
00000020: e328 833d ac0f cebc ab0c 993d 3f15 833d
00000030: 14e7 0bbd 1612 7e3d 6fd6 893d e000 703c
00000040: 3803 1bbc 4b24 ae3d a29d 723d b05a 97bb
00000050: 8ee0 49bc 868d 19bd e4f4 8c3c 7293 763d
00000060: b137 af3d 0bf9 b1bd ef86 9bbd 8417 b1bd
00000070: e0d6 a8bb c95a 963d 0e63 553d 2e7b a33d
00000080: 00fb 373b 20ec 1c3b ba66 583d ba7e 003d
00000090: 842a a8bd aefd 263d 59ba a7bd 8cdc 093d
000000a0: 8131 79bd 74f8 46bd 03af 83bd 0e72 66bd
000000b0: 9ffe 3abd c2db 513d 485b 6ebd fb8f 42bd
000000c0: 6c80 9bbd 6048 05be 9856 acbc 601a 24bc
000000d0: ba9f 51bd de6f 7b3d a608 6dbd abd7 11bd
000000e0: 9e33 3d3d 7256 39bd 9140 b7bd 501a a83c
000000f0: 16c0 f5bc 0682 3e3d 143a bf3c 1606 403d
00000100: 2eb7 84bd 4433 d23c 107a a63b 8fdd af3d
00000110: c696 333d 20aa cf3c 6885 8ebd 0ad3 89bd
00000120: 47ef aebd bb97 e2bc a220 21bd c0b1 103b
00000130: f6b5 a2bc 6007 aebc 5919 a43d 484b 14bd
00000140: 2aa0 783d 1fb0 b03d 00bc 38bd 8e32 f9bc
00000150: 7807 ebbc b0c3 4c3c 7970 0dbd 806c e63d
00000160: 8211 03bd a302 8d3d 2655 593d 0db2 793c
00000170: 00f2 efb9 f0dc d9bb 254b ff3b a903 80bd
00000180: 2ce6 f2bc 22d9 563d 50e8 0b3c 8817 893c
00000190: 84fe 96bd fcb0 d93c 20da 783b ff87 a2bd
000001a0: 8432 f83c 6017 41bb 7e60 4c3d b086 50bc
000001b0: de3d a1bd 62f9 95bd fa0b 323d 547c b4b9
000001c0: f03e e1bb c86d ee3c d5b9 36bd 58d4 623c
000001d0: 581d c3bc 00e0 1dba a6b1 733d ac8f f43c
000001e0: b091 043c ac4c a8bd 6d38 b13d 83e9 a63d
000001f0: afff 35bd 77cf a83d f552 5839 7a81 39bd
00000200: 21d0 9f3d 653e 9abd 0dd8 26bd c396 4d3c
00000210: 2bdb 503c ce0d 343e 14b1 94bd 79f7 ab3b
00000220: 3774 8d3d 5d9a 253e e6cb b5bd 560a 32bc
00000230: 48e3 c6bc 54d7 ad3d a6e2 61bd ea08 653d
00000240: 1c32 ddbc b489 373d 34ca fe3c 7a0e 6dbc
00000250: 7470 26bf 3220 dbbc bc41 5b3d 22ad bfbd
00000260: 02ac e7bc 869d ef3d 615c e33e d327 b83c
00000270: bd7c af3c 3aec ae3c 111c 92bd a114 0d3c
00000280: 0a64 8abd 6542 b03d 56e4 fb3d 38bb e63d
00000290: 1d60 0abd 732a 43bd d312 153c 62ef 81bc
000002a0: 52e7 dc3a 0e29 50be 3b11 1e3d 47a0 053e
000002b0: abb4 a53d 6787 05bd df91 333e a757 b2bd
000002c0: 7cbb 1b3e 11fe eb3d 1bc6 1d3e df6e d63d
000002d0: 562c bebb 1606 a0bd 39f5 383e 1758 9bbd
000002e0: 2b17 423e 9244 113e 9af9 393d fd2c b33c
000002f0: 4ded 24bd 30e3 9bbc e9c8 9a3d 1d02 243e
00000300: 508a 4a3c 03d4 5ebd 1ff5 2e3d 9b02 6f3d
00000310: 05da 893d 2928 80bd f438 70bd 91b5 df3d
00000320: b846 9a3a 533f 223d b47b 8b3d 9b1d 4d3d
00000330: 8021 5a3e c24a 55bd 3a0c 183c eff2 9f3d
00000340: bd42 34bd 23ef d13d 4c0f 703e 8a72 553d
00000350: 3bce 943d 09f7 8a3d 291b 573d 5cbc 74bc
00000360: 9453 9a3c 6920 f83c 3e81 05bd 8c6b 383e
00000370: 5294 0d3e 6dfe f8bc d8c5 f83c 90d2 a43b
00000380: 54bc 0f3e f033 a53b 2af0 063e ca1b 273d
00000390: 7e42 2c3e 6a7e 183d d58e 30bd 087a 943d
000003a0: 1dfb 123d 7713 e3bd 90f6 043d a3d9 b4bb
000003b0: df71 0e3d 3762 843c 2a68 753d 6db7 573e
000003c0: b3fd 9f3d 912a 5b3d 78b3 3c3e aaa5 02bd
000003d0: 9a0d ce3e 159e a2bd c4c5 1bbd 88f4 483d
000003e0: 29e6 d83c dafe 35bb 032c c13c c729 713d
000003f0: b0a8 97bd ffb4 9abd 2135 233b e0f3 4c3d
0.008999392 -0.031141536 -0.060315933 0.03763074 -0.07858341 -0.049868267 0.08478991 0.02746047
0.06404283 -0.025153957 0.07473119 0.06400537 -0.03415592 0.062028967 0.06730353 0.014648646
-0.009461217 0.08503016 0.05923236 -0.004618965 -0.012321604 -0.037488483 0.017206617 0.06019921
0.08555544 -0.08690079 -0.07594096 -0.086470634 -0.005152568 0.07341535 0.05209642 0.07982479
0.0028073192 0.0023944452 0.052832343 0.031370856 -0.08211234 0.04076927 -0.0818984 0.033657596
-0.060838226 -0.048576787 -0.06429865 -0.056261115 -0.04565298 0.051234968 -0.05819252 -0.04750059
-0.07592854 -0.1301589 -0.021037385 -0.010016054 -0.051177718 0.06138598 -0.057869576 -0.035606068
0.046191804 -0.045248456 -0.08947862 0.02052036 -0.02999882 0.04651072 0.023343123 0.046880804
-0.06480251 0.025659211 0.005080469 0.08587181 0.04384496 0.025349677 -0.06959039 -0.06729706
-0.08541732 -0.027660241 -0.03933776 0.0022078604 -0.019862156 -0.021243751 0.08012647 -0.036204606
0.06069962 0.086273424 -0.045101166 -0.030419614 -0.028690085 0.012497827 -0.03453109 0.112511635
-0.03199912 0.068852685 0.05305972 0.0152402045 -0.00045765936 -0.0066486523 0.0077909403 -0.06250698
-0.02965077 0.052453168 0.008539274 0.016734853 -0.07372764 0.02657365 0.003797181 -0.079360954
0.030297525 -0.0029463395 0.04989671 -0.0127274245 -0.07873128 -0.073229566 0.043468453 -0.00034424907
-0.006873958 0.029105082 -0.044610817 0.013844572 -0.023817703 -0.00060224533 0.05949559 0.029853664
0.008091375 -0.08217749 0.086533405 0.081500076 -0.044433292 0.08242696 0.00020630269 -0.045289494
0.07803369 -0.07531432 -0.040733386 0.012548151 0.012747566 0.17583391 -0.072603375 0.005248007
0.06906932 0.16172166 -0.08876781 -0.010866722 -0.024278298 0.08488336 -0.05514779 0.055916704
-0.027001433 0.04480906 0.031102277 -0.0144687835 -0.6501534 -0.02674875 0.053529486 -0.09359194
-0.028280262 0.11699967 0.44406417 0.022479927 0.021421785 0.021352876 -0.071342595 0.008610875
-0.06757362 0.08606414 0.12299411 0.11266178 -0.033783067 -0.047647905 0.009098726 -0.015861217
0.0016853607 -0.20328161 0.03859065 0.13049422 0.080911 -0.032599833 0.17536114 -0.087081246
0.15208238 0.11523069 0.15407602 0.10470366 -0.005803625 -0.07813661 0.18062295 -0.07585161
0.1895415 0.14186314 0.045404054 0.021872038 -0.04026537 -0.01902923 0.07557852 0.16016431
0.012362078 -0.05440141 0.042714234 0.058352094 0.06731037 -0.0625766 -0.058648065 0.10923303
0.0011770343 0.039611172 0.06810704 0.050077062 0.21301842 -0.052073248 0.009280259 0.07810008
-0.04400896 0.1025069 0.23443335 0.052111186 0.07265898 0.067853995 0.052516136 -0.0149374865
0.018838681 0.030288892 -0.032593958 0.18009776 0.13826111 -0.030394757 0.030367777 0.005029984
0.14036685 0.005041592 0.13177553 0.040797986 0.1682224 0.037229933 -0.043104965 0.07249838
0.03588401 -0.11087697 0.032461703 -0.0055191084 0.034776565 0.016160114 0.05991379 0.21066065
0.07812061 0.05350739 0.18427837 -0.03189627 0.40244752 -0.07940308 -0.0380304 0.04906133
0.026476936 -0.0027770312 0.023580557 0.058877733 -0.074052215 -0.075540535 0.0024903493 0.050037265

network.4.bias f4 [64]
00000000: 5c5d 51bd dc2a 623e 84d6 bb3d 889d cabd
00000010: 3ed9 5ebb 950d d93d 9fb2 693d 024f 613b
00000020: ff3f fbbd d1ae 2dbd f8c2 abbd 8816 83bd
00000030: 8fdd 783e 8071 afbd 5dab e3bd df63 c73d
00000040: 895e b0bd 3fa2 74bd ae78 24bd f43d 0f3e
00000050: 0a3f e1bc 5470 23bd 1684 e83d e865 bbbd
00000060: bede 183e e787 7fbe 8ebb c9bd 2567 5f3e
00000070: 113c 8e3d 164c 31bd 226f f2bd 6c7c 9cbd
00000080: 7ffe 663d 7019 063e 4d1b 943c 045d 2d3d
00000090: d95b f93d ee06 e5bd 2104 15bd 4344 47bd
000000a0: 17bf a0bd 466d 97bd 5d9b 573e 7fed 51be
000000b0: 66da 233c f4e6 bcbd 5c6d 113e 6262 bf3d
000000c0: 13a9 c03d b5a3 493e 39e1 d3bc 16f0 3c3d
000000d0: f477 2b3d 91da d2bc 4b29 8e3e b4b8 22bd
000000e0: 26cc eb3d 9b3a 6f3e 879a 10bd e481 a3bd
000000f0: 899f 813d deb0 0e3e b9be af3d 3858 66bd
-0.051114425 0.22086662 0.09171775 -0.09893328 -0.0034003998 0.10598294 0.057055112 0.0034379368
-0.12268066 -0.042403046 -0.08386797 -0.06400782 0.24303268 -0.0856657 -0.11116669 0.09735846
-0.08611781 -0.059725042 -0.04015415 0.13988477 -0.02749588 -0.039902046 0.113533184 -0.091502964
0.1492872 -0.24954186 -0.09850226 0.2181669 0.069450505 -0.04328545 -0.11837603 -0.07640919
0.05639505 0.13095641 0.018079424 0.042325035 0.12175722 -0.11182962 -0.03638089 -0.048649084
-0.078489475 -0.07393889 0.2105536 -0.20500754 0.010000801 -0.09223738 0.14201874 0.09344937
0.09407248 0.19691356 -0.02586423 0.0461274 0.041862443 -0.025738986 0.2776588 -0.039726928
0.115135476 0.233622 -0.03530362 -0.07983759 0.06329257 0.13934657 0.08581299 -0.056236476

network.6.weight f4 [2, 64]
00000000: fc06 4e3d 7547 303e 6bc6 94bd e06c 91bb
00000010: 3833 b2bd 7e2f d9bb 289e 093e a220 143e
00000020: dc82 be3d 14ec 34bd 00dd 843d 6f50 413d
00000030: 5365 3d3e b8bf a2bc 39bf 853d 1651 96bd
00000040: b862 d4bd 8874 6d3d b341 1e3b 14b3 183e
00000050: ff6e 66be c2b7 e4bd e90b cb3d 5970 f0bc
00000060: 3fcd a53d f377 bebe 192c de3c 977b 33bb
00000070: e346 5b3d e924 a6be b8c3 b8be ceaa 633c
00000080: 6bc9 243e 615b 2f3e 87fe 103e 181f ad3e
00000090: c524 a43c 1071 873d f675 c6bc b079 07bc
000000a0: 82b0 cebd 25f8 a8bd 5bae 8c3e 9988 8ebe
000000b0: c985 f63d 88bf 58bd d762 a23d 5e9a d53e
000000c0: 66ab c83d 657b ad3e 0668 55bc b6f4 113e
000000d0: 1d15 0f3e e55a d9bd 08f7 a73e f837 e4bc
000000e0: d384 e23c 7605 053d 2cfd 3a3d 6c2b 563d
000000f0: 834f 0b3e 4ea3 7ebc 4db6 c13d dcaf 21bd
00000100: 47b8 bfbb 4828 3a3e e20b 9d3d 0008 a5bc
00000110: 7204 543c 9d5e 843d 67be 3b3e 3cf0 523e
00000120: 1938 a4bd ef74 11ba 6466 52bd ec07 923d
00000130: 9fac ad3e e01b 85bd f2bd cdbd 895c 8a3e
00000140: 1712 58bc 3972 753c 04c7 5ebd 43ab a33d
00000150: 2d99 2cbe e074 4ebd 34c9 243e df24 80bd
00000160: 8095 1b3e bbfe cebc a5b8 a2bd f996 bd3e
00000170: 663d 043e db82 d3bc 98d0 91ba 20ae 38bb
00000180: 3f15 043e 163f 7f3e 6568 5b3e a17e 463d
00000190: 2c69 6a3e 0045 203d 90c9 74bc 4a2f 2a3d
000001a0: 2519 97bd de9b 07bd 9e17 183e 09d5 1cbd
000001b0: 712d 833e 9d17 5a3d 50f0 153e ee6c 0c3d
000001c0: 816d 0e3e e0f9 183e ef93 1b3e 6bc3 733c
000001d0: e3d2 fb3d 1a1d a7bd 2d1d 9a3e 29c0 c43c
000001e0: 3bb6 7f3e a50d b93e abdd 303d 407a 48bc
000001f0: e113 453e 61a8 a83e da9b 723e 20dc c9bb
0.05029963 0.17214759 -0.07264408 -0.0044380277 -0.087011755 -0.006627976 0.13439238 0.14465573
0.09302303 -0.044170454 0.06487465 0.047195848 0.18495683 -0.01986681 0.065306135 -0.07339685
-0.103703916 0.05797246 0.0024148047 0.14912063 -0.22503279 -0.111678615 0.09914381 -0.029350447
0.08095788 -0.3720089 0.027120637 -0.0027386898 0.0535344 -0.32450035 -0.36086822 0.0138957035
0.1609246 0.17124702 0.14159594 0.33812785 0.020037064 0.06613362 -0.02422617 -0.008268759
-0.1009226 -0.08250455 0.27476773 -0.2783859 0.12037236 -0.052917033 0.079290085 0.41719335
0.09798317 0.33883205 -0.013025289 0.14253506 0.13972898 -0.1061304 0.32805657 -0.02785872
0.027651226 0.03247591 0.0456516 0.052287504 0.1360455 -0.015541865 0.09458599 -0.039474353
-0.005850825 0.18179429 0.07668282 -0.020145416 0.012940513 0.064633586 0.18334351 0.20599455
-0.08018512 -0.00055487355 -0.05136718 0.07130417 0.33920762 -0.06499457 -0.10045995 0.27023724
-0.013187907 0.014980846 -0.054389015 0.0799165 -0.16855307 -0.05040443 0.16092378 -0.062570326
0.15193748 -0.02526795 -0.079453744 0.37029245 0.12914047 -0.025819233 -0.0011124788 -0.0028179958
0.1289873 0.24926409 0.21426542 0.048460606 0.22891682 0.039128304 -0.014940634 0.041549005
-0.07377843 -0.03310763 0.14852759 -0.038289104 0.25620607 0.053245176 0.14642453 0.03428357
0.1390896 0.1493907 0.15193151 0.014878134 0.12296083 -0.081598476 0.30100384 0.02401741
0.24971859 0.36143222 0.04318015 -0.012236178 0.19245864 0.32940963 0.23692265 -0.006160274

network.6.bias f4 [2]
00000000: 848b 773e efb7 953e
0.24174315 0.29241893
