models/monopoly_ai_700.pth (torch, 379901 bytes, 8 tensors)

network.0.weight f4 [256, 205]
00000000: 8180 a23c 8b57 11be f65d 713d 609e 323d
00000010: 00a5 98bc 52f5 5e3d 00f0 9139 e3cf 443d
00000020: 131a 9dbd 9f54 c9bc 14e7 5f3d 104e a6bc
00000030: 605e 383c 2033 c5bb 9074 e1bb 6663 553d
00000040: b83f 4abc aba6 023d 6de9 2bbc 6156 b83d
00000050: c8c5 4e3c 1842 7c3c 4cb4 b73c aba8 7abd
00000060: c2d1 4c3d 9e42 5b3d a01e 7b3b b03b 92bd
00000070: 1953 60bc 8926 28bd deea 033d eefd c5bc
00000080: feb4 0e3d b822 643c 2e71 01bd 001a 703c
00000090: a6e4 22bd f8d5 473d 40c4 ef3a 5a19 80bd
000000a0: fe43 08bd d858 e53c 148c d5bc e499 1abd
000000b0: 0d3e 0dbd e053 383d b890 c8bc 6bc0 c7bd
000000c0: d7d0 abbc 2d49 8cbd df20 14bd 64f5 e43c
000000d0: de82 88bd 8b86 8a3d d6b9 353d c818 043d
000000e0: dffc 8d3d 2f89 1dbd 9308 2dbd 3afa 4a3c
000000f0: 237b 82bd 7e32 0e3d 8588 41bd 0c38 63bd
00000100: 718e e53c f4b2 0b3d e841 a2bc bb74 b3bd
00000110: 510e b0bd 7864 123d e028 ff3c 5210 603d
00000120: f30f 27bb 377c 9ebd ce0d f13c 402c 36bd
00000130: a605 ccbc 6a1c 72bd e9c6 98bb e73b 183d
00000140: d6db 303d cafb 75bd 611e 59bd 98cc c3b9
00000150: cb7c 22bd c7e4 04bd f88c 213d 20a6 c53b
00000160: 24b4 f23c 20d7 893c 1ca5 40bc ae56 0e3d
00000170: fb03 a4bd 4839 fd3b bba8 acbd 0a63 673d
00000180: 9894 46bd 09e4 a4bd c248 dabd e529 14bc
00000190: c6ec 7b3d f439 613d 40d8 3b3c f17f 8cbd
000001a0: b2ec e6bc c8ee 50bd 7eca 8fbc c7d3 03bd
000001b0: a6e4 86bd 93eb bcbd 6e8a 7b3d 31be 71bd
000001c0: 9755 8b3d d45f bfbc a64e 23bd b645 bdbc
000001d0: 90aa b53b af58 ae3d 6b49 e2bb 1cea 47bd
000001e0: 6c43 523d 2e27 0fbd 52e4 b2bc 24cd a7bd
000001f0: d0f5 303d e682 0abd 8042 82bc 7cde 7cbd
00000200: 4b33 3e3d 62e0 39bd 84c9 403d f2ce 373d
00000210: a728 49bd df73 9abc 2491 58bd 14f2 033d
00000220: 4919 85bd 7dcd 46bd aaca eb3b 3cc8 b5bc
00000230: 6884 ab3c b28b 5ebd b9e8 093d 1920 5ebc
00000240: b4a7 90bd 8add 173d b80d 2dbc 28f3 e0bd
00000250: ef30 b7bc c812 19bd b63d 95bc 2cfb 073d
00000260: 5fb1 86bd 23bc 843d d64b 1d3d b3b9 8b3d
00000270: 00ce 96bb 3b1c de3c 30cd 36bd 0409 bb3c
00000280: d55b 0cbd 00e3 c73c 5acf 0dbc d70f 25bd
00000290: 2a57 33bc 2896 c03c 2413 083d 940f 48bd
000002a0: 5ad5 ddbc bc7e 45bc 30c9 323d 5ca6 15bd
000002b0: 44da 0cbc ec90 2ebd ad2c 533d 5e1a 1f3d
000002c0: 0080 feb9 38cc 553d 3b42 1abd aaba 19bd
000002d0: 205d b73b 30ba 553c 70fa 2fbc c835 28bd
000002e0: 80ba 81bd 7c5b 8c3c 7827 223d 03f3 a3bd
000002f0: 6aa8 91bc 5b8c 79bd ce84 543d 7096 e0bc
00000300: 1a2a e3bc ac47 a83c 6e68 87bd 2747 8bbd
00000310: 692c 8bbd b228 d73c bf55 be3a b180 773d
00000320: a847 0dbc 4ce8 923c 47a4 6fbd c01c 75bd
00000330: b025 92bc 6d91 2cbe 5ce0 ccbe 7e11 523d
00000340: 30ab 61bd 580c 6b3c 5cd3 d63c fe55 3d3d
00000350: 924f 5f3e c212 43be 1ee7 4cbc 249e ac3c
00000360: 14bd 16bc 0a83 533d a760 4abd 8020 42bc
00000370: 188e 863c e064 eabc fdee 9cbd 5cf5 d3bc
00000380: e0f6 8bbd c07e 213c d399 8dbd 1611 4c3d
00000390: 98c1 8dbd 8ccb bfbc bc0a c83c 9c84 863c
000003a0: ee09 193d cb6f 64be dc55 8d3d e5c5 863d
000003b0: 38c8 85bd 53d7 133d 38e4 89be c807 3ebc
000003c0: fb84 833d 38d2 773c 2a56 7b3d 0697 3bbd
000003d0: ce65 743d 08cc 1abc 5557 823d 6808 fcbd
000003e0: c688 353e 232f a5be 1046 dcbb f042 d1bb
000003f0: 6f99 6bbd f251 9f3d 261a 7cbe 8a9a 073d
0.019836666 -0.14193551 0.0589275 0.04360807 -0.018633366 0.054433174 0.0002783537 0.04804982
-0.07670989 -0.024576483 0.054663733 -0.020300895 0.0112529695 -0.0060180575 -0.0068803504 0.052096747
-0.012344293 0.03189723 -0.010492665 0.090008505 0.012620397 0.015396617 0.02242484 -0.06119601
0.05000473 0.053530328 0.0038317814 -0.07140291 -0.013691687 -0.041052375 0.03220641 -0.024168935
0.034840576 0.013924293 -0.031602077 0.014654636 -0.039768837 0.04878804 0.001829274 -0.062548354
-0.033267967 0.027996466 -0.026067771 -0.037744418 -0.034483004 0.045001864 -0.02448307 -0.09753498
-0.020973606 -0.06849895 -0.03616416 0.027949043 -0.06665586 0.06763943 0.04436668 0.032250196
0.06932997 -0.038460907 -0.042244505 0.01238876 -0.06371143 0.03471612 -0.047249336 -0.055473372
0.028022023 0.03410621 -0.019806817 -0.08762499 -0.08596481 0.035740346 0.03114742 0.054703064
-0.0025491684 -0.07738536 0.029425528 -0.044475794 -0.024905037 -0.05910913 -0.004662384 0.037166502
0.043178402 -0.060054578 -0.053007487 -0.00037345733 -0.039669793 -0.03244474 0.03944108 0.0060317665
0.029626913 0.016826212 -0.011758115 0.034750633 -0.08008572 0.0077277757 -0.0843062 0.056490935
-0.048481554 -0.08051307 -0.10658409 -0.009043192 0.0615051 0.05498691 0.011465132 -0.068603404
-0.028189037 -0.05100897 -0.01755261 -0.03218439 -0.0658658 -0.0922462 0.061411314 -0.05901927
0.06803434 -0.023361124 -0.039869927 -0.02310453 0.0055440143 0.08513009 -0.0069057248 -0.04880725
0.05133383 -0.034949474 -0.021837387 -0.08193424 0.043203175 -0.03381624 -0.01590085 -0.061735615
0.046435636 -0.045380004 0.04706718 0.044875093 -0.049111035 -0.01885408 -0.052872792 0.032213286
-0.064989634 -0.048535813 0.0071957903 -0.022190206 0.02093716 -0.054332443 0.033669207 -0.013557457
-0.07063237 0.03707651 -0.010562353 -0.109838784 -0.0223622 -0.037371427 -0.018217903 0.03319852
-0.065767996 0.06481197 0.0384024 0.06822529 -0.004602194 0.02711307 -0.044629276 0.022831447
-0.034267265 0.024400234 -0.0086553935 -0.04029831 -0.0109460745 0.0235091 0.03322138 -0.04884298
-0.027079273 -0.012054142 0.0436489 -0.036535606 -0.00859696 -0.042618677 0.051556278 0.038843505
-0.00048542023 0.05219671 -0.03766082 -0.037531532 0.005595818 0.013044879 -0.010740861 -0.041066915
-0.063344 0.017133467 0.03958842 -0.08005335 -0.017780501 -0.06092487 0.051884465 -0.027415484
-0.027730037 0.020541988 -0.06611715 -0.068006806 -0.0679558 0.026264522 0.0014521404 0.060425464
-0.008623041 0.017933033 -0.058506276 -0.05984187 -0.017840236 -0.1685235 -0.40014923 0.051286213
-0.055094898 0.014346205 0.02622383 0.046224587 0.21807697 -0.19050124 -0.0125062745 0.021071501
-0.009200353 0.05163864 -0.04940858 -0.011848569 0.016425177 -0.028612554 -0.07662771 -0.025873832
-0.06834197 0.00985688 -0.06914105 0.049820982 -0.06921691 -0.023412488 0.024419181 0.016420655
0.037362985 -0.2230827 0.06901142 0.06580714 -0.06532329 0.03609402 -0.2693193 -0.011598535
0.064218484 0.015125804 0.06136147 -0.045798324 0.0596674 -0.009448059 0.063643135 -0.12306291
0.17727956 -0.32262525 -0.0067222193 -0.0063861534 -0.057519373 0.07779302 -0.2461935 0.033106364

network.0.bias f4 [256]
00000000: 7625 11bd 5af4 84bd fcab d3bc 8ec7 2dbb
00000010: 41c6 16bd 9044 b9bd fe9d 453c a72a 9cbd
00000020: dc24 0cbd e7b9 39bd d3ba e0bd 62eb ecbc
00000030: bc4e d33a 1a30 95bd b477 05be 1181 32bd
00000040: 4a60 1cbc 47da d6bd ac15 2abb 8f36 e33c
00000050: 0d39 abbd 3b4e 283c 8f31 ac3d 4dbf 0f3c
00000060: d1a9 79bd 8d16 fd3b 7f20 a3bd 91f7 80bb
00000070: 8f19 87bc 1c8c debc fba5 7dbd c417 9dbd
00000080: a7c6 89bd a94c 06bc 4e09 f93b 5b9a d33c
00000090: d744 95bb 93c4 91bd 3b89 66bc 68c2 adbd
000000a0: 81d8 29bd 4076 bd39 9498 eebd 2a82 2c3d
000000b0: b347 573d 1e16 abbd 3cfb e73b 281a 413d
000000c0: 89a0 d23c f6c5 c5bd 9a4a 54bc 1c40 093d
000000d0: 5ed8 19bd a6eb b43c 117e 42bd 02c6 683d
000000e0: 5f45 fc3c 2a70 0b3d 36e1 7c3d 6e80 49bd
000000f0: 888c babd 8b76 2d3c 19a3 f23c e94c 243c
00000100: 8ee6 a3bd a8da 5dbd cc26 bb3c 9a9c 463d
00000110: f2e1 a33b 221d 4dbd 8286 86bc a802 2dbe
00000120: 4695 32bd 28fa 653d 0b8f 8f3d e621 1abd
00000130: 5f9c 193d 3b33 b83c 2395 8dbd 8f54 adbd
00000140: dafd f2bd b64a 4cbd 1d14 7a3d 0a17 84bd
00000150: db93 cfbc 6f4c 8dbd 2bb2 dd3d 071a 8cba
00000160: 63c5 433c 1c9b 0ebe 8a7f b6bd 6674 c4bd
00000170: bccc b6bc 38e9 a6bc f404 043e 82f5 eebb
00000180: de9e 38bc 27fb 8bbd ac40 cabc da4c f6bb
00000190: 79dd ba3d c5d0 bbbd ad2d 93bd 207c 9cbd
000001a0: 40ba 2fbd 6e30 0fbd 9b52 b43c 5dea f53a
000001b0: 98b9 8fbd 4ddf 05bb 822e b2bb 6e85 50bd
000001c0: bbf1 60bd 0a50 88bd 1e17 b43d 690e c5bc
000001d0: b20f 0cbd dd4b 153d 1069 c8bc 7a2c b1bd
000001e0: ba81 b7bd b47a a3bd ec17 b13b e921 603c
000001f0: 67b3 40bd ec33 b8bd ddb7 4bbd 52b5 f03d
00000200: 7050 d13b 9804 e1bc 33ba 473c fb92 4fbc
00000210: ec9c 5d3b 8cbe b0bc 57fb b1bd 875c 0bbd
00000220: cabb fb3b 6d73 a4bc e468 b5bb fa0d c7bd
00000230: e792 e1bc caad 05be d111 0d3d 41fa e5bd
00000240: 4091 28bd cd3d 5fbd 6b75 3dbd 97b2 faba
00000250: 1a0b a5bd 4aff a6bd f155 a0bd c6e7 a6bd
00000260: 0d6a eabd 4c20 cfbd cfd4 8bbd ee76 a1bd
00000270: 76ac 66bd f722 60bd f02e 0abc 9252 49bc
00000280: f288 e0bd f3d5 d43d ea4f a4bc 702a 19bd
00000290: cbae 3ebd 26ef d93a ce25 66bd 7b5f 953d
000002a0: ba1e b7bb ee01 663c 331e c2bc c1c8 083e
000002b0: cdaa c13c f2f8 3dbc 5f1a 0a3d bccc 73bd
000002c0: 20ff ddbd ed8f a03d 55f4 813d cddf 54bc
000002d0: 38b8 00bd ec1f 1dbd 5adf 563d 2333 00bd
000002e0: c069 f8ba 69da dfbb 07b3 e7bd 9beb 3c3d
000002f0: f2d1 723d 9ac2 c3bd 9bdd 27bd d268 463c
00000300: 0135 54bd e4c2 493b 1e07 fbba 56ae a6bc
00000310: 87be 8cbc 2545 8cbd e623 3ebd bebb 81bd
00000320: 0521 afbd 68ce d5bb 1869 6a3c d3d6 cbbd
00000330: 5d13 1ebd 8944 10bc 12fe 533e 48ae 94bc
00000340: cec0 bfbd f880 b5bd 4d02 d1bd 35e1 84bd
00000350: 4641 cdbd 4bc8 02bd 48e0 c23a 710d ee3c
00000360: 7480 3bbd b770 5a3d ee4b 273d 5064 fdbd
00000370: 9993 84bc cc2e 2dbc ab58 b9bc acda 873c
00000380: 4549 2ebd 0e24 93bd 49d1 e7bb 82fe 5ebd
00000390: c5fa 4bbd 5c42 51bd 33af b1bd b10e 92bd
000003a0: a380 bfbc 8a55 8ebd 9a37 d4bc aaf9 b0bd
000003b0: 1aaa 173d 0145 e43c 1828 953d b4e8 82bd
000003c0: 75c4 82bd b69d c8bd 9969 053d fe50 f0bd
000003d0: 740e 353c 906f 94bd 8bdf ddbd e183 67bd
000003e0: 5e3b 1e3b def5 bdbd ce3a 3cbd 770b f4bc
000003f0: 1b86 de3c d151 29bd 8638 0dbc ea87 b1bd
-0.035436116 -0.06491919 -0.025838844 -0.002651665 -0.036810163 -0.090462804 0.012061594 -0.07625323
-0.03421484 -0.045343306 -0.10973134 -0.028920833 0.0016121487 -0.07284565 -0.13033944 -0.04358012
-0.0095444415 -0.10490852 -0.002595286 0.027735977 -0.08360491 0.010272558 0.0840789 0.008773637
-0.060952965 0.0077236355 -0.079651825 -0.003935762 -0.01649168 -0.027166419 -0.06192587 -0.076705486
-0.06727343 -0.008196988 0.007599986 0.025830438 -0.0045553255 -0.07117572 -0.014070804 -0.08484346
-0.04146624 0.00036136992 -0.11650196 0.04211632 0.052558612 -0.08353828 0.00707951 0.047144085
0.025711315 -0.09656899 -0.0129572395 0.033508405 -0.03755986 0.022085022 -0.047483508 0.05682946
0.030794797 0.034042515 0.061738215 -0.049194746 -0.091088355 0.010587345 0.029618787 0.010028102
-0.08002959 -0.054163605 0.022845648 0.04848919 0.0050013 -0.05007661 -0.01642156 -0.16895545
-0.04359939 0.05614677 0.07009705 -0.037629984 0.037502643 0.022485366 -0.06913211 -0.08463394
-0.118648246 -0.049875937 0.061054338 -0.06449707 -0.025339058 -0.06899344 0.108249985 -0.0010688909
0.011948916 -0.13926357 -0.08911045 -0.09592514 -0.022314422 -0.02037488 0.12892514 -0.0072924504
-0.011268346 -0.06835013 -0.024689041 -0.0075164856 0.09124274 -0.09170679 -0.07186446 -0.076408625
-0.04290223 -0.034958296 0.022012046 0.0018761862 -0.07017821 -0.0020427287 -0.005437673 -0.0509085
-0.054918032 -0.06655891 0.08793472 -0.024054723 -0.034194656 0.036449302 -0.02446416 -0.08651061
-0.0896029 -0.07982388 0.005404463 0.01367996 -0.04704609 -0.08994278 -0.049735893 0.11753334
0.0063877627 -0.02746801 0.012190389 -0.01266932 0.0033815457 -0.021575235 -0.086905174 -0.034023788
0.0076822983 -0.02007457 -0.0055361856 -0.09719463 -0.027535869 -0.13054577 0.03444082 -0.11229373
-0.041154146 -0.054502297 -0.046254557 -0.001912671 -0.08058758 -0.08154161 -0.07828892 -0.08149676
-0.11446009 -0.10113582 -0.068276994 -0.07884012 -0.056316815 -0.054720845 -0.008434042 -0.012287753
-0.1096362 0.1039237 -0.020057637 -0.037393987 -0.046553414 0.0016627058 -0.056188397 0.07293602
-0.0055883797 0.014038546 -0.02369604 0.13357832 0.023641014 -0.011594998 0.033716556 -0.05952142
-0.10839677 0.07839952 0.06345431 -0.012992811 -0.031425685 -0.03836052 0.0524591 -0.031298768
-0.0018952414 -0.0068314564 -0.11313444 0.04612313 0.05928225 -0.09558602 -0.040982824 0.012109952
-0.05180836 0.003078633 -0.0019151901 -0.020346802 -0.017180694 -0.06849126 -0.046420954 -0.06334637
-0.0855122 -0.0065248497 0.014307283 -0.09953084 -0.038592685 -0.008805403 0.20702389 -0.01814951
-0.093629465 -0.088624895 -0.10205517 -0.06488267 -0.100222155 -0.031929296 0.0014867866 0.029059144
-0.0457768 0.05333015 0.040843897 -0.12372649 -0.016183661 -0.010570239 -0.022625288 0.016583763
-0.042550344 -0.07184611 -0.0070745093 -0.054441936 -0.0497997 -0.051088676 -0.08675995 -0.071317084
-0.023376768 -0.06949909 -0.02590542 -0.0864137 0.037027456 0.027864935 0.07283038 -0.06392041
-0.063851275 -0.09795706 0.03257141 -0.11734198 0.011050809 -0.07247841 -0.10833653 -0.056522254
0.0024144272 -0.09275411 -0.045954518 -0.029790623 0.027163556 -0.04133779 -0.008619433 -0.08668502

network.2.weight f4 [128, 256]
00000000: 806a 7e3d 5a66 5abd 13d2 93bc 7015 2a3c
00000010: 6327 c53c 7ce1 473d a668 babd 7cc2 bfbc
00000020: 608c 51bc 0c01 9ebd c739 8ebd 3eb7 e23a
00000030: 2345 873c 2268 253d 7801 103c 2a68 123d
00000040: ae9a 37bc 8a81 1b3c a010 79bc 0ad2 6fbd
00000050: bc74 41bd d8ba 3dbd 82d6 90bd 0595 71bc
00000060: b44a 40bd ce62 3d3d 4e0d 233d bf64 8b3c
00000070: a944 45bd b807 8bbd 40d5 8c3c 40fd dc3c
00000080: 00a1 5a3c d4df 07bd a4f9 babc 3cfc 98bc
00000090: c2ae 30bd ec22 dcbc 0080 cdb8 fe04 593d
000000a0: 15b3 72bb 08c1 2b3d 9043 c03c 46fd 78bd
000000b0: d9d4 ac3c 52e9 2cbd c6dd 383d cf08 d63a
000000c0: 80e4 c63b 29f1 efbb 0154 f839 50d0 5cbc
000000d0: 9064 7cbd 94de 1a3b 701f 953b 9daa dcbc
000000e0: 39f3 86bd bcd6 c23c da88 dc3c 3e09 083d
000000f0: 0898 53bd 247f 0cbc 5aa3 193b 6ee6 17bd
00000100: 8404 a43c 2eda 663d c9ca 4e3d fcb9 72bd
00000110: bb4a 8f3c e553 85bd fc26 53bd 5471 3fbd
00000120: 00af 2e3c abc8 9d3c d8b3 2ebc ac44 a13c
00000130: fe4d 2dbd 70cf 943c 6830 25bc 8037 e7ba
00000140: 20be 79bd 3e6c 05bc 459b fe3b 5145 533d
00000150: 982a 26bd c515 1cbd f367 803c 4400 2ebd
00000160: 635e f33c faab 1ebc 260e 4ebd c884 aeba
00000170: 1ace 79bd 713b a5bd 38c0 73bb f6c8 0b3d
00000180: 1440 9fbc 4e6d a33c 5013 06bc 3968 063d
00000190: 4637 abbd 5097 243c cbf6 5bbd 31bd 4cbd
000001a0: 44e3 873c 9f60 8bbd 4853 643c 5892 cebc
000001b0: 10ad dd3c de0c 6dbd 2303 4e3c 42d6 ebbc
000001c0: 7483 383d bf64 acbd 2c9b 0cbd 1c15 9b3c
000001d0: 5522 d4bc 06af 36bb d363 993b f8b4 3ebc
000001e0: 803a 7fba ce51 75bd 96b2 1cbd b025 8b3c
000001f0: 6b8a 5cbd a6e5 053d dff1 833c 38e6 cbbd
00000200: c414 4abd d087 723c b83f f93c 1985 333d
00000210: 006c 42b9 205f 093b cc89 8c3c 7a3e 2ebc
00000220: 099c cbbd 48a3 203c e782 7cbd 2b6a 993c
00000230: d60f ec3c 5402 683d 2659 773d 9050 623c
00000240: c099 533d 40f0 f03a 6d80 8bb9 9a13 09bd
00000250: 40f6 443b 9226 be3c a6da 8e3a 00bd a13c
00000260: 0b33 673c d18f d8bb c8e8 dd3c f7a6 8d3c
00000270: f7ff 143d fe23 7dbb 0ae9 393d 322e 1e3d
00000280: d498 85bd fd79 b0bd 19f8 81bd 4ffb 593c
00000290: 3fa5 4d3d 51a2 29bd 00ec 2d3b 3209 263d
000002a0: 7f4e 193b f493 aabd de36 583b 27dd 7f3c
000002b0: 1872 a3bc 5de7 cbbc f26e 68bd 78e1 6abd
000002c0: 6dbb 79bc fbb1 ca3a cb25 74bc e734 0c3d
000002d0: 6e2a 31bc 2224 6cbd fa9c daba 8005 adbc
000002e0: d9e3 e8bc be76 a7bd 3feb 4d3d 84d7 73bd
000002f0: 02e9 f7bc d7dd 82bd 0f22 043d cc9f 24bd
00000300: 78ea 1d3d f6c1 553d ba76 673d a6b8 843c
00000310: 9135 bd3b 5a47 39bd 772a 5a3c 69cf 03bd
00000320: a0fe 1d3c 94b9 16bd 58b4 b3bd 78fd 443d
00000330: 1434 063d ecf9 f13c 127c 163c be99 223c
00000340: ac35 d63c c028 bfba 2bb0 44bd 5838 093a
00000350: b663 21bc 8a43 75bc 8046 0d3a 3a0e 363d
00000360: 0c2b 69bd 340a 34bb 23d0 9f3c 7d9d dc3c
00000370: 2521 c13b 0bc0 27bd fcc9 193d 819c 0bbd
00000380: b56d ac3c 301e 0e3d f834 10bd aead 3ebd
00000390: dc6d c83c e862 513d 976b 72bc 30df 293c
000003a0: e0bf 9dbc 7cc6 403d 4522 67bd cb30 5cbd
000003b0: d8df 753c f4c2 623d 760a 55bd ae02 6bbd
000003c0: 6ca6 79bd 5019 e6bc 6767 46bd 727a 4b3d
000003d0: f168 edbc 1af7 073d 7a12 dc3c 9adc dabc
000003e0: d7dc 683c 0b0e 89bd 77d1 b53c e0dc b0bd
000003f0: 6e63 a4bd 7a23 1ebd 5020 0b3c 23ec 81bd
0.062113285 -0.053320266 -0.018044507 0.010381088 0.024066633 0.048799023 -0.09101991 -0.023408167
-0.012789816 -0.077150434 -0.06944614 0.0017297042 0.01651246 0.040382512 0.008789413 0.03574387
-0.011206312 0.009491334 -0.015201718 -0.05854992 -0.047230467 -0.046320766 -0.07072164 -0.014745002
-0.046946242 0.046236806 0.03980761 0.017015813 -0.048161183 -0.067885816 0.01719153 0.026976228
0.013344049 -0.033172444 -0.022824116 -0.018674962 -0.043135412 -0.02687212 -9.7990036e-05 0.052983277
-0.003703301 0.041932136 0.023469716 -0.060788415 0.021097587 -0.0422147 0.045133375 0.001632953
0.00606972 -0.0073224497 0.00047364834 -0.0134774 -0.06161934 0.0023631202 0.004550867 -0.026936824
-0.0658936 0.023784034 0.026920725 0.03321194 -0.05165866 -0.008575235 0.0023443312 -0.03708499
0.020021684 0.056360416 0.05048636 -0.0592594 0.017491689 -0.06510142 -0.05155085 -0.046738937
0.01066184 0.019260725 -0.010662995 0.019686066 -0.042310707 0.01816532 -0.010082342 -0.0017640442
-0.060972333 -0.008143483 0.0077699744 0.051579777 -0.040567964 -0.0381067 0.015674567 -0.042480722
0.029708093 -0.009684557 -0.05030646 -0.0013314718 -0.06098757 -0.08067978 -0.0037193429 0.0341272
-0.019439735 0.019949581 -0.008183315 0.03281424 -0.08360152 0.010045841 -0.053702157 -0.049985114
0.01658786 -0.068055384 0.013935871 -0.025216267 0.027060062 -0.0578736 0.01257399 -0.02878869
0.04504724 -0.08417653 -0.03432767 0.018930964 -0.025895277 -0.0027875318 0.0046810894 -0.011639826
-0.0009736195 -0.05989247 -0.03825625 0.016985744 -0.053842943 0.032689713 0.016106544 -0.0995602
-0.04933621 0.014802888 0.030425891 0.043828104 -0.00018541515 0.002096124 0.01715555 -0.010635013
-0.09941871 0.009804554 -0.061648276 0.018727383 0.028816145 0.056642845 0.060387753 0.013813153
0.0516603 0.0018382147 -0.0002660783 -0.03346596 0.0030054003 0.023211751 0.0010898903 0.019743443
0.014111291 -0.006608941 0.027088538 0.01729153 0.03637692 -0.003862619 0.04538826 0.038618274
-0.0652329 -0.086170174 -0.06346149 0.013304546 0.05020642 -0.041414563 0.0026538372 0.040536113
0.0023392735 -0.08329001 0.0032991688 0.015616692 -0.019951865 -0.024890596 -0.05674643 -0.05734393
-0.01524244 0.0015464419 -0.014901589 0.03423014 -0.010813339 -0.057651646 -0.0016678863 -0.021120787
-0.028428959 -0.08176945 0.050273176 -0.059531704 -0.030262474 -0.06389969 0.032259043 -0.040191457
0.038553685 0.05218693 0.05650971 0.016201328 0.005774208 -0.04523406 0.0133157885 -0.032180224
0.009643227 -0.036798075 -0.08774632 0.04809329 0.03276451 0.029538117 0.009184854 0.00992435
0.02614864 -0.0014584288 -0.04801957 0.0005234531 -0.009850433 -0.014969716 0.00053892285 0.04444716
-0.05692582 -0.0027471902 0.019508427 0.026930565 0.0058938437 -0.04095463 0.037546143 -0.0340848
0.021048406 0.034696758 -0.035206765 -0.046552353 0.024466448 0.051119715 -0.014796159 0.010368153
-0.019256532 0.04706429 -0.056429166 -0.05375747 0.015006982 0.055361703 -0.05201193 -0.057375602
-0.060949728 -0.028088242 -0.048438456 0.04967732 -0.028980704 0.03319464 0.026864279 -0.02671652
0.014212809 -0.066921316 0.022194607 -0.086358786 -0.08026777 -0.03860805 0.008491591 -0.06343868

network.2.bias f4 [128]
00000000: 6810 69bd 62a6 a5bd 667e 1bbc 65d8 2ebd
00000010: 9cd8 74bc 07d1 ff3b c057 38bd 494a 72bd
00000020: 0615 523d 00aa a53d 5883 53bd b100 d5bd
00000030: f170 76bd 219a 87bd 336b a7bd 8462 f0bc
00000040: 1cc6 a5bc dd68 c8bd 1b1f 3ebc 70d0 1c3d
00000050: 2d57 8d3d 829f 83bd 838f 163c 03a1 cbbd
00000060: c02b 47bd 9d40 593d 0f11 5c3e 0f10 b0bd
00000070: 6934 03be 4b5f f7bc 6c64 3ebd a377 39bd
00000080: a98f 9b3c 66c0 3ebd 2535 a53b 7162 49bd
00000090: 0f3a 44bd 3d33 54bd b054 423d 1912 38bd
000000a0: 0369 17b9 d7e2 0abe c1a8 10bd 98ca 5dbe
000000b0: f167 acbd bc78 f2bc 25f8 983d 0418 103d
000000c0: 27b0 d9bd 37ba 73be 07bd 16bd 8ce9 59bd
000000d0: 96d4 76bd 6f42 1ebd e908 31bd f9bf 893b
000000e0: e16f 933d 2cb4 d13d bcf8 a2bd b2c7 b3bc
000000f0: 6392 0cbe 6208 68bb bc60 2dbd 4c5d 143e
00000100: abab 9fbd fffa ab3c 561f 8abd 1135 9bbd
00000110: c50a c83c d1c0 0f3d 621d c5bd 2915 883d
00000120: 781c c0bb ef2e 51bd 144a f1bd 7361 40bc
00000130: bc19 c9bc 438e 10be 75bc b2bd 43e6 f43d
00000140: 1fe7 c1bd 6f85 993c b836 7f3e 2c3b f1bb
00000150: 5837 b4bc f886 34bd ee95 393d f6ca 8fbd
00000160: 0459 34bd 5e4e 293c f313 a7bd 9bca 4abd
00000170: b797 e9bb 12cb 0cbc f298 8ebd 4b1c e13d
00000180: 08f1 08bc 8f9a 843d 1c66 843d d94d ecbd
00000190: d6c3 11bb 89b7 4dbd 936e 533d d39b 5dbd
000001a0: f34e b13d aa6c 41bd 2fed 94bd 9d9d 9dbd
000001b0: 08ad 36bd 464c bcbc e172 2ebd b811 b03d
000001c0: 5786 d8bd 9e02 a9bc eacb b2bd 115e bfbd
000001d0: ae2a 843e 88b1 69bd 1fd3 93bd dcb2 34bd
000001e0: d78d 0f3d 7b59 a83c 98a9 9dbd 43a8 8abd
000001f0: eb37 e6bd 76ca 9ebd bd81 5a3d 09fa 11bc
-0.05690041 -0.08088376 -0.009490585 -0.04268684 -0.014944222 0.0078069004 -0.04500556 -0.059152875
0.05128958 0.080890656 -0.05163893 -0.104005225 -0.060166303 -0.06621195 -0.081747435 -0.02934385
-0.020236067 -0.09785626 -0.011604096 0.03828472 0.06901393 -0.06426908 0.009189489 -0.0994282
-0.048625708 0.053040136 0.21490882 -0.08596813 -0.12812962 -0.030196806 -0.04648249 -0.04528011
0.018989401 -0.046570204 0.0050417357 -0.049166147 -0.04790693 -0.051806677 0.047444046 -0.044939134
-0.00014439602 -0.13563095 -0.035317186 -0.21659315 -0.08418263 -0.029598586 0.07469205 0.035179153
-0.106293015 -0.23801504 -0.036801364 -0.053201243 -0.06026133 -0.038637575 -0.043221388 0.004203793
0.071990736 0.10239443 -0.079575986 -0.021945808 -0.13727717 -0.0035405387 -0.04232858 0.14488715
-0.07796415 0.020993708 -0.06744258 -0.07578481 0.024419198 0.035095993 -0.09624745 0.06644661
-0.0058627687 -0.05107015 -0.117817074 -0.011741984 -0.024548404 -0.14116769 -0.087273516 0.119579814
-0.09467911 0.018740384 0.24923217 -0.00736179 -0.021999046 -0.04407403 0.045309 -0.070211336
-0.044030204 0.010333626 -0.08158102 -0.049509626 -0.0071286815 -0.008593338 -0.06962766 0.109917246
-0.008358248 0.06474792 0.06464788 -0.11538286 -0.0022241971 -0.05022386 0.051619124 -0.054103684
0.086576365 -0.04722277 -0.07271802 -0.07696078 -0.04459861 -0.022985589 -0.042590026 0.085971296
-0.10572498 -0.02063113 -0.087303 -0.093441136 0.25813812 -0.057054073 -0.072180025 -0.044115886
0.03504738 0.02055048 -0.07698363 -0.067703746 -0.11241134 -0.0775346 0.053346384 -0.008909711

network.4.weight f4 [64, 128]
00000000: 3072 133c 891c ffbc d70d 77bd b122 1a3d
00000010: 57f0 a0bd ab42 4cbd 55a6 ad3d c8f4 e03c
00000020: 4235 043d ac0f cebc ab0c 993d 3f15 833d
00000030: 14e7 0bbd 1612 7e3d 6fd6 893d 36fe 6f3c
00000040: 3803 1bbc 4b24 ae3d a29d 723d b05a 97bb
00000050: 9e95 34bd 868d 19bd e4f4 8c3c 7293 763d
00000060: b137 af3d 0bf9 b1bd 6c76 0fbe 8417 b1bd
00000070: e0d6 a8bb c95a 963d 0e63 553d 2e7b a33d
00000080: 00fb 373b 20ec 1c3b ba66 583d ba7e 003d
00000090: 842a a8bd aefd 263d 59ba a7bd 8cdc 093d
000000a0: 8131 79bd 1df9 46bd 03af 83bd 0e72 66bd
000000b0: 9ffe 3abd c2db 513d 485b 6ebd fb8f 42bd
000000c0: c080 9bbd 8848 05be 9856 acbc 601a 24bc
000000d0: ba9f 51bd de6f 7b3d 4e09 6dbd abd7 11bd
000000e0: 2bf2 083d 7256 39bd 9140 b7bd 501a a83c
000000f0: 16c0 f5bc 0682 3e3d 143a bf3c a851 bf3b
00000100: 2eb7 84bd 4433 d23c 107a a63b 8fdd af3d
00000110: c696 333d 20aa cf3c 6885 8ebd 0ad3 89bd
00000120: 47ef aebd bb97 e2bc a220 21bd c0b1 103b
00000130: 4db7 a2bc 6007 aebc 5919 a43d 484b 14bd
00000140: 2aa0 783d 1fb0 b03d 00bc 38bd 8e32 f9bc
00000150: 7807 ebbc b0c3 4c3c 7970 0dbd 806c e63d
00000160: 8211 03bd a302 8d3d 2655 593d 4d5f 87bc
00000170: 00f2 efb9 f0dc d9bb 254b ff3b 4f35 bfbd
00000180: 2ce6 f2bc b7f8 61bc 50e8 0b3c 8817 893c
00000190: 84fe 96bd fcb0 d93c 20da 783b ff87 a2bd
000001a0: 6085 b0ba 6017 41bb 7e60 4c3d b086 50bc
000001b0: de3d a1bd 62f9 95bd fa0b 323d 3dd3 b4b9
000001c0: f03e e1bb c86d ee3c 7eba 36bd 58d4 623c
000001d0: 53b1 b8bd 00e0 1dba a6b1 733d ac8f f43c
000001e0: b091 043c ac4c a8bd 6d38 b13d 83e9 a63d
000001f0: afff 35bd 77cf a83d f552 5839 7a81 39bd
00000200: 21d0 9f3d 653e 9abd f5aa f73b c396 4d3c
00000210: 0f72 4abc 493e 8d3d 14b1 94bd a204 a6bc
00000220: 7442 a9bd 394c d73d 0807 02be db99 2ebd
00000230: 6ebe 31bd 2070 2c3d 7491 bfbc f37a 713c
00000240: 14b2 70bd 2db9 dc3b 34ca fe3c 2041 0cbd
00000250: 951d 85bf 3220 dbbc ed77 b5bd e43d 7dbd
00000260: d4fc 633b 2e30 00bc cfe1 f13e 9f51 b73c
00000270: bd7c af3c 1248 63bc 1e2a d3bd a114 0d3c
00000280: 3fab 12bd 0493 1c3d f471 f4bc 2cfb d43d
00000290: 1d60 0abd 732a 43bd 5959 45bd cffe 42bd
000002a0: 52e7 dc3a 8be7 aebe 3b11 1e3d bb0d ad3c
000002b0: 0e7d c63d 6787 05bd 5d03 3b3b a757 b2bd
000002c0: 3282 8c3e b669 373d 94ab f53d 9e28 3b3d
000002d0: 79ab dabc 1606 a0bd 0de3 833e 1758 9bbd
000002e0: bd54 aa3c b458 adbc c9ba 283c fd2c b33c
000002f0: 1257 d5bd 15aa 503c e9c8 9a3d 5031 68bd
00000300: 8cf4 9ebc 716e b9bc 1ff5 2e3d 90cb d93c
00000310: 05da 893d a2dc 2abd f438 70bd c1bd 733c
00000320: b846 9a3a 2164 9bbb 8569 4dbe 2f80 0a3b
00000330: e3a3 6b3e 06ae 27bd 3a0c 183c 78dd b43d
00000340: dd5e a7bd d8b0 c9bc b497 943e eb5b abbc
00000350: 3bce 943d 567b b0ba b7ef 02be 5cbc 74bc
00000360: 9453 9a3c 613e 2f3d 3e81 05bd 7cad aebd
00000370: 17d3 beba 6dfe f8bc d8c5 f83c 95d8 d0bd
00000380: 60e9 e73d e2fd 153e c7f6 583d ca1b 273d
00000390: d0c0 173e 274d 8d3d d58e 30bd 0dc8 4b3d
000003a0: 785d 10be 7713 e3bd 9a83 363a a3d9 b4bb
000003b0: df71 0e3d 3762 843c 2a68 753d 66a4 593e
000003c0: 2837 903d 912a 5b3d 7c7e 413e aaa5 02bd
000003d0: 4ad2 e13e ed62 32bd 9247 cdbb 88f4 483d
000003e0: 1e93 a5bc b5d6 2fbe 5178 c83c ae1b 063c
000003f0: b0a8 97bd ffb4 9abd b902 abbd 18b6 003c
0.008999392 -0.031141536 -0.060315933 0.03763074 -0.07858341 -0.049868267 0.08478991 0.02746047
0.032277353 -0.025153957 0.07473119 0.06400537 -0.03415592 0.062028967 0.06730353 0.014648011
-0.009461217 0.08503016 0.05923236 -0.004618965 -0.044088 -0.037488483 0.017206617 0.06019921
0.08555544 -0.08690079 -0.14010018 -0.086470634 -0.005152568 0.07341535 0.05209642 0.07982479
0.0028073192 0.0023944452 0.052832343 0.031370856 -0.08211234 0.04076927 -0.0818984 0.033657596
-0.060838226 -0.048577417 -0.06429865 -0.056261115 -0.04565298 0.051234968 -0.05819252 -0.04750059
-0.075929165 -0.1301595 -0.021037385 -0.010016054 -0.051177718 0.06138598 -0.0578702 -0.035606068
0.033434074 -0.045248456 -0.08947862 0.02052036 -0.02999882 0.04651072 0.023343123 0.0058385916
-0.06480251 0.025659211 0.005080469 0.08587181 0.04384496 0.025349677 -0.06959039 -0.06729706
-0.08541732 -0.027660241 -0.03933776 0.0022078604 -0.019862795 -0.021243751 0.08012647 -0.036204606
0.06069962 0.086273424 -0.045101166 -0.030419614 -0.028690085 0.012497827 -0.03453109 0.112511635
-0.03199912 0.068852685 0.05305972 -0.016524935 -0.00045765936 -0.0066486523 0.0077909403 -0.0933634
-0.02965077 -0.013792208 0.008539274 0.016734853 -0.07372764 0.02657365 0.003797181 -0.079360954
-0.0013467483 -0.0029463395 0.04989671 -0.0127274245 -0.07873128 -0.073229566 0.043468453 -0.0003448966
-0.006873958 0.029105082 -0.044611447 0.013844572 -0.09018197 -0.00060224533 0.05949559 0.029853664
0.008091375 -0.08217749 0.086533405 0.081500076 -0.044433292 0.08242696 0.00020630269 -0.045289494
0.07803369 -0.07531432 0.0075582215 0.012548151 -0.012356295 0.068966456 -0.072603375 -0.020265881
-0.08264628 0.10512585 -0.12697995 -0.042627197 -0.0433945 0.04209912 -0.023384787 0.014738786
-0.05876358 0.006735942 0.031102277 -0.034241796 -1.0399653 -0.02674875 -0.08860765 -0.0618266
0.0034788148 -0.007823987 0.4724259 0.022377787 0.021421785 -0.013872163 -0.103107676 0.008610875
-0.035807844 0.038226143 -0.029839493 0.1039947 -0.033783067 -0.047647905 -0.04818091 -0.047606286
0.0016853607 -0.34161028 0.03859065 0.021124711 0.09691821 -0.032599833 0.002853594 -0.087081246
0.2744308 0.04477855 0.119956166 0.045693032 -0.026693093 -0.07813661 0.25759163 -0.07585161
0.02079236 -0.021160461 0.010298439 0.021872038 -0.10416998 0.012735863 0.07557852 -0.056687653
-0.019403718 -0.02263567 0.042714234 0.026586324 0.06731037 -0.041714318 -0.058648065 0.014876784
0.0011770343 -0.004742161 -0.20059784 0.0021133532 0.23011737 -0.040937446 0.009280259 0.08831304
-0.081723906 -0.024620458 0.2902199 -0.020917853 0.07265898 -0.0013464491 -0.12786756 -0.0149374865
0.018838681 0.0427841 -0.032593958 -0.08529183 -0.0014558759 -0.030394757 0.030367777 -0.1019756
0.113238096 0.1464763 0.05296972 0.040797986 0.14819646 0.06899481 -0.043104965 0.04975133
-0.14098155 -0.11087697 0.0006962359 -0.0055191084 0.034776565 0.016160114 0.05991379 0.2125412
0.0704177 0.05350739 0.18895906 -0.03189627 0.4410575 -0.043551374 -0.0062646354 0.04906133
-0.020211753 -0.17171748 0.024471434 0.00818531 -0.074052215 -0.075540535 -0.08350129 0.0078559145

network.4.bias f4 [64]
00000000: 9fc8 f2bd 2a36 a13e 69e0 cebe 48f8 6a3e
00000010: 5941 7a3e 8c6b 77bd 2a82 133e 0252 b83d
00000020: c373 d33e 7d63 51bd 07b1 19be 8816 83bd
00000030: 0e2e da3e 7f2d 21be 445d 8abe aed0 a9ba
00000040: e633 23be f5cb ebbd 425f 92bd e118 373e
00000050: 1e94 cebc 99d1 08be 9b86 403e c875 e9bd
00000060: 9fd8 573e d530 a3bd 8ebb c9bd c362 f73e
00000070: 24b2 a33d 1362 a53e 74ad babd f3be fcbd
00000080: 0fba b53d c5d1 883e 1898 123e e7d7 ea3d
00000090: 49ba 983e fd05 13be 8a68 0e3d 4344 47bd
000000a0: 17bf a0bd 2170 d8bd c3da 8d3e c7ba 34be
000000b0: eeab 643e d97f fcbd a2de 2a3e b965 c33d
000000c0: 86cf 2e3e 716e 723e e91d 063d f319 463e
000000d0: 3d15 bc3d 64d9 e0bc 6d8d d93e b4b8 22bd
000000e0: ccf1 943e 8038 533e ec4c 89bd 2da4 56bd
000000f0: d389 ec3d 8e9d 913e e7a3 8a3e 3858 66bd
-0.11854672 0.31486636 -0.40405586 0.22946274 0.2443899 -0.0604053 0.14405122 0.09000017
0.41299257 -0.05112027 -0.15008937 -0.06400782 0.42613262 -0.15740012 -0.2702428 -0.0012955868
-0.15937766 -0.11513511 -0.07147075 0.17880584 -0.025217112 -0.13361205 0.18801348 -0.11399418
0.21078728 -0.07968298 -0.09850226 0.48317537 0.07992962 0.32301387 -0.09115115 -0.12341108
0.088733785 0.2672254 0.14315832 0.11466961 0.29829624 -0.14357753 0.034767665 -0.048649084
-0.078489475 -0.10568262 0.27705964 -0.17649375 0.22331211 -0.123290725 0.1668649 0.095408864
0.17071351 0.23674943 0.03274337 0.19345836 0.091837384 -0.02744741 0.42490712 -0.039726928
0.29090726 0.20627022 -0.06704125 -0.052402664 0.115497254 0.28440517 0.27078173 -0.056236476

network.6.weight f4 [2, 64]
00000000: edba 983c 5bf6 503e c7dd 1b3e 9442 f03e
00000010: b3d3 50be 99ea d23b f736 91bd b361 913e
00000020: b260 8f3e 0121 28bd 73d7 c4bc 6f50 413d
00000030: f10c be3e b8bf a2bc 1bfc 0b3e f923 15bd
00000040: 6de3 93bd 8874 6d3d 4819 f0bc e720 15be
00000050: c76c f63d daf2 3abd 43ba 0a3d 5970 f0bc
00000060: 54f2 0b3d fe45 babe 192c de3c f8c9 7f3e
00000070: 8ca1 97bd a5b0 25bf 43e4 8ebe 08ea 3d3d
00000080: 4210 4cbe 7b67 913e ddba cd3e dc35 993e
00000090: 7d7a 21bf 1071 873d 2ade 91be b079 07bc
000000a0: 82b0 cebd c7eb 50bd ba96 a03e ea4e 773d
000000b0: a321 de3e 88bf 58bd 0f46 f1bd 1597 d63e
000000c0: ac1e 293c 04f2 c73e 5f0c c9bd bee5 a73e
000000d0: ce7b 173e 71e0 453e 59c4 a13e f837 e4bc
000000e0: 2b95 4d3e 7c27 37be c250 653c 378b 163d
000000f0: 16be 8abd 82bd 863d f04c b13e dcaf 21bd
00000100: 5715 143c 2da4 803e e93a 31be 57e1 573e
00000110: af99 6e3e d253 dfbc 59dc 393e 4e60 993e
00000120: dab8 f03e ef74 11ba cbf6 c8bc ec07 923d
00000130: b22f d93e b39d df3a 5f75 903d 71a2 573e
00000140: f241 543b af1c d0bb 04c7 5ebd 1911 5e3e
00000150: 257d 82be 9367 06be 4f3a 743e 6e0b fdbc
00000160: 6151 753e 3571 c5bd a5b8 a2bd 1d7b 093f
00000170: dbfc 233e 138f 2a3e 41fc 04bd 065b 593e
00000180: 8571 293e 29cf ae3e a1a8 b93e 54a4 3a3e
00000190: fccc b53e 0e28 f93b 0022 033d 4a2f 2a3d
000001a0: 2519 97bd de9b 07bd 1333 773e 20b1 d8bd
000001b0: cc1d d33e 9cf6 af3c 6d64 1c3e 1300 243e
000001c0: de33 4b3e 9f3b 7f3e 11f0 943e 1df0 4a3e
000001d0: 481e 6a3e d63f 803c 349f c43e 29c0 c43c
000001e0: 5f0d c23e a315 ab3e abdd 303d e5b0 bd3d
000001f0: 4bf3 2d3e e6ce c83e 6934 c93e 20dc c9bb
0.01864382 0.20406477 0.1522132 0.46925795 -0.20393257 0.0064366576 -0.07090562 0.2839485
0.2800346 -0.0410471 -0.024028515 0.047195848 0.37119249 -0.01986681 0.1367039 -0.03641126
-0.072211124 0.05797246 -0.02930893 -0.14563332 0.120324664 -0.045641758 0.03386904 -0.029350447
0.03416665 -0.36381525 0.027120637 0.24979389 -0.074038595 -0.64722663 -0.27908525 0.046365768
-0.19928077 0.28399262 0.40181628 0.29923904 -0.6307753 0.06613362 -0.2848981 -0.008268759
-0.1009226 -0.051006105 0.31364995 0.060377993 0.43385038 -0.052917033 -0.11780941 0.4191214
0.010322254 0.3905183 -0.09816813 0.32792467 0.14793321 0.19323899 0.31595114 -0.02785872
0.20076434 -0.17886156 0.013996305 0.03675386 -0.06774537 0.065791145 0.3462901 -0.039474353
0.009038291 0.25125256 -0.17307629 0.21082054 0.23300813 -0.027261648 0.18150462 0.29956287
0.4701603 -0.00055487355 -0.024531743 0.07130417 0.424192 0.0017060548 0.07053637 0.2105806
0.003238794 -0.0063510756 -0.054389015 0.2168621 -0.25486103 -0.13125448 0.23850368 -0.03088924
0.23956825 -0.09640733 -0.079453744 0.5370348 0.16014425 0.16656141 -0.03246713 0.21226129
0.1654721 0.34142426 0.36261466 0.18226749 0.35507953 0.007603652 0.032014847 0.041549005
-0.07377843 -0.03310763 0.24140577 -0.10580659 0.4123367 0.021479897 0.15272684 0.16015653
0.19844005 0.24925087 0.29089406 0.19818158 0.22863114 0.01565544 0.38402712 0.02401741
0.37900826 0.33414945 0.04318015 0.092622556 0.1698734 0.3922035 0.39297798 -0.006160274

network.6.bias f4 [2]
00000000: 673f 133f 28f1 363f
0.5751862 0.71461725
