models/monopoly_ai_300.pth (torch, 379901 bytes, 8 tensors)

network.0.weight f4 [256, 205]
0	0x3ca28081	0.019836666
1	0xbe11578b	-0.14193551
2	0x3d715df6	0.0589275
3	0x3d329e60	0.04360807
4	0xbc98a500	-0.018633366
5	0x3d5ef552	0.054433174
6	0x3991f000	0.0002783537
7	0x3d44cfe3	0.04804982
8	0xbd9d1a13	-0.07670989
9	0xbcc9549f	-0.024576483
10	0x3d5fe714	0.054663733
11	0xbca64e10	-0.020300895
12	0x3c385e60	0.0112529695
13	0xbbc53320	-0.0060180575
14	0xbbe17490	-0.0068803504
15	0x3d556366	0.052096747
16	0xbc4a3fb8	-0.012344293
17	0x3d02a6ab	0.03189723
18	0xbc2be96d	-0.010492665
19	0x3db85661	0.090008505
20	0x3c4ec5c8	0.012620397
21	0x3c7c4218	0.015396617
22	0x3cb7b44c	0.02242484
23	0xbd7aa8ab	-0.06119601
24	0x3d4cd1c2	0.05000473
25	0x3d5b429e	0.053530328
26	0x3b7b1ea0	0.0038317814
27	0xbd923bb0	-0.07140291
28	0xbc605319	-0.013691687
29	0xbd282689	-0.041052375
30	0x3d03eade	0.03220641
31	0xbcc5fdee	-0.024168935
32	0x3d0eb4fe	0.034840576
33	0x3c6422b8	0.013924293
34	0xbd01712e	-0.031602077
35	0x3c701a00	0.014654636
36	0xbd22e4a6	-0.039768837
37	0x3d47d5f8	0.04878804
38	0x3aefc440	0.001829274
39	0xbd80195a	-0.062548354
40	0xbd0843fe	-0.033267967
41	0x3ce558d8	0.027996466
42	0xbcd58c14	-0.026067771
43	0xbd1a99e4	-0.037744418
44	0xbd0d3e0d	-0.034483004
45	0x3d3853e0	0.045001864
46	0xbcc890b8	-0.02448307
47	0xbdc7c06b	-0.09753498
48	0xbcabd0d7	-0.020973606
49	0xbd8c492d	-0.06849895
50	0xbd1420df	-0.03616416
51	0x3ce4f564	0.027949043
52	0xbd8882de	-0.06665586
53	0x3d8a868b	0.06763943
54	0x3d35b9d6	0.04436668
55	0x3d0418c8	0.032250196
56	0x3d8dfcdf	0.06932997
57	0xbd1d892f	-0.038460907
58	0xbd2d0893	-0.042244505
59	0x3c4afa3a	0.01238876
60	0xbd827b23	-0.06371143
61	0x3d0e327e	0.03471612
62	0xbd418885	-0.047249336
63	0xbd63380c	-0.055473372
64	0x3ce58e71	0.028022023
65	0x3d0bb2f4	0.03410621
66	0xbca241e8	-0.019806817
67	0xbdb374bb	-0.08762499
68	0xbdb00e51	-0.08596481
69	0x3d126478	0.035740346
70	0x3cff28e0	0.03114742
71	0x3d601052	0.054703064
72	0xbb270ff3	-0.0025491684
73	0xbd9e7c37	-0.07738536
74	0x3cf10dce	0.029425528
75	0xbd362c40	-0.044475794
76	0xbccc05a6	-0.024905037
77	0xbd721c6a	-0.05910913
78	0xbb98c6e9	-0.004662384
79	0x3d183be7	0.037166502
80	0x3d30dbd6	0.043178402
81	0xbd75fbca	-0.060054578
82	0xbd591e61	-0.053007487
83	0xb9c3cc98	-0.00037345733
84	0xbd227ccb	-0.039669793
85	0xbd04e4c7	-0.03244474
86	0x3d218cf8	0.03944108
87	0x3bc5a620	0.0060317665
88	0x3cf2b424	0.029626913
89	0x3c89d720	0.016826212
90	0xbc40a51c	-0.011758115
91	0x3d0e56ae	0.034750633
92	0xbda403fb	-0.08008572
93	0x3bfd3948	0.0077277757
94	0xbdaca8bb	-0.0843062
95	0x3d67630a	0.056490935
96	0xbd469498	-0.048481554
97	0xbda4e409	-0.08051307
98	0xbdda48c2	-0.10658409
99	0xbc1429e5	-0.009043192
100	0x3d7becc6	0.0615051
101	0x3d6139f4	0.05498691
102	0x3c3bd840	0.011465132
103	0xbd8c7ff1	-0.068603404
104	0xbce6ecb2	-0.028189037
105	0xbd50eec8	-0.05100897
106	0xbc8fca7e	-0.01755261
107	0xbd03d3c7	-0.03218439
108	0xbd86e4a6	-0.0658658
109	0xbdbceb93	-0.0922462
110	0x3d7b8a6e	0.061411314
111	0xbd71be31	-0.05901927
112	0x3d8b5597	0.06803434
113	0xbcbf5fd4	-0.023361124
114	0xbd234ea6	-0.039869927
115	0xbcbd45b6	-0.02310453
116	0x3bb5aa90	0.0055440143
117	0x3dae58af	0.08513009
118	0xbbe2496b	-0.0069057248
119	0xbd47ea1c	-0.04880725
120	0x3d52436c	0.05133383
121	0xbd0f272e	-0.034949474
122	0xbcb2e452	-0.021837387
123	0xbda7cd24	-0.08193424
124	0x3d30f5d0	0.043203175
125	0xbd0a82e6	-0.03381624
126	0xbc824280	-0.01590085
127	0xbd7cde7c	-0.061735615
128	0x3d3e334b	0.046435636
129	0xbd39e062	-0.045380004
130	0x3d40c984	0.04706718
131	0x3d37cef2	0.044875093
132	0xbd4928a7	-0.049111035
133	0xbc9a73df	-0.01885408
134	0xbd589124	-0.052872792
135	0x3d03f214	0.032213286
136	0xbd851949	-0.064989634
137	0xbd46cd7d	-0.048535813
138	0x3bebcaaa	0.0071957903
139	0xbcb5c83c	-0.022190206
140	0x3cab8468	0.02093716
141	0xbd5e8bb2	-0.054332443
142	0x3d09e8b9	0.033669207
143	0xbc5e2019	-0.013557457
144	0xbd90a7b4	-0.07063237
145	0x3d17dd8a	0.03707651
146	0xbc2d0db8	-0.010562353
147	0xbde0f328	-0.109838784
148	0xbcb730ef	-0.0223622
149	0xbd1912c8	-0.037371427
150	0xbc953db6	-0.018217903
151	0x3d07fb2c	0.03319852
152	0xbd86b15f	-0.065767996
153	0x3d84bc23	0.06481197
154	0x3d1d4bd6	0.0384024
155	0x3d8bb9b3	0.06822529
156	0xbb96ce00	-0.004602194
157	0x3cde1c3b	0.02711307
158	0xbd36cd30	-0.044629276
159	0x3cbb0904	0.022831447
160	0xbd0c5bd5	-0.034267265
161	0x3cc7e300	0.024400234
162	0xbc0dcf5a	-0.0086553935
163	0xbd250fd7	-0.04029831
164	0xbc33572a	-0.0109460745
165	0x3cc09628	0.0235091
166	0x3d081324	0.03322138
167	0xbd480f94	-0.04884298
168	0xbcddd55a	-0.027079273
169	0xbc457ebc	-0.012054142
170	0x3d32c930	0.0436489
171	0xbd15a65c	-0.036535606
172	0xbc0cda44	-0.00859696
173	0xbd2e90ec	-0.042618677
174	0x3d532cad	0.051556278
175	0x3d1f1a5e	0.038843505
176	0xb9fe8000	-0.00048542023
177	0x3d55cc38	0.05219671
178	0xbd1a423b	-0.03766082
179	0xbd19baaa	-0.037531532
180	0x3bb75d20	0.005595818
181	0x3c55ba30	0.013044879
182	0xbc2ffa70	-0.010740861
183	0xbd2835c8	-0.041066915
184	0xbd81ba80	-0.063344
185	0x3c8c5b7c	0.017133467
186	0x3d222778	0.03958842
187	0xbda3f303	-0.08005335
188	0xbc91a86a	-0.017780501
189	0xbd798c5b	-0.06092487
190	0x3d5484ce	0.051884465
191	0xbce09670	-0.027415484
192	0xbce32a1a	-0.027730037
193	0x3ca847ac	0.020541988
194	0xbd87686e	-0.06611715
195	0xbd8b4727	-0.068006806
196	0xbd8b2c69	-0.0679558
197	0x3cd728b2	0.026264522
198	0x3abe55bf	0.0014521404
199	0x3d7780b1	0.060425464
200	0xbc0d47a8	-0.008623041
201	0x3c92e84c	0.017933033
202	0xbd6fa447	-0.058506276
203	0xbd751cc0	-0.05984187
204	0xbc9225b0	-0.017840236
205	0xbe25d0e6	-0.1619297
206	0xbecf4ed1	-0.4048982
207	0x3d52117e	0.051286213
208	0xbd61ab30	-0.055094898
209	0x3c6b0c58	0.014346205
210	0x3cd6d35c	0.02622383
211	0x3d3d55fe	0.046224587
212	0x3e3e48dd	0.18582483
213	0xbe4312c2	-0.19050124
214	0x3d1aaa45	0.037760038
215	0x3cac9e24	0.021071501
216	0xbc16bd14	-0.009200353
217	0x3d53830a	0.05163864
218	0xbd4a60a7	-0.04940858
219	0xbc422080	-0.011848569
220	0x3c868e18	0.016425177
221	0xbcea64e0	-0.028612554
222	0xbd37c18b	-0.04486231
223	0xbd6b0a7b	-0.05738304
224	0xbd08dacf	-0.033411797
225	0x3c217ec0	0.00985688
226	0xbd8d99d3	-0.06914105
227	0x3d4c1116	0.049820982
228	0xbd8dc198	-0.06921691
229	0xbcbfcb8c	-0.023412488
230	0x3cc80abc	0.024419181
231	0x3c86849c	0.016420655
232	0x3d1909ee	0.037362985
233	0xbe43e89b	-0.191317
234	0x3d7eb14d	0.062180806
235	0x3d86c5e5	0.06580714
236	0xbd85c838	-0.06532329
237	0x3caeb374	0.021325804
238	0xbe71c6b2	-0.23610952
239	0xbc948891	-0.018131526
240	0x3d8384fb	0.064218484
241	0x3c77d238	0.015125804
242	0x3d7b562a	0.06136147
243	0xbd3b9706	-0.045798324
244	0x3d7465ce	0.0596674
245	0xbc1acc08	-0.009448059
246	0x3d825755	0.063643135
247	0xbdbafa00	-0.09129715
248	0x3e229e9e	0.1588082
249	0xbe84ab00	-0.25911713
250	0xbbdc4610	-0.0067222193
251	0xbbd142f0	-0.0063861534
252	0xbca41ed0	-0.020034224
253	0x3d95aac6	0.07307963
254	0xbe7c1a26	-0.2461935
255	0x3d079a8a	0.033106364

network.0.bias f4 [256]
0	0xbd112576	-0.035436116
1	0xbd8478e3	-0.0646837
2	0xbcd3abfc	-0.025838844
3	0x3d44d9a2	0.048059113
4	0xbcf791d2	-0.0302209
5	0xbdb94490	-0.090462804
6	0x3cc7d0d3	0.024391567
7	0xbd6218af	-0.05519932
8	0xbd0c24dc	-0.03421484
9	0xbb5e951d	-0.003396339
10	0xbdba3af3	-0.09093275
11	0xbceceb62	-0.028920833
12	0x3d548406	0.05188372
13	0xbd95301a	-0.07284565
14	0xbe0577b4	-0.13033944
15	0x3e0d72bb	0.13813297
16	0x3cb6098f	0.022221355
17	0xbdd6da47	-0.10490852
18	0xbb2a15ac	-0.002595286
19	0x3d7b0b65	0.061290164
20	0xbdab390d	-0.08360491
21	0x3d274d5c	0.04084526
22	0x3da928b1	0.082597144
23	0x3d28412b	0.041077774
24	0xbcef19f2	-0.029187176
25	0x3bfd168d	0.0077236355
26	0xbda3207f	-0.079651825
27	0xbb80f791	-0.003935762
28	0xbc87198f	-0.01649168
29	0xbcde8c1c	-0.027166419
30	0xbd2a6e93	-0.041609358
31	0xbd9d17c4	-0.076705486
32	0xbd89c6a7	-0.06727343
33	0xbc064ca9	-0.008196988
34	0x3d6003b3	0.054691028
35	0x3cd39a5b	0.025830438
36	0x3d824725	0.06361226
37	0xbc1b3a68	-0.009474374
38	0xbc66893b	-0.014070804
39	0xbd596832	-0.053077884
40	0xbda3a59e	-0.07990573
41	0x39bd7640	0.00036136992
42	0xbdad9637	-0.08475917
43	0x3dc84c36	0.09780161
44	0x3d801a8d	0.06255064
45	0xbdab161e	-0.08353828
46	0x3be7fb3c	0.00707951
47	0xba71b84a	-0.00092208816
48	0x3d603479	0.05473754
49	0xbd84b78c	-0.06480321
50	0x3dcaa7f1	0.098953135
51	0x3d065953	0.03280003
52	0xbd19d85e	-0.03755986
53	0xbae6f4c8	-0.0017620558
54	0xbd427e11	-0.047483508
55	0x3d6cb25c	0.057787284
56	0xbd96754e	-0.07346593
57	0x3d450a52	0.048105545
58	0x3e019163	0.12653117
59	0xbd49806e	-0.049194746
60	0xbdba8c88	-0.091088355
61	0x3d099f5d	0.033599246
62	0x3cf2a319	0.029618787
63	0x3d2b2f72	0.041793294
64	0xbda3e68e	-0.08002959
65	0xbd5ddaa8	-0.054163605
66	0x3da76afd	0.08174703
67	0x3d2a2fac	0.04154937
68	0x3d1698d4	0.036766842
69	0xbd4d1d22	-0.05007661
70	0xbc868682	-0.01642156
71	0xbd070b01	-0.03296948
72	0xbd329546	-0.04359939
73	0x3dadcbce	0.08486138
74	0x3e61c709	0.22048582
75	0xbd1a21e6	-0.037629984
76	0x3d199c5f	0.037502643
77	0x3d907b80	0.07054806
78	0xbd8d9523	-0.06913211
79	0xbdad548f	-0.08463394
80	0xbd302823	-0.043007027
81	0xbd4c4ab6	-0.049875937
82	0x3dc881cb	0.09790381
83	0x3df69950	0.12040961
84	0xbccf93db	-0.025339058
85	0xbd0b0397	-0.03393897
86	0x3e18b56c	0.14912957
87	0x3b818671	0.0039527942
88	0x3c43c563	0.011948916
89	0xbddc27c4	-0.10749772
90	0xbdb67f8a	-0.08911045
91	0xbd762458	-0.060093254
92	0xbbaf209d	-0.005344464
93	0xbd55327c	-0.0520501
94	0x3e40d268	0.18830264
95	0xbbeef582	-0.0072924504
96	0xbc389ede	-0.011268346
97	0xbd8bfb27	-0.06835013
98	0xbcca40ac	-0.024689041
99	0x3b0225b1	0.0019858892
100	0x3de621c9	0.11236913
101	0xbdbbd0c5	-0.09170679
102	0xbc9d834f	-0.019227652
103	0xbcb274e1	-0.021784248
104	0xbd2fba40	-0.04290223
105	0xbb513913	-0.0031924888
106	0x3cb4529b	0.022012046
107	0x3d09c74f	0.03363734
108	0x3c9c824e	0.019105103
109	0xbb05df4d	-0.0020427287
110	0xbbb22e82	-0.005437673
111	0xbd50856e	-0.0509085
112	0xbd425e9a	-0.0474535
113	0xbd0ea9b5	-0.034829814
114	0xbd2f3fd3	-0.042785477
115	0xbcc50e69	-0.024054723
116	0xbbdea080	-0.0067940354
117	0x3d40a573	0.047032785
118	0xbb3ae6b1	-0.002851885
119	0xbdb12c7a	-0.08651061
120	0x3bc11a67	0.00589304
121	0xbda37ab4	-0.07982388
122	0x3bb117ec	0.005404463
123	0x3c6021e9	0.01367996
124	0xbd40b367	-0.04704609
125	0xbdb833ec	-0.08994278
126	0xbd17b83e	-0.03704094
127	0x3db66117	0.08905237
128	0x3bd15070	0.0063877627
129	0xbce10498	-0.02746801
130	0x3d6f6303	0.058444034
131	0xbc4f92fb	-0.01266932
132	0x3b5d9cec	0.0033815457
133	0xbcb0be8c	-0.021575235
134	0xbdb1fb57	-0.086905174
135	0xbb22df1a	-0.0024852217
136	0x3d1eec8e	0.038799815
137	0x3c3f8ca5	0.011691247
138	0x3d21b323	0.03947748
139	0xbd5494bf	-0.051899668
140	0x3d40ce60	0.047071815
141	0xbe05adca	-0.13054577
142	0x3d0d11d1	0.03444082
143	0xbde5fa41	-0.11229373
144	0xbd289140	-0.041154146
145	0xbd60ce95	-0.054884512
146	0xbd3d756b	-0.046254557
147	0x3cf48e93	0.029853141
148	0x3d77db60	0.060511947
149	0xbda6ff4a	-0.08154161
150	0xbda055f1	-0.07828892
151	0xbda6e7c6	-0.08149676
152	0xbda95ba2	-0.08269431
153	0xbcb5238d	-0.022111678
154	0xbd8bd4cf	-0.068276994
155	0x3d6fdf35	0.058562476
156	0xbcc91ff1	-0.024551364
157	0xbd6022f7	-0.054720845
158	0xbc0a2ef0	-0.008434042
159	0xbc495292	-0.012287753
160	0xbde088f2	-0.1096362
161	0x3da0ca5c	0.07851097
162	0xbc1549c7	-0.009111828
163	0xbcafbc0a	-0.021451969
164	0x3b5842dd	0.0032998838
165	0x3ad9ef26	0.0016627058
166	0xbd6625ce	-0.056188397
167	0x3dc0d4fa	0.09415622
168	0xbbb71eba	-0.0055883797
169	0x3cb33b59	0.021878885
170	0x3d60447b	0.054752808
171	0x3dc288f7	0.0949878
172	0x3cc1aacd	0.023641014
173	0xbc3df8f2	-0.011594998
174	0x3d0a1a5f	0.033716556
175	0xbd73ccbc	-0.05952142
176	0xbd9cf0b3	-0.07663097
177	0x3d41f44a	0.047352113
178	0x3d81f455	0.06345431
179	0xbc54dfcd	-0.012992811
180	0xbd00b838	-0.031425685
181	0xbbd81881	-0.006594718
182	0x3ba69f0b	0.0050848774
183	0xbd003323	-0.031298768
184	0xbd5fd7a5	-0.054649014
185	0xbbdfda69	-0.0068314564
186	0xbde7b307	-0.11313444
187	0x3d456d0e	0.048199706
188	0x3dddd419	0.1083147
189	0xbdc3c29a	-0.09558602
190	0xbd27dd9b	-0.040982824
191	0x3c851d8e	0.016249444
192	0xbd543501	-0.05180836
193	0x3b49c2e4	0.003078633
194	0xbafb071e	-0.0019151901
195	0xbca6ae56	-0.020346802
196	0xb950d95a	-0.00019917396
197	0xbd134a26	-0.035959385
198	0xbd3e23e6	-0.046420954
199	0xbd81bbbe	-0.06334637
200	0xbdaf2105	-0.0855122
201	0xbbd5ce68	-0.0065248497
202	0x3d2b01ad	0.041749645
203	0xbd8ac869	-0.067765065
204	0xbd43db9b	-0.047816854
205	0xbc104489	-0.008805403
206	0x3ddb59a8	0.1071046
207	0xbc94ae48	-0.01814951
208	0xbdbfc0ce	-0.093629465
209	0xbdb580f8	-0.088624895
210	0xbdb3fc1a	-0.08788319
211	0x3c01b685	0.007917051
212	0xbd8c32d8	-0.06845635
213	0x3cefc52b	0.029268822
214	0x3ac2e048	0.0014867866
215	0x3cee0d71	0.029059144
216	0xbd3b8074	-0.0457768
217	0x3dc07e56	0.09399097
218	0x3d07e70e	0.033179335
219	0xbdbc55e4	-0.0919607
220	0x3c083e89	0.008315691
221	0xbc2d2ecc	-0.010570239
222	0xbcb958ab	-0.022625288
223	0x3d3140ca	0.04327468
224	0xbd2e4945	-0.042550344
225	0xbd93240e	-0.07184611
226	0x3d6c20d3	0.05764849
227	0xbd5efe82	-0.054441936
228	0xbd4bfac5	-0.0497997
229	0xbd0c0f90	-0.03419453
230	0xbd79eeb9	-0.06101868
231	0xbd920eb1	-0.071317084
232	0x3cfefd17	0.031126542
233	0xbd8e558a	-0.06949909
234	0xbb35be1d	-0.0027731725
235	0xbdb0f9aa	-0.0864137
236	0x3df78dd9	0.12087602
237	0x3d38a6d4	0.045080975
238	0x3dec6768	0.11543161
239	0xbd4d4f30	-0.050124347
240	0xbd82c475	-0.063851275
241	0xbd5eb3e6	-0.054370783
242	0x3ca31348	0.019906655
243	0xbdf050fe	-0.11734198
244	0x3cbe7727	0.023250176
245	0xbd946f90	-0.07247841
246	0xbddddf8b	-0.10833653
247	0xbd6783e1	-0.056522254
248	0x3b1e3b5e	0.0024144272
249	0xbd72b1d8	-0.059251636
250	0xbd3c3ace	-0.045954518
251	0xbca7db62	-0.020490352
252	0x3d252cf8	0.04032609
253	0xbd2951d1	-0.04133779
254	0x3cbd9810	0.023143798
255	0xbdab0924	-0.08351353

network.2.weight f4 [128, 256]
0	0x3d7e6a80	0.062113285
1	0xbd5a665a	-0.053320266
2	0xbc93d213	-0.018044507
3	0x3c2a1570	0.010381088
4	0x3cc52763	0.024066633
5	0x3d47e17c	0.048799023
6	0xbdba68a6	-0.09101991
7	0xbcbfc27c	-0.023408167
8	0xbc518c60	-0.012789816
9	0xbd9e010c	-0.077150434
10	0xbd8e39c7	-0.06944614
11	0x3ae2b73e	0.0017297042
12	0x3c874523	0.01651246
13	0x3d256822	0.040382512
14	0x3c100178	0.008789413
15	0x3d12682a	0.03574387
16	0xbc379aae	-0.011206312
17	0x3c1b818a	0.009491334
18	0xbc7910a0	-0.015201718
19	0xbd6fd20a	-0.05854992
20	0xbd4174bc	-0.047230467
21	0xbd3dbad8	-0.046320766
22	0xbd90d682	-0.07072164
23	0xbc719505	-0.014745002
24	0xbd404ab4	-0.046946242
25	0x3d3d62ce	0.046236806
26	0x3d230d4e	0.03980761
27	0x3c8b64bf	0.017015813
28	0xbd4544a9	-0.048161183
29	0xbd8b07b8	-0.067885816
30	0x3c8cd540	0.01719153
31	0x3cdcfd40	0.026976228
32	0x3c5aa100	0.013344049
33	0xbd07dfd4	-0.033172444
34	0xbcbaf9a4	-0.022824116
35	0xbc98fc3c	-0.018674962
36	0xbd30aec2	-0.043135412
37	0xbcdc22ec	-0.02687212
38	0xb8cd8000	-9.7990036e-05
39	0x3d5904fe	0.052983277
40	0xbb72b315	-0.003703301
41	0x3d2bc108	0.041932136
42	0x3cc04390	0.023469716
43	0xbd78fd46	-0.060788415
44	0x3cacd4d9	0.021097587
45	0xbd2ce952	-0.0422147
46	0x3d38ddc6	0.045133375
47	0x3ad608cf	0.001632953
48	0x3bc6e480	0.00606972
49	0xbbeff129	-0.0073224497
50	0x39f85401	0.00047364834
51	0xbc5cd050	-0.0134774
52	0xbd7c6490	-0.06161934
53	0x3b1ade94	0.0023631202
54	0x3b951f70	0.004550867
55	0xbcdcaa9d	-0.026936824
56	0xbd86f339	-0.0658936
57	0x3cc2d6bc	0.023784034
58	0x3cdc88da	0.026920725
59	0x3d08093e	0.03321194
60	0xbd539808	-0.05165866
61	0xbc0c7f24	-0.008575235
62	0x3b19a35a	0.0023443312
63	0xbd17e66e	-0.03708499
64	0x3ca40484	0.020021684
65	0x3d66da2e	0.056360416
66	0x3d4ecac9	0.05048636
67	0xbd72b9fc	-0.0592594
68	0x3c8f4abb	0.017491689
69	0xbd8553e5	-0.06510142
70	0xbd5326fc	-0.05155085
71	0xbd3f7154	-0.046738937
72	0x3c2eaf00	0.01066184
73	0x3c9dc8ab	0.019260725
74	0xbc2eb3d8	-0.010662995
75	0x3ca144ac	0.019686066
76	0xbd2d4dfe	-0.042310707
77	0x3c94cf70	0.01816532
78	0xbc253068	-0.010082342
79	0xbae73780	-0.0017640442
80	0xbd79be20	-0.060972333
81	0xbc056c3e	-0.008143483
82	0x3bfe9b45	0.0077699744
83	0x3d534551	0.051579777
84	0xbd262a98	-0.040567964
85	0xbd1c15c5	-0.0381067
86	0x3c8067f3	0.015674567
87	0xbd2e0044	-0.042480722
88	0x3cf35e63	0.029708093
89	0xbc1eabfa	-0.009684557
90	0xbd4e0e26	-0.05030646
91	0xbaae84c8	-0.0013314718
92	0xbd79ce1a	-0.06098757
93	0xbda53b71	-0.08067978
94	0xbb73c038	-0.0037193429
95	0x3d0bc8f6	0.0341272
96	0xbc9f4014	-0.019439735
97	0x3ca36d4e	0.019949581
98	0xbc061350	-0.008183315
99	0x3d066839	0.03281424
100	0xbdab3746	-0.08360152
101	0x3c249750	0.010045841
102	0xbd5bf6cb	-0.053702157
103	0xbd4cbd31	-0.049985114
104	0x3c87e344	0.01658786
105	0xbd8b609f	-0.068055384
106	0x3c645348	0.013935871
107	0xbcce9258	-0.025216267
108	0x3cddad10	0.027060062
109	0xbd6d0cde	-0.0578736
110	0x3c4e0323	0.01257399
111	0xbcebd642	-0.02878869
112	0x3d388374	0.04504724
113	0xbdac64bf	-0.08417653
114	0xbd0c9b2c	-0.03432767
115	0x3c9b151c	0.018930964
116	0xbcd42255	-0.025895277
117	0xbb36af06	-0.0027875318
118	0x3b9963d3	0.0046810894
119	0xbc3eb4f8	-0.011639826
120	0xba7f3a80	-0.0009736195
121	0xbd7551ce	-0.05989247
122	0xbd1cb296	-0.03825625
123	0x3c8b25b0	0.016985744
124	0xbd5c8a6b	-0.053842943
125	0x3d05e5a6	0.032689713
126	0x3c83f1df	0.016106544
127	0xbdcbe638	-0.0995602
128	0xbd4a14c4	-0.04933621
129	0x3c7287d0	0.014802888
130	0x3cf93fb8	0.030425891
131	0x3d338519	0.043828104
132	0xb9426c00	-0.00018541515
133	0x3b095f20	0.002096124
134	0x3c8c89cc	0.01715555
135	0xbc2e3e7a	-0.010635013
136	0xbdcb9c09	-0.09941871
137	0x3c20a348	0.009804554
138	0xbd7c82e7	-0.061648276
139	0x3c996a2b	0.018727383
140	0x3cec0fd6	0.028816145
141	0x3d680254	0.056642845
142	0x3d775926	0.060387753
143	0x3c625090	0.013813153
144	0x3d5399c0	0.0516603
145	0x3af0f040	0.0018382147
146	0xb98b806d	-0.0002660783
147	0xbd09139a	-0.03346596
148	0x3b44f640	0.0030054003
149	0x3cbe2692	0.023211751
150	0x3a8edaa6	0.0010898903
151	0x3ca1bd00	0.019743443
152	0x3c67330b	0.014111291
153	0xbbd88fd1	-0.006608941
154	0x3cdde8c8	0.027088538
155	0x3c8da6f7	0.01729153
156	0x3d14fff7	0.03637692
157	0xbb7d23fe	-0.003862619
158	0x3d39e90a	0.04538826
159	0x3d1e2e32	0.038618274
160	0xbd8598d4	-0.0652329
161	0xbdb079fd	-0.086170174
162	0xbd81f819	-0.06346149
163	0x3c59fb4f	0.013304546
164	0x3d4da53f	0.05020642
165	0xbd29a251	-0.041414563
166	0x3b2dec00	0.0026538372
167	0x3d260932	0.040536113
168	0x3b194e7f	0.0023392735
169	0xbdaa93f4	-0.08329001
170	0x3b5836de	0.0032991688
171	0x3c7fdd27	0.015616692
172	0xbca37218	-0.019951865
173	0xbccbe75d	-0.024890596
174	0xbd686ef2	-0.05674643
175	0xbd6ae178	-0.05734393
176	0xbc79bb6d	-0.01524244
177	0x3acab1fb	0.0015464419
178	0xbc7425cb	-0.014901589
179	0x3d0c34e7	0.03423014
180	0xbc312a6e	-0.010813339
181	0xbd6c2422	-0.057651646
182	0xbada9cfa	-0.0016678863
183	0xbcad0580	-0.021120787
184	0xbce8e3d9	-0.028428959
185	0xbda776be	-0.08176945
186	0x3d4deb3f	0.050273176
187	0xbd73d784	-0.059531704
188	0xbcf7e902	-0.030262474
189	0xbd82ddd7	-0.06389969
190	0x3d04220f	0.032259043
191	0xbd249fcc	-0.040191457
192	0x3d1dea78	0.038553685
193	0x3d55c1f6	0.05218693
194	0x3d6776ba	0.05650971
195	0x3c84b8a6	0.016201328
196	0x3bbd3591	0.005774208
197	0xbd39475a	-0.04523406
198	0x3c5a2a77	0.0133157885
199	0xbd03cf69	-0.032180224
200	0x3c1dfea0	0.009643227
201	0xbd16b994	-0.036798075
202	0xbdb3b458	-0.08774632
203	0x3d44fd78	0.04809329
204	0x3d063414	0.03276451
205	0x3cf1f9ec	0.029538117
206	0x3c167c12	0.009184854
207	0x3c2299be	0.00992435
208	0x3cd635ac	0.02614864
209	0xbabf28c0	-0.0014584288
210	0xbd44b02b	-0.04801957
211	0x3a093858	0.0005234531
212	0xbc2163b6	-0.009850433
213	0xbc75438a	-0.014969716
214	0x3a0d4680	0.00053892285
215	0x3d360e3a	0.04444716
216	0xbd692b0c	-0.05692582
217	0xbb340a34	-0.0027471902
218	0x3c9fd023	0.019508427
219	0x3cdc9d7d	0.026930565
220	0x3bc12125	0.0058938437
221	0xbd27c00b	-0.04095463
222	0x3d19c9fc	0.037546143
223	0xbd0b9c81	-0.0340848
224	0x3cac6db5	0.021048406
225	0x3d0e1e30	0.034696758
226	0xbd1034f8	-0.035206765
227	0xbd3eadae	-0.046552353
228	0x3cc86ddc	0.024466448
229	0x3d5162e8	0.051119715
230	0xbc726b97	-0.014796159
231	0x3c29df30	0.010368153
232	0xbc9dbfe0	-0.019256532
233	0x3d40c67c	0.04706429
234	0xbd672245	-0.056429166
235	0xbd5c30cb	-0.05375747
236	0x3c75dfd8	0.015006982
237	0x3d62c2f4	0.055361703
238	0xbd550a76	-0.05201193
239	0xbd6b02ae	-0.057375602
240	0xbd79a66c	-0.060949728
241	0xbce61950	-0.028088242
242	0xbd466767	-0.048438456
243	0x3d4b7a72	0.04967732
244	0xbced68f1	-0.028980704
245	0x3d07f71a	0.03319464
246	0x3cdc127a	0.026864279
247	0xbcdadc9a	-0.02671652
248	0x3c68dcd7	0.014212809
249	0xbd890e0b	-0.066921316
250	0x3cb5d177	0.022194607
251	0xbdb0dce0	-0.086358786
252	0xbda4636e	-0.08026777
253	0xbd1e237a	-0.03860805
254	0x3c0b2050	0.008491591
255	0xbd81ec23	-0.06343868

network.2.bias f4 [128]
0	0xbd691068	-0.05690041
1	0xbda5a662	-0.08088376
2	0xbc1b7e66	-0.009490585
3	0xbd2ed865	-0.04268684
4	0xbc74d89c	-0.014944222
5	0x3d2c64da	0.042088367
6	0xbd3857c0	-0.04500556
7	0xbd724a49	-0.059152875
8	0x3d892126	0.06695776
9	0x3e3eb92b	0.18625323
10	0xbd538358	-0.05163893
11	0xbdd500b1	-0.104005225
12	0xbd7670f1	-0.060166303
13	0xbd879a21	-0.06621195
14	0xbd4cb99f	-0.04998171
15	0xbcf06284	-0.02934385
16	0xbca5c61c	-0.020236067
17	0xbd937f54	-0.0720202
18	0xbc3e1f1b	-0.011604096
19	0x3d9c2857	0.07624882
20	0x3dbbbac6	0.091664836
21	0xbd839f82	-0.06426908
22	0x3d27d6c4	0.0409763
23	0xbdcba103	-0.0994282
24	0xbd472bc0	-0.048625708
25	0x3d59530c	0.053057715
26	0x3e59e777	0.21279703
27	0xbd5e034e	-0.05420237
28	0xbe033469	-0.12812962
29	0x3acda602	0.0015689733
30	0xbd3e646c	-0.04648249
31	0xbd3977a3	-0.04528011
32	0x3c9b8fa9	0.018989401
33	0xbd3ec066	-0.046570204
34	0x3ba5efd2	0.005063989
35	0xbd496271	-0.049166147
36	0xbd443a0f	-0.04790693
37	0xbd54333d	-0.051806677
38	0x3e0cbf32	0.1374481
39	0xbd381219	-0.044939134
40	0xb9176903	-0.00014439602
41	0xbdb343c6	-0.08753161
42	0xbd10a8c1	-0.035317186
43	0xbd073640	-0.03301072
44	0xbdac67f1	-0.08418263
45	0xbcf278bc	-0.029598586
46	0x3dd2e7ae	0.10298096
47	0x3d101804	0.035179153
48	0xbdc4cd93	-0.09609523
49	0xbd4c573d	-0.049887884
50	0xbba50204	-0.0050356407
51	0xbcaf9968	-0.021435454
52	0xbd45dafa	-0.048304535
53	0xbd1e426f	-0.038637575
54	0x3cd1c0f5	0.025604704
55	0x3b89bff9	0.004203793
56	0xbcfa8094	-0.030578889
57	0x3dd1bdf0	0.10241306
58	0x3d1a9748	0.03774193
59	0xbcb3c7b2	-0.021945808
60	0xbdbb2196	-0.091372654
61	0xbb680862	-0.0035405387
62	0xbd2d60bc	-0.04232858
63	0x3e05a673	0.13051777
64	0xbd9fabab	-0.07796415
65	0x3d581a5c	0.052759513
66	0xbd8a1f56	-0.06744258
67	0xbd344d49	-0.044019017
68	0x3cc80ac5	0.024419198
69	0x3cd4487e	0.025913473
70	0xbdc51d62	-0.09624745
71	0x3dc92d5f	0.09823107
72	0xbbc01c78	-0.0058627687
73	0xbc9de8f0	-0.019276112
74	0x3e1e3b99	0.15452422
75	0xbc406173	-0.011741984
76	0x3d10067f	0.035162445
77	0x3d48ff13	0.049071383
78	0xbdb2bc75	-0.087273516
79	0x3dbe46e6	0.092908666
80	0xbdc1e71f	-0.09467911
81	0x3d4ef44f	0.05052596
82	0x3e4586f1	0.19289757
83	0xbbf13b2c	-0.00736179
84	0xbcb43758	-0.021999046
85	0x3b6e8cad	0.0036399767
86	0x3d88a326	0.06671743
87	0xbd8fcaf6	-0.070211336
88	0xbd345904	-0.044030204
89	0x3c294e5e	0.010333626
90	0xbda713f3	-0.08158102
91	0xbb88f2f7	-0.0041793543
92	0x3d6ff843	0.05858637
93	0xbc0ccb12	-0.008593338
94	0xbd8e98f2	-0.06962766
95	0x3d318c60	0.043346763
96	0x3d7903c1	0.060794596
97	0x3d7c9959	0.06166968
98	0x3e3382f9	0.17530431
99	0xbdec4dd9	-0.11538286
100	0x3d2772af	0.040880855
101	0xbd4db789	-0.05022386
102	0x3d536e93	0.051619124
103	0xbca82e46	-0.020529877
104	0x3d9da568	0.07697564
105	0xbd416caa	-0.04722277
106	0xbd27bd9c	-0.04095231
107	0xbd9d9d9d	-0.07696078
108	0xbd36ad08	-0.04459861
109	0xbcbc4c46	-0.022985589
110	0xbd2e72e1	-0.042590026
111	0x3da2eb1c	0.07955
112	0xbd977803	-0.07395937
113	0xbca9029e	-0.02063113
114	0x3c48687b	0.012231941
115	0xbdbf5e11	-0.093441136
116	0x3e757bef	0.23973058
117	0xbd58a7ec	-0.052894518
118	0xbd258966	-0.040414236
119	0xbd34b2dc	-0.044115886
120	0x3d88dc97	0.06682699
121	0x3ca885b4	0.020571567
122	0xbd86665f	-0.065624945
123	0xbd8aa843	-0.067703746
124	0xbde637eb	-0.11241134
125	0xbd9eca76	-0.0775346
126	0x3d8095e2	0.06278588
127	0x3cd9cfbb	0.026588311

network.4.weight f4 [64, 128]
0	0x3c137230	0.008999392
1	0xbcff1c89	-0.031141536
2	0xbd770dd7	-0.060315933
3	0x3d1a22b1	0.03763074
4	0xbda0f057	-0.07858341
5	0xbd4c42ab	-0.049868267
6	0x3dada655	0.08478991
7	0x3ce0f4c8	0.02746047
8	0x3d8328e3	0.06404283
9	0xbcce0fac	-0.025153957
10	0x3d990cab	0.07473119
11	0x3d83153f	0.06400537
12	0xbd0be714	-0.03415592
13	0x3d7e1216	0.062028967
14	0x3d89d66f	0.06730353
15	0x3c6ffe36	0.014648011
16	0xbc1b0338	-0.009461217
17	0x3dae244b	0.08503016
18	0x3d729da2	0.05923236
19	0xbb975ab0	-0.004618965
20	0xbc49e344	-0.012322251
21	0xbd198d86	-0.037488483
22	0x3c8cf4e4	0.017206617
23	0x3d769372	0.06019921
24	0x3daf37b1	0.08555544
25	0xbdb1f90b	-0.08690079
26	0xbd9b8743	-0.075941585
27	0xbdb11784	-0.086470634
28	0xbba8d6e0	-0.005152568
29	0x3d965ac9	0.07341535
30	0x3d55630e	0.05209642
31	0x3da37b2e	0.07982479
32	0x3b37fb00	0.0028073192
33	0x3b1cec20	0.0023944452
34	0x3d5866ba	0.052832343
35	0x3d007eba	0.031370856
36	0xbda82a84	-0.08211234
37	0x3d26fdae	0.04076927
38	0xbda7ba59	-0.0818984
39	0x3d09dc8c	0.033657596
40	0xbd793181	-0.060838226
41	0xbd46f91d	-0.048577417
42	0xbd83af03	-0.06429865
43	0xbd66720e	-0.056261115
44	0xbd3afe9f	-0.04565298
45	0x3d51dbc2	0.051234968
46	0xbd6e5b48	-0.05819252
47	0xbd428ffb	-0.04750059
48	0xbd9b80c0	-0.075929165
49	0xbe054888	-0.1301595
50	0xbcac5698	-0.021037385
51	0xbc241a60	-0.010016054
52	0xbd519fba	-0.051177718
53	0x3d7b6fde	0.06138598
54	0xbd6d094e	-0.0578702
55	0xbd11d7ab	-0.035606068
56	0x3d3d339e	0.046191804
57	0xbd395672	-0.045248456
58	0xbdb74091	-0.08947862
59	0x3ca81a50	0.02052036
60	0xbcf5c016	-0.02999882
61	0x3d3e8206	0.04651072
62	0x3cbf3a14	0.023343123
63	0x3d400616	0.046880804
64	0xbd84b72e	-0.06480251
65	0x3cd23344	0.025659211
66	0x3ba67a10	0.005080469
67	0x3dafdd8f	0.08587181
68	0x3d3396c6	0.04384496
69	0x3ccfaa20	0.025349677
70	0xbd8e8568	-0.06959039
71	0xbd89d30a	-0.06729706
72	0xbdaeef47	-0.08541732
73	0xbce297bb	-0.027660241
74	0xbd2120a2	-0.03933776
75	0x3b10b1c0	0.0022078604
76	0xbca2b74d	-0.019862795
77	0xbcae0760	-0.021243751
78	0x3da41959	0.08012647
79	0xbd144b48	-0.036204606
80	0x3d78a02a	0.06069962
81	0x3db0b01f	0.086273424
82	0xbd38bc00	-0.045101166
83	0xbcf9328e	-0.030419614
84	0xbceb0778	-0.028690085
85	0x3c4cc3b0	0.012497827
86	0xbd0d7079	-0.03453109
87	0x3de66c80	0.112511635
88	0xbd031182	-0.03199912
89	0x3d8d02a3	0.068852685
90	0x3d595526	0.05305972
91	0x3c79b20d	0.0152402045
92	0xb9eff200	-0.00045765936
93	0xbbd9dcf0	-0.0066486523
94	0x3bff4b25	0.0077909403
95	0xbd8003a9	-0.06250698
96	0xbcf2e62c	-0.02965077
97	0x3d56d879	0.05245254
98	0x3c0be850	0.008539274
99	0x3c891788	0.016734853
100	0xbd96fe84	-0.07372764
101	0x3cd9b0fc	0.02657365
102	0x3b78da20	0.003797181
103	0xbda287ff	-0.079360954
104	0x3cf83284	0.030297525
105	0xbb411760	-0.0029463395
106	0x3d4c607e	0.04989671
107	0xbc5086b0	-0.0127274245
108	0xbda13dde	-0.07873128
109	0xbd95f962	-0.073229566
110	0x3d320bfa	0.043468453
111	0xb9b4d33d	-0.0003448966
112	0xbbe13ef0	-0.006873958
113	0x3cee6dc8	0.029105082
114	0xbd36ba7e	-0.044611447
115	0x3c62d458	0.013844572
116	0xbcc31d58	-0.023817703
117	0xba1de000	-0.00060224533
118	0x3d73b1a6	0.05949559
119	0x3cf48fac	0.029853664
120	0x3c0491b0	0.008091375
121	0xbda84cac	-0.08217749
122	0x3db1386d	0.086533405
123	0x3da6e983	0.081500076
124	0xbd35ffaf	-0.044433292
125	0x3da8cf77	0.08242696
126	0x395852f5	0.00020630269
127	0xbd39817a	-0.045289494
128	0x3d9fd021	0.07803369
129	0xbd9a3e65	-0.07531432
130	0x3bf7aaf5	0.0075582215
131	0x3c4d96c3	0.012548151
132	0xbc4a720f	-0.012356295
133	0x3d180ac5	0.037119646
134	0xbd94b114	-0.072603375
135	0xbca604a2	-0.020265881
136	0xbcfb8dc8	-0.030707255
137	0x3e2199a5	0.15781267
138	0xbe020708	-0.12697995
139	0xbd2e99db	-0.042627197
140	0xbd31be6e	-0.0433945
141	0x3d2c7020	0.04209912
142	0xbd61e2a6	-0.05514779
143	0x3c717af3	0.014738786
144	0xbd70b214	-0.05876358
145	0x3d3789b4	0.04480906
146	0x3cfeca34	0.031102277
147	0xbd869eb1	-0.06573237
148	0xbf7742ad	-0.96586114
149	0xbcdb2032	-0.02674875
150	0xbdf68a44	-0.12038091
151	0xbd7d3de4	-0.0618266
152	0x3b63fcd4	0.0034788148
153	0xbc003188	-0.007824309
154	0x3eeb66bc	0.45976818
155	0x3cb7519f	0.022377787
156	0x3caf7cbd	0.021421785
157	0xbd3aeebc	-0.04563783
158	0xbdd32a1e	-0.103107676
159	0x3c0d14a1	0.008610875
160	0xbd12ab3f	-0.035807844
161	0x3d1c9304	0.038226143
162	0xbcf47ef6	-0.029845696
163	0x3dd4fb2c	0.1039947
164	0xbd0a601d	-0.033783067
165	0xbd432a73	-0.047647905
166	0xbe065460	-0.13118124
167	0xbd42fecf	-0.047606286
168	0x3adce752	0.0016853607
169	0xbebab76d	-0.36468068
170	0x3d1e113b	0.03859065
171	0x3d19116f	0.03737014
172	0x3dc67d0e	0.09691821
173	0xbd058767	-0.032599833
174	0x3dd603b5	0.10449926
175	0xbdb257a7	-0.087081246
176	0x3e4d5b2d	0.20054312
177	0x3e25c838	0.16189659
178	0x3db49e03	0.08819201
179	0x3c642f63	0.0139273135
180	0xbd21b0db	-0.039475303
181	0xbda00616	-0.07813661
182	0x3e8af066	0.27136534
183	0xbd9b5817	-0.07585161
184	0x3d4f576d	0.050620485
185	0xbcad5ca7	-0.021162344
186	0xbc94b07d	-0.018150562
187	0x3cb32cfd	0.021872038
188	0xbd8b6280	-0.06805897
189	0x3c50aa15	0.012735863
190	0x3d9ac8e9	0.07557852
191	0x3def9e01	0.11700059
192	0xbc9ef48c	-0.019403718
193	0xbd5ed403	-0.05440141
194	0x3d2ef51f	0.042714234
195	0x3d6f029b	0.058352094
196	0x3d89da05	0.06731037
197	0xbd802829	-0.0625766
198	0xbd7038f4	-0.058648065
199	0xbc8a5c8d	-0.016889835
200	0x3a9a46b8	0.0011770343
201	0xbd158c1c	-0.03651057
202	0xbe215876	-0.15756401
203	0x3b0a802f	0.0021133532
204	0x3e870b5a	0.26375848
205	0x3dcf3669	0.101178
206	0x3c180c3a	0.009280259
207	0x3dfe2f66	0.12411384
208	0xbda75edd	-0.081723906
209	0xbd670036	-0.056396686
210	0x3e9bf86b	0.30462965
211	0xbcab5beb	-0.020917853
212	0x3d94ce3b	0.07265898
213	0x3bccb350	0.0062469617
214	0xbc6eefe6	-0.014583563
215	0xbc74bc5c	-0.0149374865
216	0x3c9a5394	0.018838681
217	0x3d2f3e61	0.0427841
218	0xbd05813e	-0.032593958
219	0x3dc2fa55	0.09520403
220	0xbd84d7ae	-0.0648645
221	0xbcf8fe6d	-0.030394757
222	0x3cf8c5d8	0.030367777
223	0xbd85d072	-0.065338984
224	0x3b912b04	0.0044301767
225	0x3e0314fc	0.12800974
226	0x3e009070	0.12555099
227	0x3d271bca	0.040797986
228	0x3df1def7	0.11810105
229	0x3d8d4d27	0.06899481
230	0xbd308ed5	-0.043104965
231	0x3c938971	0.018009873
232	0xbc9ece15	-0.019385377
233	0xbde31377	-0.11087697
234	0x3d04f690	0.032461703
235	0xbbb4d9a3	-0.0055191084
236	0x3d0e71df	0.034776565
237	0x3c846237	0.016160114
238	0x3d75682a	0.05991379
239	0x3e7ad7c1	0.24496366
240	0x3d1e5b5a	0.03866134
241	0x3d5b2a91	0.05350739
242	0x3e7f5b4d	0.24937172
243	0xbd02a5aa	-0.03189627
244	0x3edb1d6b	0.42795882
245	0xbda29e15	-0.07940308
246	0xbd1bc5c4	-0.0380304
247	0x3d48f488	0.04906133
248	0xbd54edb3	-0.0519845
249	0xbe2fd6e6	-0.17171821
250	0x3cc12c03	0.023580557
251	0x3c061bae	0.00818531
252	0xbd97a8b0	-0.074052215
253	0xbd9ab4ff	-0.075540535
254	0xbdab02b9	-0.08350129
255	0xbcc4af54	-0.024009384

network.4.bias f4 [64]
0	0xbd515dd1	-0.05111486
1	0x3e5dbf77	0.2165507
2	0xbd59ca5e	-0.053171508
3	0x3e3269c7	0.17423163
4	0xbd8b8999	-0.06813354
5	0x3b85ddbc	0.0040852707
6	0x3d8bf818	0.068344295
7	0x3d32f884	0.043694034
8	0xbe007b33	-0.12546997
9	0xbd51637d	-0.05112027
10	0xbdabc2f8	-0.08386797
11	0xbd831688	-0.06400782
12	0x3ea3ba95	0.31978288
13	0xbe212d7f	-0.15740012
14	0xbd8823cd	-0.066474535
15	0x3cf99cb6	0.030470233
16	0xbe093711	-0.13399912
17	0xbdebcbf5	-0.11513511
18	0xbd2478ae	-0.04015415
19	0x3dda8594	0.10670009
20	0x3d31910c	0.043351218
21	0xbe08d199	-0.13361205
22	0x3e06227b	0.13099091
23	0xbde975c8	-0.11399418
24	0x3e291c10	0.16514611
25	0xbe651908	-0.2237283
26	0xbdc9bb8e	-0.09850226
27	0x3eb98879	0.36236933
28	0x3d9ef017	0.07760637
29	0xbd314c16	-0.04328545
30	0xbdf26f22	-0.11837603
31	0xbd928d60	-0.071558714
32	0x3dbfb7b0	0.093612075
33	0x3e402cf0	0.18767142
34	0x3dab4167	0.08362084
35	0x3e13c7dd	0.1443171
36	0x3d48c3c2	0.049014814
37	0xbde506ee	-0.11182962
38	0xbd150421	-0.03638089
39	0xbd474443	-0.048649084
40	0xbda0bf17	-0.078489475
41	0xbdd87021	-0.10568262
42	0x3e55bd62	0.20873025
43	0xbe64ad8d	-0.2233183
44	0x3e24779e	0.16061255
45	0xbdfc7fd9	-0.123290725
46	0x3e287bf9	0.16453542
47	0x3e19e29b	0.1502785
48	0x3df141ba	0.117801145
49	0x3e4d7643	0.20064645
50	0x3cd0a029	0.025466995
51	0x3e04dad6	0.12974104
52	0x3d9ac9a4	0.07557991
53	0x3d9bae54	0.0760161
54	0x3e9e9ca9	0.30978897
55	0xbd22b8b4	-0.039726928
56	0x3e52ff52	0.2060521
57	0x3e3da21b	0.1851887
58	0xbd109a87	-0.03530362
59	0xbd68219b	-0.056672674
60	0x3d7bc94c	0.06147127
61	0x3e3d4923	0.1848493
62	0x3e46579c	0.19369358
63	0xbd665838	-0.056236476

network.6.weight f4 [2, 64]
0	0x3d4e06fc	0.05029963
1	0x3e5762c9	0.21033777
2	0xbe3309bf	-0.17484187
3	0x3ec74ce1	0.3892584
4	0xbcff6139	-0.031174289
5	0xbd081b27	-0.03322902
6	0x3df1a161	0.11798359
7	0x3eb0caa2	0.34529597
8	0x3dbe82dc	0.09302303
9	0xbd282101	-0.0410471
10	0x3d84dd00	0.06487465
11	0x3d41506f	0.047195848
12	0x3ed26d67	0.41099092
13	0xbca2bfb8	-0.01986681
14	0x3e5f734b	0.21821325
15	0xbd1523f9	-0.03641126
16	0xbdd462b8	-0.103703916
17	0x3d6d7488	0.05797246
18	0x3b1e41b3	0.0024148047
19	0x3df01e4d	0.117245294
20	0xbe0269a4	-0.12735611
21	0xbd3af2da	-0.045641758
22	0x3e0c8daf	0.13725923
23	0xbcf07059	-0.029350447
24	0x3e072ad2	0.13199928
25	0xbef4cbdd	-0.47811785
26	0x3cde2c19	0.027120637
27	0x3e792b1e	0.24332854
28	0x3ddffe27	0.109371476
29	0xbea624e9	-0.32450035
30	0xbeb8c3b8	-0.36086822
31	0x3e710e73	0.23540668
32	0x3dfe2f9b	0.12411424
33	0x3eba5f88	0.3640101
34	0x3ec1da84	0.37862027
35	0x3ee98b65	0.45614162
36	0x3d396e7e	0.04527139
37	0x3d877110	0.06613362
38	0xbcc675f6	-0.02422617
39	0xbc0779b0	-0.008268759
40	0xbdceb082	-0.1009226
41	0xbd50ebc7	-0.051006105
42	0x3eb6bae7	0.3568947
43	0xbe54af8c	-0.20770091
44	0x3ecb7a75	0.39741865
45	0xbd58bf88	-0.052917033
46	0x3deff3b6	0.11716406
47	0x3f0515e2	0.51986516
48	0x3e156f1b	0.14593165
49	0x3edcd6a1	0.431325
50	0xbcfcb291	-0.030846866
51	0x3e906fcd	0.28210297
52	0x3e4fa929	0.20279373
53	0xbd98e121	-0.07464815
54	0x3ec6218c	0.3869747
55	0xbce437f8	-0.02785872
56	0x3e650f42	0.22369102
57	0x3da3805a	0.079834655
58	0x3d3afd2c	0.0456516
59	0x3e412a08	0.1886369
60	0x3dc871be	0.097873196
61	0x3e04756e	0.12935421
62	0x3ea3c675	0.31987348
63	0xbd21afdc	-0.039474353
64	0xbbbfb30d	-0.005850202
65	0x3e737ca7	0.2377802
66	0xbc80fc03	-0.015745169
67	0x3e52ba93	0.20578985
68	0x39f0268e	0.00045805093
69	0xbccc6696	-0.02495126
70	0x3e562935	0.20914157
71	0x3e8b8b55	0.2725474
72	0xbd48a80a	-0.04898838
73	0xba1174ef	-0.00055487355
74	0xbd526664	-0.05136718
75	0x3d9207ec	0.07130417
76	0x3ecf2f80	0.40465927
77	0x3adf9db3	0.0017060548
78	0x3d976ab2	0.073933974
79	0x3e78298b	0.24234597
80	0x3b5441f2	0.003238794
81	0xbbd01caf	-0.0063510756
82	0xbd5ec704	-0.054389015
83	0x3dd7505a	0.10513373
84	0xbee46240	-0.4460621
85	0xbe066793	-0.13125448
86	0x3e7f378b	0.24923532
87	0xbcfd0b6e	-0.03088924
88	0x3e71cb5b	0.2361273
89	0x3c3b7391	0.011441127
90	0xbda2b8a5	-0.079453744
91	0x3f05a790	0.52208805
92	0x3e506a8a	0.20353141
93	0xbcd382db	-0.025819233
94	0xba91d098	-0.0011124788
95	0x3dec139b	0.11527177
96	0x3e230f75	0.15923865
97	0x3ea1dbe0	0.31613064
98	0x3eb3b0b9	0.35095766
99	0x3e213ccd	0.1574585
100	0x3e2b4cd8	0.16728532
101	0x3d204500	0.039128304
102	0xbc74c990	-0.014940634
103	0x3d2a2f4a	0.041549005
104	0xbd971925	-0.07377843
105	0xbd079bde	-0.03310763
106	0x3e6b1da1	0.22960521
107	0xbdc12a53	-0.09431901
108	0x3ecabde3	0.39597997
109	0x3caff69c	0.021479897
110	0x3e63ee52	0.2225888
111	0x3e0e0f0f	0.13872932
112	0x3e617626	0.22017726
113	0x3e6bd796	0.23031458
114	0x3e8489f5	0.25886503
115	0x3e3f9fcf	0.18713306
116	0x3e68d1bd	0.22736259
117	0xbe1993aa	-0.14997736
118	0x3ec582c1	0.3857632
119	0x3cc4c029	0.02401741
120	0x3ebb6d7f	0.36606976
121	0x3ea75166	0.3267929
122	0x3d30ddab	0.04318015
123	0x3dfdb806	0.12388615
124	0x3e6482f0	0.22315574
125	0x3edb3f31	0.4282165
126	0x3ec39be4	0.38204873
127	0xbbc9dc20	-0.006160274

network.6.bias f4 [2]
0	0x3ecc92ae	0.39955658
1	0x3eedddaa	0.4645818
