models/monopoly_ai_400.pth (torch, 379901 bytes, 8 tensors)

network.0.weight f4 [256, 205]
0.019836666 -0.14193551 0.0589275 0.04360807 -0.018633366 0.054433174 0.0002783537 0.04804982
-0.07670989 -0.024576483 0.054663733 -0.020300895 0.0112529695 -0.0060180575 -0.0068803504 0.052096747
-0.012344293 0.03189723 -0.010492665 0.090008505 0.012620397 0.015396617 0.02242484 -0.06119601
0.05000473 0.053530328 0.0038317814 -0.07140291 -0.013691687 -0.041052375 0.03220641 -0.024168935
0.034840576 0.013924293 -0.031602077 0.014654636 -0.039768837 0.04878804 0.001829274 -0.062548354
-0.033267967 0.027996466 -0.026067771 -0.037744418 -0.034483004 0.045001864 -0.02448307 -0.09753498
-0.020973606 -0.06849895 -0.03616416 0.027949043 -0.06665586 0.06763943 0.04436668 0.032250196
0.06932997 -0.038460907 -0.042244505 0.01238876 -0.06371143 0.03471612 -0.047249336 -0.055473372
0.028022023 0.03410621 -0.019806817 -0.08762499 -0.08596481 0.035740346 0.03114742 0.054703064
-0.0025491684 -0.07738536 0.029425528 -0.044475794 -0.024905037 -0.05910913 -0.004662384 0.037166502
0.043178402 -0.060054578 -0.053007487 -0.00037345733 -0.039669793 -0.03244474 0.03944108 0.0060317665
0.029626913 0.016826212 -0.011758115 0.034750633 -0.08008572 0.0077277757 -0.0843062 0.056490935
-0.048481554 -0.08051307 -0.10658409 -0.009043192 0.0615051 0.05498691 0.011465132 -0.068603404
-0.028189037 -0.05100897 -0.01755261 -0.03218439 -0.0658658 -0.0922462 0.061411314 -0.05901927
0.06803434 -0.023361124 -0.039869927 -0.02310453 0.0055440143 0.08513009 -0.0069057248 -0.04880725
0.05133383 -0.034949474 -0.021837387 -0.08193424 0.043203175 -0.03381624 -0.01590085 -0.061735615
0.046435636 -0.045380004 0.04706718 0.044875093 -0.049111035 -0.01885408 -0.052872792 0.032213286
-0.064989634 -0.048535813 0.0071957903 -0.022190206 0.02093716 -0.054332443 0.033669207 -0.013557457
-0.07063237 0.03707651 -0.010562353 -0.109838784 -0.0223622 -0.037371427 -0.018217903 0.03319852
-0.065767996 0.06481197 0.0384024 0.06822529 -0.004602194 0.02711307 -0.044629276 0.022831447
-0.034267265 0.024400234 -0.0086553935 -0.04029831 -0.0109460745 0.0235091 0.03322138 -0.04884298
-0.027079273 -0.012054142 0.0436489 -0.036535606 -0.00859696 -0.042618677 0.051556278 0.038843505
-0.00048542023 0.05219671 -0.03766082 -0.037531532 0.005595818 0.013044879 -0.010740861 -0.041066915
-0.063344 0.017133467 0.03958842 -0.08005335 -0.017780501 -0.06092487 0.051884465 -0.027415484
-0.027730037 0.020541988 -0.06611715 -0.068006806 -0.0679558 0.026264522 0.0014521404 0.060425464
-0.008623041 0.017933033 -0.058506276 -0.05984187 -0.017840236 -0.14592908 -0.39528453 0.051286213
-0.055094898 0.014346205 0.02622383 0.046224587 0.21807697 -0.19050124 0.016006228 0.021071501
-0.009200353 0.05163864 -0.04940858 -0.011848569 0.016425177 -0.028612554 -0.07662771 -0.02501853
-0.039237686 0.00985688 -0.06914105 0.049820982 -0.06921691 -0.023412488 0.024419181 0.016420655
0.037362985 -0.2230827 0.08752727 0.06580714 -0.06532329 0.03609402 -0.2693193 0.007347347
0.064218484 0.015125804 0.06136147 -0.045798324 0.0596674 -0.009448059 0.063643135 -0.12306291
0.17809264 -0.29085958 -0.0067222193 -0.0063861534 -0.057519373 0.0960741 -0.2461935 0.033106364
00000000: 8180 a23c 8b57 11be f65d 713d 609e 323d
00000010: 00a5 98bc 52f5 5e3d 00f0 9139 e3cf 443d
00000020: 131a 9dbd 9f54 c9bc 14e7 5f3d 104e a6bc
00000030: 605e 383c 2033 c5bb 9074 e1bb 6663 553d
00000040: b83f 4abc aba6 023d 6de9 2bbc 6156 b83d
00000050: c8c5 4e3c 1842 7c3c 4cb4 b73c aba8 7abd
00000060: c2d1 4c3d 9e42 5b3d a01e 7b3b b03b 92bd
00000070: 1953 60bc 8926 28bd deea 033d eefd c5bc
00000080: feb4 0e3d b822 643c 2e71 01bd 001a 703c
00000090: a6e4 22bd f8d5 473d 40c4 ef3a 5a19 80bd
000000a0: fe43 08bd d858 e53c 148c d5bc e499 1abd
000000b0: 0d3e 0dbd e053 383d b890 c8bc 6bc0 c7bd
000000c0: d7d0 abbc 2d49 8cbd df20 14bd 64f5 e43c
000000d0: de82 88bd 8b86 8a3d d6b9 353d c818 043d
000000e0: dffc 8d3d 2f89 1dbd 9308 2dbd 3afa 4a3c
000000f0: 237b 82bd 7e32 0e3d 8588 41bd 0c38 63bd
00000100: 718e e53c f4b2 0b3d e841 a2bc bb74 b3bd
00000110: 510e b0bd 7864 123d e028 ff3c 5210 603d
00000120: f30f 27bb 377c 9ebd ce0d f13c 402c 36bd
00000130: a605 ccbc 6a1c 72bd e9c6 98bb e73b 183d
00000140: d6db 303d cafb 75bd 611e 59bd 98cc c3b9
00000150: cb7c 22bd c7e4 04bd f88c 213d 20a6 c53b
00000160: 24b4 f23c 20d7 893c 1ca5 40bc ae56 0e3d
00000170: fb03 a4bd 4839 fd3b bba8 acbd 0a63 673d
00000180: 9894 46bd 09e4 a4bd c248 dabd e529 14bc
00000190: c6ec 7b3d f439 613d 40d8 3b3c f17f 8cbd
000001a0: b2ec e6bc c8ee 50bd 7eca 8fbc c7d3 03bd
000001b0: a6e4 86bd 93eb bcbd 6e8a 7b3d 31be 71bd
000001c0: 9755 8b3d d45f bfbc a64e 23bd b645 bdbc
000001d0: 90aa b53b af58 ae3d 6b49 e2bb 1cea 47bd
000001e0: 6c43 523d 2e27 0fbd 52e4 b2bc 24cd a7bd
000001f0: d0f5 303d e682 0abd 8042 82bc 7cde 7cbd
00000200: 4b33 3e3d 62e0 39bd 84c9 403d f2ce 373d
00000210: a728 49bd df73 9abc 2491 58bd 14f2 033d
00000220: 4919 85bd 7dcd 46bd aaca eb3b 3cc8 b5bc
00000230: 6884 ab3c b28b 5ebd b9e8 093d 1920 5ebc
00000240: b4a7 90bd 8add 173d b80d 2dbc 28f3 e0bd
00000250: ef30 b7bc c812 19bd b63d 95bc 2cfb 073d
00000260: 5fb1 86bd 23bc 843d d64b 1d3d b3b9 8b3d
00000270: 00ce 96bb 3b1c de3c 30cd 36bd 0409 bb3c
00000280: d55b 0cbd 00e3 c73c 5acf 0dbc d70f 25bd
00000290: 2a57 33bc 2896 c03c 2413 083d 940f 48bd
000002a0: 5ad5 ddbc bc7e 45bc 30c9 323d 5ca6 15bd
000002b0: 44da 0cbc ec90 2ebd ad2c 533d 5e1a 1f3d
000002c0: 0080 feb9 38cc 553d 3b42 1abd aaba 19bd
000002d0: 205d b73b 30ba 553c 70fa 2fbc c835 28bd
000002e0: 80ba 81bd 7c5b 8c3c 7827 223d 03f3 a3bd
000002f0: 6aa8 91bc 5b8c 79bd ce84 543d 7096 e0bc
00000300: 1a2a e3bc ac47 a83c 6e68 87bd 2747 8bbd
00000310: 692c 8bbd b228 d73c bf55 be3a b180 773d
00000320: a847 0dbc 4ce8 923c 47a4 6fbd c01c 75bd
00000330: b025 92bc 6f6e 15be bc62 cabe 7e11 523d
00000340: 30ab 61bd 580c 6b3c 5cd3 d63c fe55 3d3d
00000350: 924f 5f3e c212 43be 7e1f 833c 249e ac3c
00000360: 14bd 16bc 0a83 533d a760 4abd 8020 42bc
00000370: 188e 863c e064 eabc fdee 9cbd a9f3 ccbc
00000380: b2b7 20bd c07e 213c d399 8dbd 1611 4c3d
00000390: 98c1 8dbd 8ccb bfbc bc0a c83c 9c84 863c
000003a0: ee09 193d cb6f 64be 7f41 b33d e5c5 863d
000003b0: 38c8 85bd 53d7 133d 38e4 89be 04c2 f03b
000003c0: fb84 833d 38d2 773c 2a56 7b3d 0697 3bbd
000003d0: ce65 743d 08cc 1abc 5557 823d 6808 fcbd
000003e0: eb5d 363e 8ceb 94be 1046 dcbb f042 d1bb
000003f0: 6f99 6bbd 7fc2 c43d 261a 7cbe 8a9a 073d

network.0.bias f4 [256]
-0.035436116 -0.046748303 -0.025838844 0.05531825 -0.036810163 -0.090462804 0.024391567 -0.05519932
-0.03421484 -0.010824284 -0.0085362615 -0.028920833 -0.00563936 -0.07284565 -0.13033944 0.03106654
0.022221355 -0.10490852 -0.002595286 0.010894604 -0.08360491 0.04084526 0.12856215 0.023173174
-0.029187176 0.0077236355 -0.079651825 -0.003935762 -0.01649168 -0.027166419 -0.041609358 -0.076705486
-0.06727343 -0.008196988 0.08677711 0.025830438 0.061551347 -0.03941001 -0.014070804 -0.053077884
-0.07990573 0.00036136992 -0.08475917 0.13547257 0.01627915 -0.08353828 0.00707951 -0.00092208816
0.05473754 -0.09656899 0.113321126 0.03280003 -0.03755986 0.017663017 -0.047483508 0.04212793
-0.07346593 0.089332454 0.057143554 -0.049194746 -0.091088355 0.033599246 0.029618787 0.010028102
-0.08002959 -0.054163605 0.022845648 0.040268425 0.036766842 -0.05007661 -0.01642156 -0.15435423
-0.04359939 0.05311305 0.15799822 -0.037629984 0.037502643 0.07165363 -0.06913211 -0.08463394
-0.118648246 -0.049875937 0.12629746 -0.03317746 -0.025339058 -0.03765109 0.11503901 0.0039527942
0.011948916 -0.10749772 -0.08911045 -0.05759495 -0.005344464 -0.06297052 0.14479256 -0.0072924504
-0.011268346 -0.06835013 -0.024689041 0.0019858892 0.08009978 -0.09170679 -0.04011836 -0.044656888
-0.04290223 -0.0031924888 0.022012046 0.03363734 0.034997817 -0.0020427287 -0.005437673 -0.0509085
-0.0474535 -0.06655891 -0.024237063 -0.024054723 -0.034194656 0.036449302 -0.002851885 -0.08651061
0.007764386 -0.07982388 0.005404463 0.01367996 -0.04704609 -0.08994278 -0.025793776 0.06326121
0.0063877627 -0.02746801 0.040455624 -0.01266932 0.0033815457 -0.021575235 -0.086905174 -0.02761046
0.0076822983 0.011691247 0.03947748 -0.06574356 -0.0005497678 -0.13054577 0.03444082 -0.11229373
-0.041154146 -0.054884512 -0.046254557 0.029853141 0.021959167 -0.08154161 -0.07828892 -0.08149676
-0.11446009 -0.06937023 -0.068276994 0.03496916 -0.056316815 -0.054720845 -0.008434042 -0.012287753
-0.1096362 0.12949057 -0.03699154 -0.13057356 0.051004708 0.0016627058 -0.056188397 0.1364416
-0.0055883797 0.014038546 -0.013312431 0.15134352 0.023641014 -0.011594998 0.033716556 -0.05952142
-0.10839677 -0.026576031 0.06345431 -0.012992811 -0.031425685 -0.006594718 0.016899053 -0.031298768
-0.054649014 -0.0068314564 -0.11313444 0.09296668 0.099190414 -0.09558602 -0.040982824 -0.012295915
-0.05180836 0.003078633 -0.0019151901 -0.020346802 -0.017180694 -0.06849126 -0.046420954 -0.06334637
-0.0855122 -0.0065248497 0.041749645 -0.067765065 -0.047816854 -0.008805403 0.15519345 -0.01814951
-0.093629465 -0.088624895 -0.08788319 0.025570562 -0.06845635 -0.00021109462 0.0014867866 0.029059144
-0.0457768 0.15036023 0.013791217 -0.12372649 0.008315691 -0.010570239 -0.022625288 0.016583763
-0.042550344 -0.07184611 0.09809751 -0.054441936 -0.0497997 -0.051088676 -0.06101868 -0.071317084
0.07842472 -0.06949909 -0.02590542 -0.0864137 0.11022074 0.0033759414 0.09659596 -0.019795394
-0.063851275 -0.054370783 0.019906655 -0.11734198 0.0337366 -0.07247841 -0.10833653 -0.056522254
0.0024144272 -0.060678095 -0.045954518 -0.020490352 0.024149409 -0.04133779 -0.008617156 -0.08351353
00000000: 7625 11bd 267b 3fbd fcab d3bc 6495 623d
00000010: 41c6 16bd 9044 b9bd d3d0 c73c af18 62bd
00000020: dc24 0cbd 5658 31bc addb 0bbc 62eb ecbc
00000030: 61ca b8bb 1a30 95bd b477 05be 427f fe3c
00000040: 8f09 b63c 47da d6bd ac15 2abb 487f 323c
00000050: 0d39 abbd 5c4d 273d cca5 033e abd5 bd3c
00000060: f219 efbc 8d16 fd3b 7f20 a3bd 91f7 80bb
00000070: 8f19 87bc 1c8c debc 936e 2abd c417 9dbd
00000080: a7c6 89bd a94c 06bc 33b8 b13d 5b9a d33c
00000090: 441d 7c3d 646c 21bd 3b89 66bc 3268 59bd
000000a0: 9ea5 a3bd 4076 bd39 3796 adbd 52b9 0a3e
000000b0: da5b 853c 1e16 abbd 3cfb e73b 4ab8 71ba
000000c0: 7934 603d f6c5 c5bd e814 e83d 5359 063d
000000d0: 5ed8 19bd 08b2 903c 117e 42bd 568e 2c3d
000000e0: 4e75 96bd eff3 b63d 5c0f 6a3d 6e80 49bd
000000f0: 888c babd 5d9f 093d 19a3 f23c e94c 243c
00000100: 8ee6 a3bd a8da 5dbd cc26 bb3c 81f0 243d
00000110: d498 163d 221d 4dbd 8286 86bc 090f 1ebe
00000120: 4695 32bd 128d 593d 49ca 213e e621 1abd
00000130: 5f9c 193d 23bf 923d 2395 8dbd 8f54 adbd
00000140: dafd f2bd b64a 4cbd 1f54 013e 17e5 07bd
00000150: db93 cfbc 0838 1abd 9399 eb3d 7186 813b
00000160: 63c5 433c c427 dcbd 8a7f b6bd afe8 6bbd
00000170: 9d20 afbb b0f6 80bd 8044 143e 82f5 eebb
00000180: de9e 38bc 27fb 8bbd ac40 cabc b125 023b
00000190: 5a0b a43d c5d0 bbbd 2653 24bd 24ea 36bd
000001a0: 40ba 2fbd 1339 51bb 9b52 b43c 4fc7 093d
000001b0: df59 0f3d 4ddf 05bb 822e b2bb 6e85 50bd
000001c0: 9a5e 42bd 0a50 88bd ce8c c6bc 690e c5bc
000001d0: b20f 0cbd dd4b 153d b1e6 3abb 7a2c b1bd
000001e0: 646c fe3b b47a a3bd ec17 b13b e921 603c
000001f0: 67b3 40bd ec33 b8bd 784d d3bc 188f 813d
00000200: 7050 d13b 9804 e1bc ccb4 253d fb92 4fbc
00000210: ec9c 5d3b 8cbe b0bc 57fb b1bd 552f e2bc
00000220: cabb fb3b a58c 3f3c 23b3 213d 8fa4 86bd
00000230: 4b1e 10ba caad 05be d111 0d3d 41fa e5bd
00000240: 4091 28bd 95ce 60bd 6b75 3dbd 938e f43c
00000250: b6e3 b33c 4aff a6bd f155 a0bd c6e7 a6bd
00000260: 0d6a eabd fb11 8ebd cfd4 8bbd d23b 0f3d
00000270: 76ac 66bd f722 60bd f02e 0abc 9252 49bc
00000280: f288 e0bd 2d99 043e 7184 17bd 13b5 05be
00000290: 50ea 503d 26ef d93a ce25 66bd 59b7 0b3e
000002a0: ba1e b7bb ee01 663c 621c 5abc ccf9 1a3e
000002b0: cdaa c13c f2f8 3dbc 5f1a 0a3d bccc 73bd
000002c0: 20ff ddbd fab5 d9bc 55f4 813d cddf 54bc
000002d0: 38b8 00bd 8118 d8bb e26f 8a3c 2333 00bd
000002e0: a5d7 5fbd 69da dfbb 07b3 e7bd 5165 be3d
000002f0: 5824 cb3d 9ac2 c3bd 9bdd 27bd ce74 49bc
00000300: 0135 54bd e4c2 493b 1e07 fbba 56ae a6bc
00000310: 87be 8cbc 2545 8cbd e623 3ebd bebb 81bd
00000320: 0521 afbd 68ce d5bb ad01 2b3d 69c8 8abd
00000330: 9bdb 43bd 8944 10bc 08eb 1e3e 48ae 94bc
00000340: cec0 bfbd f880 b5bd 1afc b3bd 5b79 d13c
00000350: d832 8cbd 4859 5db9 48e0 c23a 710d ee3c
00000360: 7480 3bbd 08f8 193e 8ef4 613c 5064 fdbd
00000370: 893e 083c cc2e 2dbc ab58 b9bc acda 873c
00000380: 4549 2ebd 0e24 93bd 59e7 c83d 82fe 5ebd
00000390: c5fa 4bbd 5c42 51bd b9ee 79bd b10e 92bd
000003a0: 249d a03d 8a55 8ebd 9a37 d4bc aaf9 b0bd
000003b0: 69bb e13d e63e 5d3b 1ad4 c53d f329 a2bc
000003c0: 75c4 82bd e6b3 5ebd 4813 a33c fe50 f0bd
000003d0: 642f 0a3d 906f 94bd 8bdf ddbd e183 67bd
000003e0: 5e3b 1e3b 9889 78bd ce3a 3cbd 62db a7bc
000003f0: fbd4 c53c d151 29bd f92e 0dbc 2409 abbd

network.2.weight f4 [128, 256]
0.062113285 -0.053320266 -0.018044507 0.010381088 0.024066633 0.048799023 -0.09101991 -0.023408167
-0.012789816 -0.077150434 -0.06944614 0.0017297042 0.01651246 0.040382512 0.008789413 0.03574387
-0.011206312 0.009491334 -0.015201718 -0.05854992 -0.047230467 -0.046320766 -0.07072164 -0.014745002
-0.046946242 0.046236806 0.03980761 0.017015813 -0.048161183 -0.067885816 0.01719153 0.026976228
0.013344049 -0.033172444 -0.022824116 -0.018674962 -0.043135412 -0.02687212 -9.7990036e-05 0.052983277
-0.003703301 0.041932136 0.023469716 -0.060788415 0.021097587 -0.0422147 0.045133375 0.001632953
0.00606972 -0.0073224497 0.00047364834 -0.0134774 -0.06161934 0.0023631202 0.004550867 -0.026936824
-0.0658936 0.023784034 0.026920725 0.03321194 -0.05165866 -0.008575235 0.0023443312 -0.03708499
0.020021684 0.056360416 0.05048636 -0.0592594 0.017491689 -0.06510142 -0.05155085 -0.046738937
0.01066184 0.019260725 -0.010662995 0.019686066 -0.042310707 0.01816532 -0.010082342 -0.0017640442
-0.060972333 -0.008143483 0.0077699744 0.051579777 -0.040567964 -0.0381067 0.015674567 -0.042480722
0.029708093 -0.009684557 -0.05030646 -0.0013314718 -0.06098757 -0.08067978 -0.0037193429 0.0341272
-0.019439735 0.019949581 -0.008183315 0.03281424 -0.08360152 0.010045841 -0.053702157 -0.049985114
0.01658786 -0.068055384 0.013935871 -0.025216267 0.027060062 -0.0578736 0.01257399 -0.02878869
0.04504724 -0.08417653 -0.03432767 0.018930964 -0.025895277 -0.0027875318 0.0046810894 -0.011639826
-0.0009736195 -0.05989247 -0.03825625 0.016985744 -0.053842943 0.032689713 0.016106544 -0.0995602
-0.04933621 0.014802888 0.030425891 0.043828104 -0.00018541515 0.002096124 0.01715555 -0.010635013
-0.09941871 0.009804554 -0.061648276 0.018727383 0.028816145 0.056642845 0.060387753 0.013813153
0.0516603 0.0018382147 -0.0002660783 -0.03346596 0.0030054003 0.023211751 0.0010898903 0.019743443
0.014111291 -0.006608941 0.027088538 0.01729153 0.03637692 -0.003862619 0.04538826 0.038618274
-0.0652329 -0.086170174 -0.06346149 0.013304546 0.05020642 -0.041414563 0.0026538372 0.040536113
0.0023392735 -0.08329001 0.0032991688 0.015616692 -0.019951865 -0.024890596 -0.05674643 -0.05734393
-0.01524244 0.0015464419 -0.014901589 0.03423014 -0.010813339 -0.057651646 -0.0016678863 -0.021120787
-0.028428959 -0.08176945 0.050273176 -0.059531704 -0.030262474 -0.06389969 0.032259043 -0.040191457
0.038553685 0.05218693 0.05650971 0.016201328 0.005774208 -0.04523406 0.0133157885 -0.032180224
0.009643227 -0.036798075 -0.08774632 0.04809329 0.03276451 0.029538117 0.009184854 0.00992435
0.02614864 -0.0014584288 -0.04801957 0.0005234531 -0.009850433 -0.014969716 0.00053892285 0.04444716
-0.05692582 -0.0027471902 0.019508427 0.026930565 0.0058938437 -0.04095463 0.037546143 -0.0340848
0.021048406 0.034696758 -0.035206765 -0.046552353 0.024466448 0.051119715 -0.014796159 0.010368153
-0.019256532 0.04706429 -0.056429166 -0.05375747 0.015006982 0.055361703 -0.05201193 -0.057375602
-0.060949728 -0.028088242 -0.048438456 0.04967732 -0.028980704 0.03319464 0.026864279 -0.02671652
0.014212809 -0.066921316 0.022194607 -0.086358786 -0.08026777 -0.03860805 0.008491591 -0.06343868
00000000: 806a 7e3d 5a66 5abd 13d2 93bc 7015 2a3c
00000010: 6327 c53c 7ce1 473d a668 babd 7cc2 bfbc
00000020: 608c 51bc 0c01 9ebd c739 8ebd 3eb7 e23a
00000030: 2345 873c 2268 253d 7801 103c 2a68 123d
00000040: ae9a 37bc 8a81 1b3c a010 79bc 0ad2 6fbd
00000050: bc74 41bd d8ba 3dbd 82d6 90bd 0595 71bc
00000060: b44a 40bd ce62 3d3d 4e0d 233d bf64 8b3c
00000070: a944 45bd b807 8bbd 40d5 8c3c 40fd dc3c
00000080: 00a1 5a3c d4df 07bd a4f9 babc 3cfc 98bc
00000090: c2ae 30bd ec22 dcbc 0080 cdb8 fe04 593d
000000a0: 15b3 72bb 08c1 2b3d 9043 c03c 46fd 78bd
000000b0: d9d4 ac3c 52e9 2cbd c6dd 383d cf08 d63a
000000c0: 80e4 c63b 29f1 efbb 0154 f839 50d0 5cbc
000000d0: 9064 7cbd 94de 1a3b 701f 953b 9daa dcbc
000000e0: 39f3 86bd bcd6 c23c da88 dc3c 3e09 083d
000000f0: 0898 53bd 247f 0cbc 5aa3 193b 6ee6 17bd
00000100: 8404 a43c 2eda 663d c9ca 4e3d fcb9 72bd
00000110: bb4a 8f3c e553 85bd fc26 53bd 5471 3fbd
00000120: 00af 2e3c abc8 9d3c d8b3 2ebc ac44 a13c
00000130: fe4d 2dbd 70cf 943c 6830 25bc 8037 e7ba
00000140: 20be 79bd 3e6c 05bc 459b fe3b 5145 533d
00000150: 982a 26bd c515 1cbd f367 803c 4400 2ebd
00000160: 635e f33c faab 1ebc 260e 4ebd c884 aeba
00000170: 1ace 79bd 713b a5bd 38c0 73bb f6c8 0b3d
00000180: 1440 9fbc 4e6d a33c 5013 06bc 3968 063d
00000190: 4637 abbd 5097 243c cbf6 5bbd 31bd 4cbd
000001a0: 44e3 873c 9f60 8bbd 4853 643c 5892 cebc
000001b0: 10ad dd3c de0c 6dbd 2303 4e3c 42d6 ebbc
000001c0: 7483 383d bf64 acbd 2c9b 0cbd 1c15 9b3c
000001d0: 5522 d4bc 06af 36bb d363 993b f8b4 3ebc
000001e0: 803a 7fba ce51 75bd 96b2 1cbd b025 8b3c
000001f0: 6b8a 5cbd a6e5 053d dff1 833c 38e6 cbbd
00000200: c414 4abd d087 723c b83f f93c 1985 333d
00000210: 006c 42b9 205f 093b cc89 8c3c 7a3e 2ebc
00000220: 099c cbbd 48a3 203c e782 7cbd 2b6a 993c
00000230: d60f ec3c 5402 683d 2659 773d 9050 623c
00000240: c099 533d 40f0 f03a 6d80 8bb9 9a13 09bd
00000250: 40f6 443b 9226 be3c a6da 8e3a 00bd a13c
00000260: 0b33 673c d18f d8bb c8e8 dd3c f7a6 8d3c
00000270: f7ff 143d fe23 7dbb 0ae9 393d 322e 1e3d
00000280: d498 85bd fd79 b0bd 19f8 81bd 4ffb 593c
00000290: 3fa5 4d3d 51a2 29bd 00ec 2d3b 3209 263d
000002a0: 7f4e 193b f493 aabd de36 583b 27dd 7f3c
000002b0: 1872 a3bc 5de7 cbbc f26e 68bd 78e1 6abd
000002c0: 6dbb 79bc fbb1 ca3a cb25 74bc e734 0c3d
000002d0: 6e2a 31bc 2224 6cbd fa9c daba 8005 adbc
000002e0: d9e3 e8bc be76 a7bd 3feb 4d3d 84d7 73bd
000002f0: 02e9 f7bc d7dd 82bd 0f22 043d cc9f 24bd
00000300: 78ea 1d3d f6c1 553d ba76 673d a6b8 843c
00000310: 9135 bd3b 5a47 39bd 772a 5a3c 69cf 03bd
00000320: a0fe 1d3c 94b9 16bd 58b4 b3bd 78fd 443d
00000330: 1434 063d ecf9 f13c 127c 163c be99 223c
00000340: ac35 d63c c028 bfba 2bb0 44bd 5838 093a
00000350: b663 21bc 8a43 75bc 8046 0d3a 3a0e 363d
00000360: 0c2b 69bd 340a 34bb 23d0 9f3c 7d9d dc3c
00000370: 2521 c13b 0bc0 27bd fcc9 193d 819c 0bbd
00000380: b56d ac3c 301e 0e3d f834 10bd aead 3ebd
00000390: dc6d c83c e862 513d 976b 72bc 30df 293c
000003a0: e0bf 9dbc 7cc6 403d 4522 67bd cb30 5cbd
000003b0: d8df 753c f4c2 623d 760a 55bd ae02 6bbd
000003c0: 6ca6 79bd 5019 e6bc 6767 46bd 727a 4b3d
000003d0: f168 edbc 1af7 073d 7a12 dc3c 9adc dabc
000003e0: d7dc 683c 0b0e 89bd 77d1 b53c e0dc b0bd
000003f0: 6e63 a4bd 7a23 1ebd 5020 0b3c 23ec 81bd

network.2.bias f4 [128]
-0.05690041 -0.08088376 -0.009490585 -0.04268684 -0.014944222 0.039572716 -0.04500556 -0.059152875
0.10378318 0.13229415 -0.05163893 -0.104005225 -0.060166303 -0.06621195 -0.081747435 -0.02934385
-0.020236067 -0.09785626 -0.011604096 0.07005032 0.085143745 -0.06426908 0.04095532 -0.0994282
-0.048625708 0.053040136 0.19573939 -0.05420237 -0.12812962 0.0015689733 -0.04648249 -0.04528011
0.018989401 -0.046570204 0.0050417357 -0.049166147 -0.04790693 -0.051806677 0.12856814 -0.044939134
-0.00014439602 -0.13563095 -0.035317186 -0.09322748 -0.08418263 -0.029598586 0.03375994 0.035179153
-0.11640744 -0.17455399 -0.0050356407 -0.021435454 -0.06026133 -0.038637575 -0.0393111 0.004203793
-0.03192265 0.10239443 -0.04781038 -0.021945808 -0.10551156 -0.0035405387 -0.04232858 0.024220262
-0.07796415 0.020993708 -0.06744258 -0.044019017 0.024419198 0.029296132 -0.09624745 0.09821238
-0.0058627687 -0.019304363 0.08601518 -0.011741984 -0.03519765 -0.017463611 -0.087273516 0.041365314
-0.09467911 0.0505062 0.1514888 -0.00736179 -0.021999046 -0.04407403 -0.05833154 -0.070211336
-0.044030204 0.010333626 -0.08158102 -0.04398079 0.0563945 -0.008593338 -0.06962766 0.04029074
0.05515959 0.051751733 0.13609953 -0.11538286 0.031989414 -0.05022386 0.051619124 -0.022343483
0.0011301622 -0.04722277 -0.04095231 -0.07696078 -0.04459861 -0.022985589 -0.042590026 0.031731606
-0.07395937 -0.02063113 -0.07146316 -0.093441136 0.2264872 -0.052894518 -0.072180025 -0.044115886
0.06681316 0.02055048 -0.065624945 -0.067703746 -0.11241134 -0.0775346 0.053346384 0.02285605
00000000: 6810 69bd 62a6 a5bd 667e 1bbc 65d8 2ebd
00000010: 9cd8 74bc 0017 223d c057 38bd 494a 72bd
00000020: 478c d43d 1e78 073e 5883 53bd b100 d5bd
00000030: f170 76bd 219a 87bd 336b a7bd 8462 f0bc
00000040: 1cc6 a5bc dd68 c8bd 1b1f 3ebc 8b76 8f3d
00000050: d85f ae3d 829f 83bd c4c0 273d 03a1 cbbd
00000060: c02b 47bd 9d40 593d e86f 483e 4e03 5ebd
00000070: 6934 03be 02a6 cd3a 6c64 3ebd a377 39bd
00000080: a98f 9b3c 66c0 3ebd 2535 a53b 7162 49bd
00000090: 0f3a 44bd 3d33 54bd 5ea7 033e 1912 38bd
000000a0: 0369 17b9 d7e2 0abe c1a8 10bd 0dee bebd
000000b0: f167 acbd bc78 f2bc dd47 0a3d 0418 103d
000000c0: 0667 eebd 48be 32be 0402 a5bb 6899 afbc
000000d0: 96d4 76bd 6f42 1ebd ad04 21bd f9bf 893b
000000e0: 53c1 02bd 2cb4 d13d d1d4 43bd b2c7 b3bc
000000f0: 7216 d8bd 6208 68bb bc60 2dbd 9269 c63c
00000100: abab 9fbd fffa ab3c 561f 8abd 494d 34bd
00000110: c50a c83c 71fe ef3c 621d c5bd 9323 c93d
00000120: 781c c0bb 2f24 9ebc ba28 b03d 7361 40bc
00000130: 692b 10bd d90f 8fbc 75bc b2bd ad6e 293d
00000140: 1fe7 c1bd 97df 4e3d e11f 1b3e 2c3b f1bb
00000150: 5837 b4bc f886 34bd 0eed 6ebd f6ca 8fbd
00000160: 0459 34bd 5e4e 293c f313 a7bd 3325 34bd
00000170: ebfd 663d 12cb 0cbc f298 8ebd e707 253d
00000180: 06ef 613d a0f9 533d ad5d 0b3e d94d ecbd
00000190: 5507 033d 89b7 4dbd 936e 533d ae09 b7bc
000001a0: f321 943a aa6c 41bd 9cbd 27bd 9d9d 9dbd
000001b0: 08ad 36bd 464c bcbc e172 2ebd 00f9 013d
000001c0: 0378 97bd 9e02 a9bc 475b 92bd 115e bfbd
000001d0: 43ec 673e eca7 58bd 1fd3 93bd dcb2 34bd
000001e0: 57d5 883d 7b59 a83c 5f66 86bd 43a8 8abd
000001f0: eb37 e6bd 76ca 9ebd bd81 5a3d 9c3c bb3c

network.4.weight f4 [64, 128]
0.008999392 -0.031141536 -0.060315933 0.03763074 -0.07858341 -0.049868267 0.08478991 0.02746047
0.032277353 -0.025153957 0.07473119 0.06400537 -0.03415592 0.062028967 0.06730353 0.014648011
-0.009461217 0.08503016 0.05923236 -0.004618965 -0.044088 -0.037488483 0.017206617 0.06019921
0.08555544 -0.08690079 -0.10770663 -0.086470634 -0.005152568 0.07341535 0.05209642 0.07982479
0.0028073192 0.0023944452 0.052832343 0.031370856 -0.08211234 0.04076927 -0.0818984 0.033657596
-0.060838226 -0.048577417 -0.06429865 -0.056261115 -0.04565298 0.051234968 -0.05819252 -0.04750059
-0.075929165 -0.1301595 -0.021037385 -0.010016054 -0.051177718 0.06138598 -0.0578702 -0.035606068
0.046191804 -0.045248456 -0.08947862 0.02052036 -0.02999882 0.04651072 0.023343123 0.046880804
-0.06480251 0.025659211 0.005080469 0.08587181 0.04384496 0.025349677 -0.06959039 -0.06729706
-0.08541732 -0.027660241 -0.03933776 0.0022078604 -0.019862795 -0.021243751 0.08012647 -0.036204606
0.06069962 0.086273424 -0.045101166 -0.030419614 -0.028690085 0.012497827 -0.03453109 0.112511635
-0.03199912 0.068852685 0.05305972 -0.016524935 -0.00045765936 -0.0066486523 0.0077909403 -0.06250698
-0.02965077 0.020686932 0.008539274 0.016734853 -0.07372764 0.02657365 0.003797181 -0.079360954
0.030297525 -0.0029463395 0.04989671 -0.0127274245 -0.07873128 -0.073229566 0.043468453 -0.0003448966
-0.006873958 0.029105082 -0.044611447 0.013844572 -0.05558281 -0.00060224533 0.05949559 0.029853664
0.008091375 -0.08217749 0.086533405 0.081500076 -0.044433292 0.08242696 0.00020630269 -0.045289494
0.07803369 -0.07531432 0.0075582215 0.012548151 -0.012356295 0.037200876 -0.072603375 -0.020265881
-0.15375237 0.124892265 -0.12697995 -0.042627197 -0.0433945 0.04209912 -0.023384787 0.014738786
-0.05876358 0.006735942 0.031102277 -0.06600715 -0.992631 -0.02674875 -0.120373376 -0.0618266
0.0034788148 -0.007823987 0.4709623 0.022377787 0.021421785 -0.04563783 -0.103107676 0.008610875
-0.035807844 0.038226143 -0.029839493 0.1039947 -0.033783067 -0.047647905 -0.07066327 -0.047606286
0.0016853607 -0.34161028 0.03859065 -0.029427906 0.09691821 -0.032599833 0.025627824 -0.087081246
0.25046676 0.10782979 0.08819201 0.0139273135 -0.026693093 -0.07813661 0.20801735 -0.07585161
0.050676696 -0.021160461 -0.021467326 0.021872038 -0.07240449 0.012735863 0.07557852 0.08087123
-0.019403718 -0.02263567 0.042714234 0.058352094 0.06731037 -0.073480114 -0.058648065 -0.016888747
0.0011770343 -0.03650787 -0.2550319 0.0021133532 0.21824133 0.10416036 0.009280259 0.09054645
-0.081723906 -0.05638597 0.30648437 -0.020917853 0.07265898 -0.0013464491 -0.07590425 -0.0149374865
0.018838681 0.0427841 -0.032593958 -0.026101097 -0.06477523 -0.030394757 0.030367777 -0.06540095
0.049914617 0.14374588 0.07889941 0.040797986 0.11599557 0.06899481 -0.043104965 0.017985696
-0.04192515 -0.11087697 0.032461703 -0.0055191084 0.034776565 0.016160114 0.05991379 0.2246147
0.03866134 0.05350739 0.20508826 -0.03189627 0.43750224 -0.07940308 -0.0062646354 0.04906133
-0.051977493 -0.17171748 0.023580557 0.00818531 -0.074052215 -0.075540535 -0.08350129 -0.023909803
00000000: 3072 133c 891c ffbc d70d 77bd b122 1a3d
00000010: 57f0 a0bd ab42 4cbd 55a6 ad3d c8f4 e03c
00000020: 4235 043d ac0f cebc ab0c 993d 3f15 833d
00000030: 14e7 0bbd 1612 7e3d 6fd6 893d 36fe 6f3c
00000040: 3803 1bbc 4b24 ae3d a29d 723d b05a 97bb
00000050: 9e95 34bd 868d 19bd e4f4 8c3c 7293 763d
00000060: b137 af3d 0bf9 b1bd 4b95 dcbd 8417 b1bd
00000070: e0d6 a8bb c95a 963d 0e63 553d 2e7b a33d
00000080: 00fb 373b 20ec 1c3b ba66 583d ba7e 003d
00000090: 842a a8bd aefd 263d 59ba a7bd 8cdc 093d
000000a0: 8131 79bd 1df9 46bd 03af 83bd 0e72 66bd
000000b0: 9ffe 3abd c2db 513d 485b 6ebd fb8f 42bd
000000c0: c080 9bbd 8848 05be 9856 acbc 601a 24bc
000000d0: ba9f 51bd de6f 7b3d 4e09 6dbd abd7 11bd
000000e0: 9e33 3d3d 7256 39bd 9140 b7bd 501a a83c
000000f0: 16c0 f5bc 0682 3e3d 143a bf3c 1606 403d
00000100: 2eb7 84bd 4433 d23c 107a a63b 8fdd af3d
00000110: c696 333d 20aa cf3c 6885 8ebd 0ad3 89bd
00000120: 47ef aebd bb97 e2bc a220 21bd c0b1 103b
00000130: 4db7 a2bc 6007 aebc 5919 a43d 484b 14bd
00000140: 2aa0 783d 1fb0 b03d 00bc 38bd 8e32 f9bc
00000150: 7807 ebbc b0c3 4c3c 7970 0dbd 806c e63d
00000160: 8211 03bd a302 8d3d 2655 593d 4d5f 87bc
00000170: 00f2 efb9 f0dc d9bb 254b ff3b a903 80bd
00000180: 2ce6 f2bc a477 a93c 50e8 0b3c 8817 893c
00000190: 84fe 96bd fcb0 d93c 20da 783b ff87 a2bd
000001a0: 8432 f83c 6017 41bb 7e60 4c3d b086 50bc
000001b0: de3d a1bd 62f9 95bd fa0b 323d 3dd3 b4b9
000001c0: f03e e1bb c86d ee3c 7eba 36bd 58d4 623c
000001d0: cdaa 63bd 00e0 1dba a6b1 733d ac8f f43c
000001e0: b091 043c ac4c a8bd 6d38 b13d 83e9 a63d
000001f0: afff 35bd 77cf a83d f552 5839 7a81 39bd
00000200: 21d0 9f3d 653e 9abd f5aa f73b c396 4d3c
00000210: 0f72 4abc f25f 183d 14b1 94bd a204 a6bc
00000220: 4371 1dbe 84c7 ff3d 0807 02be db99 2ebd
00000230: 6ebe 31bd 2070 2c3d 7491 bfbc f37a 713c
00000240: 14b2 70bd 2db9 dc3b 34ca fe3c c22e 87bd
00000250: 111d 7ebf 3220 dbbc 5186 f6bd e43d 7dbd
00000260: d4fc 633b 2e30 00bc f821 f13e 9f51 b73c
00000270: bd7c af3c bcee 3abd 1e2a d3bd a114 0d3c
00000280: 3fab 12bd 0493 1c3d f471 f4bc 2cfb d43d
00000290: 1d60 0abd 732a 43bd e8b7 90bd cffe 42bd
000002a0: 52e7 dc3a 8be7 aebe 3b11 1e3d cb12 f1bc
000002b0: 0e7d c63d 6787 05bd 71f1 d13c a757 b2bd
000002c0: 2e3d 803e ddd5 dc3d 039e b43d 632f 643c
000002d0: 79ab dabc 1606 a0bd 8002 553e 1758 9bbd
000002e0: 5e92 4f3d b458 adbc 3fdc afbc fd2c b33c
000002f0: ce48 94bd 15aa 503c e9c8 9a3d d19f a53d
00000300: 8cf4 9ebc 716e b9bc 1ff5 2e3d 9b02 6f3d
00000310: 05da 893d be7c 96bd f438 70bd 455a 8abc
00000320: b846 9a3a 4789 15bd 8b93 82be 2f80 0a3b
00000330: a87a 5f3e 0752 d53d 3a0c 183c 6b70 b93d
00000340: dd5e a7bd faf4 66bd 85eb 9c3e eb5b abbc
00000350: 3bce 943d 567b b0ba b073 9bbd 5cbc 74bc
00000360: 9453 9a3c 613e 2f3d 3e81 05bd f8d1 d5bc
00000370: e0a8 84bd 6dfe f8bc d8c5 f83c eff0 85bd
00000380: 4573 4c3d 1f32 133e 0496 a13d ca1b 273d
00000390: 168f ed3d 274d 8d3d d58e 30bd bd56 933c
000003a0: b5b9 2bbd 7713 e3bd 90f6 043d a3d9 b4bb
000003b0: df71 0e3d 3762 843c 2a68 753d 6501 663e
000003c0: 5a5b 1e3d 912a 5b3d a802 523e aaa5 02bd
000003d0: 4b00 e03e 159e a2bd 9247 cdbb 88f4 483d
000003e0: 5ae6 54bd b5d6 2fbe 032c c13c ae1b 063c
000003f0: b0a8 97bd ffb4 9abd b902 abbd 7ede c3bc

network.4.bias f4 [64]
-0.08288022 0.23881997 -0.136272 0.24681865 -0.06813354 -0.0604053 0.06029215 0.039105535
0.43326643 -0.05112027 -0.08386797 -0.06400782 0.3332699 -0.15740012 -0.1346394 -0.0012955868
-0.15937766 -0.11513511 -0.04015415 0.09004276 -0.03239601 -0.13361205 0.11092219 -0.11399418
0.14040108 -0.25247678 -0.09850226 0.40088072 0.053127773 0.23996131 -0.11837603 -0.09967013
0.03679605 0.19067867 0.09372983 0.12647356 0.07910388 -0.11182962 -0.03638089 -0.048649084
-0.078489475 -0.10568262 0.21657021 -0.17464037 0.16891912 -0.123290725 0.13804178 0.129397
0.09901557 0.19801459 -0.044210795 0.20035648 0.052186847 0.026429659 0.32845592 -0.039726928
0.20823728 0.15342313 -0.03530362 -0.07237622 0.053977042 0.17149682 0.19939117 -0.056236476
00000000: 1bbd a9bd 398d 743e e38a 0bbe 07be 7c3e
00000010: 9989 8bbd 8c6b 77bd e7f4 763d 202d 203d
00000020: 19d5 dd3e 7d63 51bd f8c2 abbd 8816 83bd
00000030: 5aa2 aa3e 7f2d 21be e9de 09be aed0 a9ba
00000040: e633 23be f5cb ebbd ae78 24bd 5768 b83d
00000050: aeb1 04bd 99d1 08be 2c2b e33d c875 e9bd
00000060: 4dc5 0f3e a344 81be 8ebb c9bd 3d40 cd3e
00000070: 829c 593d 6bb8 753e 226f f2bd da1f ccbd
00000080: 74b7 163d 4541 433e 6df5 bf3d 4982 013e
00000090: 3701 a23d ee06 e5bd 2104 15bd 4344 47bd
000000a0: 17bf a0bd 2170 d8bd 95c4 5d3e edd4 32be
000000b0: 22f9 2c3e d97f fcbd d35a 0d3e a680 043e
000000c0: adc8 ca3d 56c4 4a3e 6116 35bd 402a 4d3e
000000d0: e0c1 553d 0383 d83c 602b a83e b4b8 22bd
000000e0: 273c 553e f41a 1d3e 879a 10bd fc39 94bd
000000f0: 0817 5d3d dd9c 2f3e 332d 4c3e 3858 66bd

network.6.weight f4 [2, 64]
0.05029963 0.18930157 -0.0071104257 0.48170078 -0.031174289 0.0064366576 0.08541234 0.3310109
0.34676087 -0.0410471 0.06487465 0.047195848 0.4014086 -0.01986681 0.15574855 -0.03641126
-0.072211124 0.05797246 0.0024148047 0.061639074 0.10165622 -0.045641758 0.13927475 -0.029350447
0.13934685 -0.46257216 0.027120637 0.29183868 0.09764527 -0.55186754 -0.36086822 0.17540328
0.06447661 0.34596157 0.4102622 0.40654528 -0.10557906 0.06613362 -0.02422617 -0.008268759
-0.1009226 -0.051006105 0.3211625 -0.13105 0.42628178 -0.052917033 0.1038874 0.47487265
0.13574514 0.39159656 -0.02623006 0.3519689 0.21584399 0.20465885 0.35840958 -0.02785872
0.25284162 0.048068993 0.0456516 0.14626348 0.074143365 0.14797856 0.3470442 -0.039474353
0.025915492 0.24174541 -0.13093339 0.19502494 0.00045805093 -0.027261648 0.21472068 0.28182238
0.36630994 -0.00055487355 -0.05136718 0.07130417 0.40938893 0.0017060548 0.066380404 0.2105806
0.003238794 -0.0063510756 -0.054389015 0.13274194 -0.32791266 -0.13125448 0.24208955 -0.03088924
0.2310463 -0.011482559 -0.079453744 0.5195891 0.20248674 0.110872544 -0.0011124788 0.11540115
0.16181093 0.3261141 0.34522393 0.17798376 0.1710872 0.039128304 -0.014940634 0.041549005
-0.07377843 -0.03310763 0.23899515 -0.13932097 0.392059 0.021479897 0.21630841 0.1558865
0.2121825 0.24206437 0.23162585 0.18165584 0.22117023 -0.049447674 0.3899754 0.02401741
0.3637722 0.3267929 0.04318015 0.11868605 0.21683742 0.41250396 0.37682524 -0.006160274
00000000: fc06 4e3d 45d8 413e 93fe e8bb 7ca1 f63e
00000010: 3961 ffbc 99ea d23b aaec ae3d 437a a93e
00000020: a48a b13e 0121 28bd 00dd 843d 6f50 413d
00000030: 6e85 cd3e b8bf a2bc 8c7c 1f3e f923 15bd
00000040: 6de3 93bd 8874 6d3d b341 1e3b 4179 7c3d
00000050: 2331 d03d daf2 3abd 0a9e 0e3e 5970 f0bc
00000060: f1b0 0e3e 42d6 ecbe 192c de3c e16b 953e
00000070: 3efa c73d 3147 0dbf b8c3 b8be eb9c 333e
00000080: 500c 843d e021 b13e e30d d23e b426 d03e
00000090: d639 d8bd 1071 873d f675 c6bc b079 07bc
000000a0: 82b0 cebd c7eb 50bd 696f a43e f931 06be
000000b0: 9b41 da3e 88bf 58bd ebc2 d43d 8222 f33e
000000c0: c600 0b3e 587f c83e 6ce0 d6bc 4535 b43e
000000d0: 3506 5d3e 1792 513e 7681 b73e f837 e4bc
000000e0: 7574 813e fee3 443d 2cfd 3a3d 18c6 153e
000000f0: 7ad8 973d b187 173e c7af b13e dcaf 21bd
00000100: ba4c d43c 1c8c 773e 6713 06be 9eb4 473e
00000110: 8e26 f039 d253 dfbc bddf 5b3e 064b 903e
00000120: fa8c bb3e ef74 11ba 6466 52bd ec07 923d
00000130: 6d9b d13e b39d df3a 73f2 873d 71a2 573e
00000140: f241 543b af1c d0bb 04c7 5ebd 81ed 073e
00000150: 2be4 a7be 9367 06be 53e6 773e 6e0b fdbc
00000160: 6797 6c3e 5821 3cbc a5b8 a2bd cb03 053f
00000170: af58 4f3e 2511 e33d 98d0 91ba 7057 ec3d
00000180: c4b1 253e 6df8 a63e 31c1 b03e 6041 363e
00000190: 7c31 2f3e 0045 203d 90c9 74bc 4a2f 2a3d
000001a0: 2519 97bd de9b 07bd 25bb 743e 28aa 0ebe
000001b0: f5bb c83e 9cf6 af3c f47f 5d3e b6a0 1f3e
000001c0: 5f46 593e b9df 773e 542f 6d3e fd03 3a3e
000001d0: 737a 623e a589 4abd dbaa c73e 29c0 c43c
000001e0: 5a40 ba3e 6651 a73e abdd 303d ac11 f33d
000001f0: a10a 5e3e b833 d33e 3def c03e 20dc c9bb

network.6.bias f4 [2]
0.5293964 0.59793496
00000000: 8686 073f 4412 193f
