models/monopoly_ai_900.pth (torch, 379901 bytes, 8 tensors)

network.0.weight f4 [256, 205]
00000000: 8180 a23c 8b57 11be f65d 713d 609e 323d
00000010: 00a5 98bc 52f5 5e3d 00f0 9139 e3cf 443d
00000020: 131a 9dbd 9f54 c9bc 14e7 5f3d 104e a6bc
00000030: 605e 383c 2033 c5bb 9074 e1bb 6663 553d
00000040: b83f 4abc aba6 023d 6de9 2bbc 6156 b83d
00000050: c8c5 4e3c 1842 7c3c 4cb4 b73c aba8 7abd
00000060: c2d1 4c3d 9e42 5b3d a01e 7b3b b03b 92bd
00000070: 1953 60bc 8926 28bd deea 033d eefd c5bc
00000080: feb4 0e3d b822 643c 2e71 01bd 001a 703c
00000090: a6e4 22bd f8d5 473d 40c4 ef3a 5a19 80bd
000000a0: fe43 08bd d858 e53c 148c d5bc e499 1abd
000000b0: 0d3e 0dbd e053 383d b890 c8bc 6bc0 c7bd
000000c0: d7d0 abbc 2d49 8cbd df20 14bd 64f5 e43c
000000d0: de82 88bd 8b86 8a3d d6b9 353d c818 043d
000000e0: dffc 8d3d 2f89 1dbd 9308 2dbd 3afa 4a3c
000000f0: 237b 82bd 7e32 0e3d 8588 41bd 0c38 63bd
00000100: 718e e53c f4b2 0b3d e841 a2bc bb74 b3bd
00000110: 510e b0bd 7864 123d e028 ff3c 5210 603d
00000120: f30f 27bb 377c 9ebd ce0d f13c 402c 36bd
00000130: a605 ccbc 6a1c 72bd e9c6 98bb e73b 183d
00000140: d6db 303d cafb 75bd 611e 59bd 98cc c3b9
00000150: cb7c 22bd c7e4 04bd f88c 213d 20a6 c53b
00000160: 24b4 f23c 20d7 893c 1ca5 40bc ae56 0e3d
00000170: fb03 a4bd 4839 fd3b bba8 acbd 0a63 673d
00000180: 9894 46bd 09e4 a4bd c248 dabd e529 14bc
00000190: c6ec 7b3d f439 613d 40d8 3b3c f17f 8cbd
000001a0: b2ec e6bc c8ee 50bd 7eca 8fbc c7d3 03bd
000001b0: a6e4 86bd 93eb bcbd 6e8a 7b3d 31be 71bd
000001c0: 9755 8b3d d45f bfbc a64e 23bd b645 bdbc
000001d0: 90aa b53b af58 ae3d 6b49 e2bb 1cea 47bd
000001e0: 6c43 523d 2e27 0fbd 52e4 b2bc 24cd a7bd
000001f0: d0f5 303d e682 0abd 8042 82bc 7cde 7cbd
00000200: 4b33 3e3d 62e0 39bd 84c9 403d f2ce 373d
00000210: a728 49bd df73 9abc 2491 58bd 14f2 033d
00000220: 4919 85bd 7dcd 46bd aaca eb3b 3cc8 b5bc
00000230: 6884 ab3c b28b 5ebd b9e8 093d 1920 5ebc
00000240: b4a7 90bd 8add 173d b80d 2dbc 28f3 e0bd
00000250: ef30 b7bc c812 19bd b63d 95bc 2cfb 073d
00000260: 5fb1 86bd 23bc 843d d64b 1d3d b3b9 8b3d
00000270: 00ce 96bb 3b1c de3c 30cd 36bd 0409 bb3c
00000280: d55b 0cbd 00e3 c73c 5acf 0dbc d70f 25bd
00000290: 2a57 33bc 2896 c03c 2413 083d 940f 48bd
000002a0: 5ad5 ddbc bc7e 45bc 30c9 323d 5ca6 15bd
000002b0: 44da 0cbc ec90 2ebd ad2c 533d 5e1a 1f3d
000002c0: 0080 feb9 38cc 553d 3b42 1abd aaba 19bd
000002d0: 205d b73b 30ba 553c 70fa 2fbc c835 28bd
000002e0: 80ba 81bd 7c5b 8c3c 7827 223d 03f3 a3bd
000002f0: 6aa8 91bc 5b8c 79bd ce84 543d 7096 e0bc
00000300: 1a2a e3bc ac47 a83c 6e68 87bd 2747 8bbd
00000310: 692c 8bbd b228 d73c bf55 be3a b180 773d
00000320: a847 0dbc 4ce8 923c 47a4 6fbd c01c 75bd
00000330: b025 92bc 6d91 2cbe 5ce0 ccbe 7e11 523d
00000340: 30ab 61bd 580c 6b3c 5cd3 d63c fe55 3d3d
00000350: 924f 5f3e c212 43be 1ee7 4cbc 249e ac3c
00000360: 14bd 16bc 0a83 533d a760 4abd 8020 42bc
00000370: 188e 863c e064 eabc fdee 9cbd 5cf5 d3bc
00000380: e0f6 8bbd c07e 213c d399 8dbd 1611 4c3d
00000390: 98c1 8dbd 8ccb bfbc bc0a c83c 9c84 863c
000003a0: ee09 193d cb6f 64be dc55 8d3d e5c5 863d
000003b0: 38c8 85bd 53d7 133d 38e4 89be c807 3ebc
000003c0: fb84 833d 38d2 773c 2a56 7b3d 0697 3bbd
000003d0: ce65 743d 08cc 1abc 5557 823d 6808 fcbd
000003e0: c688 353e 232f a5be 1046 dcbb f042 d1bb
000003f0: 6f99 6bbd f251 9f3d 261a 7cbe 8a9a 073d
0.019836666 -0.14193551 0.0589275 0.04360807 -0.018633366 0.054433174 0.0002783537 0.04804982
-0.07670989 -0.024576483 0.054663733 -0.020300895 0.0112529695 -0.0060180575 -0.0068803504 0.052096747
-0.012344293 0.03189723 -0.010492665 0.090008505 0.012620397 0.015396617 0.02242484 -0.06119601
0.05000473 0.053530328 0.0038317814 -0.07140291 -0.013691687 -0.041052375 0.03220641 -0.024168935
0.034840576 0.013924293 -0.031602077 0.014654636 -0.039768837 0.04878804 0.001829274 -0.062548354
-0.033267967 0.027996466 -0.026067771 -0.037744418 -0.034483004 0.045001864 -0.02448307 -0.09753498
-0.020973606 -0.06849895 -0.03616416 0.027949043 -0.06665586 0.06763943 0.04436668 0.032250196
0.06932997 -0.038460907 -0.042244505 0.01238876 -0.06371143 0.03471612 -0.047249336 -0.055473372
0.028022023 0.03410621 -0.019806817 -0.08762499 -0.08596481 0.035740346 0.03114742 0.054703064
-0.0025491684 -0.07738536 0.029425528 -0.044475794 -0.024905037 -0.05910913 -0.004662384 0.037166502
0.043178402 -0.060054578 -0.053007487 -0.00037345733 -0.039669793 -0.03244474 0.03944108 0.0060317665
0.029626913 0.016826212 -0.011758115 0.034750633 -0.08008572 0.0077277757 -0.0843062 0.056490935
-0.048481554 -0.08051307 -0.10658409 -0.009043192 0.0615051 0.05498691 0.011465132 -0.068603404
-0.028189037 -0.05100897 -0.01755261 -0.03218439 -0.0658658 -0.0922462 0.061411314 -0.05901927
0.06803434 -0.023361124 -0.039869927 -0.02310453 0.0055440143 0.08513009 -0.0069057248 -0.04880725
0.05133383 -0.034949474 -0.021837387 -0.08193424 0.043203175 -0.03381624 -0.01590085 -0.061735615
0.046435636 -0.045380004 0.04706718 0.044875093 -0.049111035 -0.01885408 -0.052872792 0.032213286
-0.064989634 -0.048535813 0.0071957903 -0.022190206 0.02093716 -0.054332443 0.033669207 -0.013557457
-0.07063237 0.03707651 -0.010562353 -0.109838784 -0.0223622 -0.037371427 -0.018217903 0.03319852
-0.065767996 0.06481197 0.0384024 0.06822529 -0.004602194 0.02711307 -0.044629276 0.022831447
-0.034267265 0.024400234 -0.0086553935 -0.04029831 -0.0109460745 0.0235091 0.03322138 -0.04884298
-0.027079273 -0.012054142 0.0436489 -0.036535606 -0.00859696 -0.042618677 0.051556278 0.038843505
-0.00048542023 0.05219671 -0.03766082 -0.037531532 0.005595818 0.013044879 -0.010740861 -0.041066915
-0.063344 0.017133467 0.03958842 -0.08005335 -0.017780501 -0.06092487 0.051884465 -0.027415484
-0.027730037 0.020541988 -0.06611715 -0.068006806 -0.0679558 0.026264522 0.0014521404 0.060425464
-0.008623041 0.017933033 -0.058506276 -0.05984187 -0.017840236 -0.1685235 -0.40014923 0.051286213
-0.055094898 0.014346205 0.02622383 0.046224587 0.21807697 -0.19050124 -0.0125062745 0.021071501
-0.009200353 0.05163864 -0.04940858 -0.011848569 0.016425177 -0.028612554 -0.07662771 -0.025873832
-0.06834197 0.00985688 -0.06914105 0.049820982 -0.06921691 -0.023412488 0.024419181 0.016420655
0.037362985 -0.2230827 0.06901142 0.06580714 -0.06532329 0.03609402 -0.2693193 -0.011598535
0.064218484 0.015125804 0.06136147 -0.045798324 0.0596674 -0.009448059 0.063643135 -0.12306291
0.17727956 -0.32262525 -0.0067222193 -0.0063861534 -0.057519373 0.07779302 -0.2461935 0.033106364

network.0.bias f4 [256]
00000000: 7625 11bd 5af4 84bd fcab d3bc a576 8fbe
00000010: 41c6 16bd 9044 b9bd d2d0 1ebd a72a 9cbd
00000020: dc24 0cbd ffc6 553d 0cc5 94bc 62eb ecbc
00000030: c9a5 b7bc 1a30 95bd b477 05be 68cb 81bd
00000040: 4a60 1cbc 47da d6bd ac15 2abb 675c 243d
00000050: 0d39 abbd 3b4e 283c e756 e33d 5618 cb3d
00000060: d1a9 79bd 8d16 fd3b 7f20 a3bd 91f7 80bb
00000070: 8f19 87bc 1c8c debc fba5 7dbd c417 9dbd
00000080: a7c6 89bd a94c 06bc 4e09 f93b 5b9a d33c
00000090: 0c40 cc3c 93c4 91bd 3b89 66bc 68c2 adbd
000000a0: ab67 17be 57a1 00bd 9498 eebd d5bc 173e
000000b0: d62d 613c 1e16 abbd 3cfb e73b 9bc6 61bc
000000c0: 89a0 d23c f6c5 c5bd f051 f33c 02a0 663c
000000d0: 5ed8 19bd f16d 693d 117e 42bd 7b1e 913d
000000e0: e53c 3f3d 2a70 0b3d 2bd8 793d 6e80 49bd
000000f0: 888c babd 8b76 2d3c 19a3 f23c e94c 243c
00000100: 8ee6 a3bd a8da 5dbd 0fc7 3e3c 4752 22be
00000110: f2e1 a33b 221d 4dbd 8286 86bc a802 2dbe
00000120: 4695 32bd 578b 123d e4db 523d e621 1abd
00000130: 5f9c 193d cd1b 33be 2395 8dbd 8f54 adbd
00000140: dafd f2bd b64a 4cbd 0ea8 85bd 0a17 84bd
00000150: db93 cfbc 6f4c 8dbd fa63 6abd 071a 8cba
00000160: 63c5 433c 1c9b 0ebe 8a7f b6bd 6674 c4bd
00000170: bccc b6bc 77a8 91bc d083 7f3d 82f5 eebb
00000180: de9e 38bc 27fb 8bbd ac40 cabc da4c f6bb
00000190: 1c03 003d c5d0 bbbd ad2d 93bd 207c 9cbd
000001a0: 40ba 2fbd 6e30 0fbd 9b52 b43c 5dea f53a
000001b0: c1b8 2dbe 4ddf 05bb 7f62 18bd 6e85 50bd
000001c0: bbf1 60bd 0a50 88bd 1563 c33d 690e c5bc
000001d0: b20f 0cbd dd4b 153d 1069 c8bc 7a2c b1bd
000001e0: 296d 44be b47a a3bd ec17 b13b e921 603c
000001f0: 67b3 40bd ec33 b8bd ddb7 4bbd 4ece 583d
00000200: 7050 d13b 9804 e1bc a812 05be fb92 4fbc
00000210: ec9c 5d3b 8cbe b0bc 57fb b1bd 3d0b 89bd
00000220: cabb fb3b 6d73 a4bc 233e b6bb fa0d c7bd
00000230: e792 e1bc caad 05be d111 0d3d 41fa e5bd
00000240: 4091 28bd cd3d 5fbd 6b75 3dbd 97b2 faba
00000250: 1a0b a5bd 4aff a6bd f155 a0bd c6e7 a6bd
00000260: 0d6a eabd 4c20 cfbd cfd4 8bbd 955f cdbd
00000270: 76ac 66bd f722 60bd f02e 0abc 9252 49bc
00000280: f288 e0bd b939 4e3e bd63 4bbe 1056 8abe
00000290: cbae 3ebd 0118 00bc ce25 66bd 7ab6 663e
000002a0: ba1e b7bb ee01 663c b335 203d afcf 7a3e
000002b0: cdaa c13c f2f8 3dbc 5f1a 0a3d bccc 73bd
000002c0: 20ff ddbd b5c5 723d 55f4 813d cddf 54bc
000002d0: 38b8 00bd ec1f 1dbd f003 203d 2333 00bd
000002e0: 3189 07be 69da dfbb 07b3 e7bd 4340 d33d
000002f0: b09b 2d3e 9ac2 c3bd 9bdd 27bd 7dc0 bfbc
00000300: 0135 54bd e4c2 493b 1e07 fbba 56ae a6bc
00000310: 87be 8cbc 2545 8cbd e623 3ebd 1f08 6dbd
00000320: 0521 afbd 68ce d5bb 1869 6a3c d3d6 cbbd
00000330: 4c77 07be 8944 10bc 2b40 293e 48ae 94bc
00000340: cec0 bfbd f880 b5bd 4d02 d1bd de60 00be
00000350: 4641 cdbd 4bc8 02bd 48e0 c23a 8766 e3ba
00000360: 7480 3bbd 9663 b1bd 7fa3 4d3d 5064 fdbd
00000370: 2174 70bd cc2e 2dbc ab58 b9bc acda 873c
00000380: 5896 63bd 0e24 93bd f3b8 0bbe 82fe 5ebd
00000390: c5fa 4bbd 5c42 51bd 33af b1bd b10e 92bd
000003a0: a380 bfbc 8a55 8ebd 9a37 d4bc aaf9 b0bd
000003b0: 827d 0fbc 9ee8 eb3b 41fd 263e 40b3 60be
000003c0: 75c4 82bd d9e7 733d b4c9 833c fe50 f0bd
000003d0: 740e 353c 906f 94bd 8bdf ddbd e183 67bd
000003e0: 5e3b 1e3b def5 bdbd ce3a 3cbd 770b f4bc
000003f0: 6bf7 e83b d151 29bd 8638 0dbc ea87 b1bd
-0.035436116 -0.06491919 -0.025838844 -0.28020206 -0.036810163 -0.090462804 -0.038773365 -0.07625323
-0.03421484 0.05219173 -0.018160366 -0.028920833 -0.02241792 -0.07284565 -0.13033944 -0.06337625
-0.0095444415 -0.10490852 -0.002595286 0.040127184 -0.08360491 0.010272558 0.1110056 0.09916751
-0.060952965 0.0077236355 -0.079651825 -0.003935762 -0.01649168 -0.027166419 -0.06192587 -0.076705486
-0.06727343 -0.008196988 0.007599986 0.025830438 0.024932884 -0.07117572 -0.014070804 -0.08484346
-0.1478564 -0.031403866 -0.11650196 0.14818127 0.013743838 -0.08353828 0.00707951 -0.013780261
0.025711315 -0.09656899 0.029702157 0.014076235 -0.03755986 0.056989614 -0.047483508 0.07085892
0.046688933 0.034042515 0.06099717 -0.049194746 -0.091088355 0.010587345 0.029618787 0.010028102
-0.08002959 -0.054163605 0.011644139 -0.15851699 0.0050013 -0.05007661 -0.01642156 -0.16895545
-0.04359939 0.035777416 0.051479235 -0.037629984 0.037502643 -0.17491074 -0.06913211 -0.08463394
-0.118648246 -0.049875937 -0.065261945 -0.06449707 -0.025339058 -0.06899344 -0.05722425 -0.0010688909
0.011948916 -0.13926357 -0.08911045 -0.09592514 -0.022314422 -0.017780526 0.062381566 -0.0072924504
-0.011268346 -0.06835013 -0.024689041 -0.0075164856 0.031252965 -0.09170679 -0.07186446 -0.076408625
-0.04290223 -0.034958296 0.022012046 0.0018761862 -0.1696501 -0.0020427287 -0.03720331 -0.0509085
-0.054918032 -0.06655891 0.09540383 -0.024054723 -0.034194656 0.036449302 -0.02446416 -0.08651061
-0.19182266 -0.07982388 0.005404463 0.01367996 -0.04704609 -0.08994278 -0.049735893 0.052931122
0.0063877627 -0.02746801 -0.12995398 -0.01266932 0.0033815457 -0.021575235 -0.086905174 -0.06691597
0.0076822983 -0.02007457 -0.0055616065 -0.09719463 -0.027535869 -0.13054577 0.03444082 -0.11229373
-0.041154146 -0.054502297 -0.046254557 -0.001912671 -0.08058758 -0.08154161 -0.07828892 -0.08149676
-0.11446009 -0.10113582 -0.068276994 -0.100279965 -0.056316815 -0.054720845 -0.008434042 -0.012287753
-0.1096362 0.20139207 -0.19862266 -0.27018785 -0.046553414 -0.007818223 -0.056188397 0.22530547
-0.0055883797 0.014038546 0.03911371 0.24493288 0.023641014 -0.011594998 0.033716556 -0.05952142
-0.10839677 0.05927058 0.06345431 -0.012992811 -0.031425685 -0.03836052 0.039066255 -0.031298768
-0.13235928 -0.0068314564 -0.11313444 0.10314991 0.16953921 -0.09558602 -0.040982824 -0.023407215
-0.05180836 0.003078633 -0.0019151901 -0.020346802 -0.017180694 -0.06849126 -0.046420954 -0.057869073
-0.0855122 -0.0065248497 0.014307283 -0.09953084 -0.13229102 -0.008805403 0.16528384 -0.01814951
-0.093629465 -0.088624895 -0.10205517 -0.12536952 -0.100222155 -0.031929296 0.0014867866 -0.0017349281
-0.0457768 -0.08661573 0.05020475 -0.12372649 -0.0587045 -0.010570239 -0.022625288 0.016583763
-0.0555633 -0.07184611 -0.13644771 -0.054441936 -0.0497997 -0.051088676 -0.08675995 -0.071317084
-0.023376768 -0.06949909 -0.02590542 -0.0864137 -0.008757951 0.007199361 0.16307546 -0.21943378
-0.063851275 0.05954728 0.01608739 -0.11734198 0.011050809 -0.07247841 -0.10833653 -0.056522254
0.0024144272 -0.09275411 -0.045954518 -0.029790623 0.0071095726 -0.04133779 -0.008619433 -0.08668502

network.2.weight f4 [128, 256]
00000000: 806a 7e3d 5a66 5abd 13d2 93bc 7015 2a3c
00000010: 6327 c53c 7ce1 473d a668 babd 7cc2 bfbc
00000020: 608c 51bc 0c01 9ebd c739 8ebd 3eb7 e23a
00000030: 2345 873c 2268 253d 7801 103c 2a68 123d
00000040: ae9a 37bc 8a81 1b3c a010 79bc 0ad2 6fbd
00000050: bc74 41bd d8ba 3dbd 82d6 90bd 0595 71bc
00000060: b44a 40bd ce62 3d3d 4e0d 233d bf64 8b3c
00000070: a944 45bd b807 8bbd 40d5 8c3c 40fd dc3c
00000080: 00a1 5a3c d4df 07bd a4f9 babc 3cfc 98bc
00000090: c2ae 30bd ec22 dcbc 0080 cdb8 fe04 593d
000000a0: 15b3 72bb 08c1 2b3d 9043 c03c 46fd 78bd
000000b0: d9d4 ac3c 52e9 2cbd c6dd 383d cf08 d63a
000000c0: 80e4 c63b 29f1 efbb 0154 f839 50d0 5cbc
000000d0: 9064 7cbd 94de 1a3b 701f 953b 9daa dcbc
000000e0: 39f3 86bd bcd6 c23c da88 dc3c 3e09 083d
000000f0: 0898 53bd 247f 0cbc 5aa3 193b 6ee6 17bd
00000100: 8404 a43c 2eda 663d c9ca 4e3d fcb9 72bd
00000110: bb4a 8f3c e553 85bd fc26 53bd 5471 3fbd
00000120: 00af 2e3c abc8 9d3c d8b3 2ebc ac44 a13c
00000130: fe4d 2dbd 70cf 943c 6830 25bc 8037 e7ba
00000140: 20be 79bd 3e6c 05bc 459b fe3b 5145 533d
00000150: 982a 26bd c515 1cbd f367 803c 4400 2ebd
00000160: 635e f33c faab 1ebc 260e 4ebd c884 aeba
00000170: 1ace 79bd 713b a5bd 38c0 73bb f6c8 0b3d
00000180: 1440 9fbc 4e6d a33c 5013 06bc 3968 063d
00000190: 4637 abbd 5097 243c cbf6 5bbd 31bd 4cbd
000001a0: 44e3 873c 9f60 8bbd 4853 643c 5892 cebc
000001b0: 10ad dd3c de0c 6dbd 2303 4e3c 42d6 ebbc
000001c0: 7483 383d bf64 acbd 2c9b 0cbd 1c15 9b3c
000001d0: 5522 d4bc 06af 36bb d363 993b f8b4 3ebc
000001e0: 803a 7fba ce51 75bd 96b2 1cbd b025 8b3c
000001f0: 6b8a 5cbd a6e5 053d dff1 833c 38e6 cbbd
00000200: c414 4abd d087 723c b83f f93c 1985 333d
00000210: 006c 42b9 205f 093b cc89 8c3c 7a3e 2ebc
00000220: 099c cbbd 48a3 203c e782 7cbd 2b6a 993c
00000230: d60f ec3c 5402 683d 2659 773d 9050 623c
00000240: c099 533d 40f0 f03a 6d80 8bb9 9a13 09bd
00000250: 40f6 443b 9226 be3c a6da 8e3a 00bd a13c
00000260: 0b33 673c d18f d8bb c8e8 dd3c f7a6 8d3c
00000270: f7ff 143d fe23 7dbb 0ae9 393d 322e 1e3d
00000280: d498 85bd fd79 b0bd 19f8 81bd 4ffb 593c
00000290: 3fa5 4d3d 51a2 29bd 00ec 2d3b 3209 263d
000002a0: 7f4e 193b f493 aabd de36 583b 27dd 7f3c
000002b0: 1872 a3bc 5de7 cbbc f26e 68bd 78e1 6abd
000002c0: 6dbb 79bc fbb1 ca3a cb25 74bc e734 0c3d
000002d0: 6e2a 31bc 2224 6cbd fa9c daba 8005 adbc
000002e0: d9e3 e8bc be76 a7bd 3feb 4d3d 84d7 73bd
000002f0: 02e9 f7bc d7dd 82bd 0f22 043d cc9f 24bd
00000300: 78ea 1d3d f6c1 553d ba76 673d a6b8 843c
00000310: 9135 bd3b 5a47 39bd 772a 5a3c 69cf 03bd
00000320: a0fe 1d3c 94b9 16bd 58b4 b3bd 78fd 443d
00000330: 1434 063d ecf9 f13c 127c 163c be99 223c
00000340: ac35 d63c c028 bfba 2bb0 44bd 5838 093a
00000350: b663 21bc 8a43 75bc 8046 0d3a 3a0e 363d
00000360: 0c2b 69bd 340a 34bb 23d0 9f3c 7d9d dc3c
00000370: 2521 c13b 0bc0 27bd fcc9 193d 819c 0bbd
00000380: b56d ac3c 301e 0e3d f834 10bd aead 3ebd
00000390: dc6d c83c e862 513d 976b 72bc 30df 293c
000003a0: e0bf 9dbc 7cc6 403d 4522 67bd cb30 5cbd
000003b0: d8df 753c f4c2 623d 760a 55bd ae02 6bbd
000003c0: 6ca6 79bd 5019 e6bc 6767 46bd 727a 4b3d
000003d0: f168 edbc 1af7 073d 7a12 dc3c 9adc dabc
000003e0: d7dc 683c 0b0e 89bd 77d1 b53c e0dc b0bd
000003f0: 6e63 a4bd 7a23 1ebd 5020 0b3c 23ec 81bd
0.062113285 -0.053320266 -0.018044507 0.010381088 0.024066633 0.048799023 -0.09101991 -0.023408167
-0.012789816 -0.077150434 -0.06944614 0.0017297042 0.01651246 0.040382512 0.008789413 0.03574387
-0.011206312 0.009491334 -0.015201718 -0.05854992 -0.047230467 -0.046320766 -0.07072164 -0.014745002
-0.046946242 0.046236806 0.03980761 0.017015813 -0.048161183 -0.067885816 0.01719153 0.026976228
0.013344049 -0.033172444 -0.022824116 -0.018674962 -0.043135412 -0.02687212 -9.7990036e-05 0.052983277
-0.003703301 0.041932136 0.023469716 -0.060788415 0.021097587 -0.0422147 0.045133375 0.001632953
0.00606972 -0.0073224497 0.00047364834 -0.0134774 -0.06161934 0.0023631202 0.004550867 -0.026936824
-0.0658936 0.023784034 0.026920725 0.03321194 -0.05165866 -0.008575235 0.0023443312 -0.03708499
0.020021684 0.056360416 0.05048636 -0.0592594 0.017491689 -0.06510142 -0.05155085 -0.046738937
0.01066184 0.019260725 -0.010662995 0.019686066 -0.042310707 0.01816532 -0.010082342 -0.0017640442
-0.060972333 -0.008143483 0.0077699744 0.051579777 -0.040567964 -0.0381067 0.015674567 -0.042480722
0.029708093 -0.009684557 -0.05030646 -0.0013314718 -0.06098757 -0.08067978 -0.0037193429 0.0341272
-0.019439735 0.019949581 -0.008183315 0.03281424 -0.08360152 0.010045841 -0.053702157 -0.049985114
0.01658786 -0.068055384 0.013935871 -0.025216267 0.027060062 -0.0578736 0.01257399 -0.02878869
0.04504724 -0.08417653 -0.03432767 0.018930964 -0.025895277 -0.0027875318 0.0046810894 -0.011639826
-0.0009736195 -0.05989247 -0.03825625 0.016985744 -0.053842943 0.032689713 0.016106544 -0.0995602
-0.04933621 0.014802888 0.030425891 0.043828104 -0.00018541515 0.002096124 0.01715555 -0.010635013
-0.09941871 0.009804554 -0.061648276 0.018727383 0.028816145 0.056642845 0.060387753 0.013813153
0.0516603 0.0018382147 -0.0002660783 -0.03346596 0.0030054003 0.023211751 0.0010898903 0.019743443
0.014111291 -0.006608941 0.027088538 0.01729153 0.03637692 -0.003862619 0.04538826 0.038618274
-0.0652329 -0.086170174 -0.06346149 0.013304546 0.05020642 -0.041414563 0.0026538372 0.040536113
0.0023392735 -0.08329001 0.0032991688 0.015616692 -0.019951865 -0.024890596 -0.05674643 -0.05734393
-0.01524244 0.0015464419 -0.014901589 0.03423014 -0.010813339 -0.057651646 -0.0016678863 -0.021120787
-0.028428959 -0.08176945 0.050273176 -0.059531704 -0.030262474 -0.06389969 0.032259043 -0.040191457
0.038553685 0.05218693 0.05650971 0.016201328 0.005774208 -0.04523406 0.0133157885 -0.032180224
0.009643227 -0.036798075 -0.08774632 0.04809329 0.03276451 0.029538117 0.009184854 0.00992435
0.02614864 -0.0014584288 -0.04801957 0.0005234531 -0.009850433 -0.014969716 0.00053892285 0.04444716
-0.05692582 -0.0027471902 0.019508427 0.026930565 0.0058938437 -0.04095463 0.037546143 -0.0340848
0.021048406 0.034696758 -0.035206765 -0.046552353 0.024466448 0.051119715 -0.014796159 0.010368153
-0.019256532 0.04706429 -0.056429166 -0.05375747 0.015006982 0.055361703 -0.05201193 -0.057375602
-0.060949728 -0.028088242 -0.048438456 0.04967732 -0.028980704 0.03319464 0.026864279 -0.02671652
0.014212809 -0.066921316 0.022194607 -0.086358786 -0.08026777 -0.03860805 0.008491591 -0.06343868

network.2.bias f4 [128]
00000000: 6810 69bd 62a6 a5bd 667e 1bbc 65d8 2ebd
00000010: 9cd8 74bc b134 95bc c057 38bd 494a 72bd
00000020: b865 2dbe ef8d 8d3e 5883 53bd b100 d5bd
00000030: f170 76bd d233 c2bd 336b a7bd 8462 f0bc
00000040: 1cc6 a5bc dd68 c8bd 1b1f 3ebc 1ab1 6b3d
00000050: dfe7 7b3e 829f 83bd 3276 60bc 03a1 cbbd
00000060: c02b 47bd 9d5f 283d 2a36 aa3e 0f10 b0bd
00000070: 6934 03be b4c5 7dbd 6c64 3ebd a377 39bd
00000080: a98f 9b3c 66c0 3ebd 11e3 b9bc 85bf a5bd
00000090: 0f3a 44bd 3d33 54bd 3d19 9c3c 1912 38bd
000000a0: 0369 17b9 d7e2 0abe 07b2 573e d1f9 61be
000000b0: 2f76 edbd bc78 f2bc 85ce d8bd fcd8 ba3c
000000c0: c393 643d c40f 77bb 07bd 16bd e102 aebd
000000d0: 96d4 76bd 6f42 1ebd a754 113e 39b6 c6bc
000000e0: 3a80 2cbe a4e1 b33d d342 ebbd b2c7 b3bc
000000f0: 9a45 03be 6208 68bb bc60 2dbd f03c f4bd
00000100: abab 9fbd fffa ab3c 561f 8abd 1135 9bbd
00000110: c50a c83c 7aa7 ac3c 621d c5bd c4ff c33d
00000120: 781c c0bb 8ca5 a9bd 322c 19be 8e7c 10bd
00000130: e720 d43d bc17 29be 75bc b2bd 94a8 8a3e
00000140: 1fe7 c1bd 27ae 073d 64c4 c73e c975 21bd
00000150: 5837 b4bc d543 2dbd 3ef5 07be f6ca 8fbd
00000160: 0459 34bd 5e4e 293c f313 a7bd 6552 9dbe
00000170: 8701 a9bc 12cb 0cbc f298 8ebd 5909 303e
00000180: b73a 93bd 068e 1b3e 0c06 a73e d94d ecbd
00000190: 97aa 86bd 89b7 4dbd 80a3 a23c a35a 7ebd
000001a0: 7c77 d2bd aa6c 41bd 2fed 94bd 9d9d 9dbd
000001b0: e164 9cbd 2742 60bd e172 2ebd 2251 8b3e
000001c0: 5786 d8bd 9e02 a9bc 18c6 2d3d 115e bfbd
000001d0: 8fee c03e bfad c0bd 1fd3 93bd dcb2 34bd
000001e0: d0a6 ce3a da24 4ebb 98a9 9dbd bbb3 cbbd
000001f0: eb37 e6bd 76ca 9ebd bd81 5a3d 5b28 bc3d
-0.05690041 -0.08088376 -0.009490585 -0.04268684 -0.014944222 -0.018213602 -0.04500556 -0.059152875
-0.16933334 0.2764735 -0.05163893 -0.104005225 -0.060166303 -0.0948254 -0.081747435 -0.02934385
-0.020236067 -0.09785626 -0.011604096 0.057541944 0.2460017 -0.06426908 -0.013700055 -0.0994282
-0.048625708 0.04110681 0.3324445 -0.08596813 -0.12812962 -0.061956123 -0.04648249 -0.04528011
0.018989401 -0.046570204 -0.022691282 -0.0809317 -0.04790693 -0.051806677 0.019055003 -0.044939134
-0.00014439602 -0.13563095 0.21064006 -0.22067954 -0.11594807 -0.029598586 -0.105862655 0.022808544
0.05580498 -0.0037698606 -0.036801364 -0.08496643 -0.06026133 -0.038637575 0.14192449 -0.024256812
-0.1684579 0.08783272 -0.11487355 -0.021945808 -0.1281952 -0.0035405387 -0.04232858 -0.119256854
-0.07796415 0.020993708 -0.06744258 -0.07578481 0.024419198 0.021075953 -0.09624745 0.09570268
-0.0058627687 -0.08283529 -0.14958265 -0.035275035 0.10357838 -0.1651296 -0.087273516 0.2708174
-0.09467911 0.03312507 0.39017022 -0.03941897 -0.021999046 -0.042301018 -0.13277146 -0.070211336
-0.044030204 0.010333626 -0.08158102 -0.30726925 -0.020630611 -0.008593338 -0.06962766 0.17191066
-0.07188933 0.15190896 0.326218 -0.11538286 -0.06575506 -0.05022386 0.019853354 -0.062098157
-0.10276696 -0.04722277 -0.07271802 -0.07696078 -0.076364286 -0.054750588 -0.042590026 0.27210337
-0.10572498 -0.02063113 0.042425245 -0.093441136 0.37682006 -0.094081394 -0.072180025 -0.044115886
0.0015766267 -0.003145507 -0.07698363 -0.0994639 -0.11241134 -0.0775346 0.053346384 0.09187385

network.4.weight f4 [64, 128]
00000000: 3072 133c 891c ffbc d70d 77bd b122 1a3d
00000010: 57f0 a0bd ab42 4cbd 55a6 ad3d c8f4 e03c
00000020: 4235 043d ac0f cebc ab0c 993d 3f15 833d
00000030: 14e7 0bbd 1612 7e3d 6fd6 893d 36fe 6f3c
00000040: 3803 1bbc 4b24 ae3d a29d 723d b05a 97bb
00000050: 9e95 34bd 868d 19bd e4f4 8c3c 7293 763d
00000060: b137 af3d 0bf9 b1bd 6c76 0fbe 8417 b1bd
00000070: e0d6 a8bb c95a 963d 0e63 553d 2e7b a33d
00000080: 00fb 373b 20ec 1c3b ba66 583d ba7e 003d
00000090: 842a a8bd aefd 263d 59ba a7bd 8cdc 093d
000000a0: 8131 79bd 1df9 46bd 03af 83bd 0e72 66bd
000000b0: 9ffe 3abd c2db 513d 485b 6ebd fb8f 42bd
000000c0: c080 9bbd 8848 05be 9856 acbc 601a 24bc
000000d0: ba9f 51bd de6f 7b3d 4e09 6dbd abd7 11bd
000000e0: 2bf2 083d 7256 39bd 9140 b7bd 501a a83c
000000f0: 16c0 f5bc 0682 3e3d 143a bf3c a851 bf3b
00000100: 2eb7 84bd 4433 d23c 107a a63b 8fdd af3d
00000110: c696 333d 20aa cf3c 6885 8ebd 0ad3 89bd
00000120: 47ef aebd bb97 e2bc a220 21bd c0b1 103b
00000130: 4db7 a2bc 6007 aebc 5919 a43d 484b 14bd
00000140: 2aa0 783d 1fb0 b03d 00bc 38bd 8e32 f9bc
00000150: 7807 ebbc b0c3 4c3c 7970 0dbd 806c e63d
00000160: 8211 03bd a302 8d3d 2655 593d 4d5f 87bc
00000170: 00f2 efb9 f0dc d9bb 254b ff3b 4f35 bfbd
00000180: 2ce6 f2bc b7f8 61bc 50e8 0b3c 8817 893c
00000190: 84fe 96bd fcb0 d93c 20da 783b ff87 a2bd
000001a0: 6085 b0ba 6017 41bb 7e60 4c3d b086 50bc
000001b0: de3d a1bd 62f9 95bd fa0b 323d 3dd3 b4b9
000001c0: f03e e1bb c86d ee3c 7eba 36bd 58d4 623c
000001d0: 53b1 b8bd 00e0 1dba a6b1 733d ac8f f43c
000001e0: b091 043c ac4c a8bd 6d38 b13d 83e9 a63d
000001f0: afff 35bd 77cf a83d f552 5839 7a81 39bd
00000200: 21d0 9f3d 653e 9abd f5aa f73b c396 4d3c
00000210: 0f72 4abc 6996 1c3d 14b1 94bd a204 a6bc
00000220: 0d02 cb3b 28f7 8b3e 0807 02be db99 2ebd
00000230: 6ebe 31bd 1e7d 813c 7491 bfbc f37a 713c
00000240: 14b2 70bd 2db9 dc3b 34ca fe3c d55a 23be
00000250: f319 c3bf 3220 dbbc 74a1 32be e43d 7dbd
00000260: d4fc 633b f254 723a 49fe 263f 9f51 b73c
00000270: bd7c af3c 60ec 3abd 1e2a d3bd a114 0d3c
00000280: 3fab 12bd 0493 1c3d b7b8 98bc 89ef 933d
00000290: 1d60 0abd 732a 43bd 1c57 8bbc cffe 42bd
000002a0: 52e7 dc3a 8be7 aebe ffb0 7f3e e094 b0bd
000002b0: 256f 853d 6787 05bd a374 da3d 943e 84bd
000002c0: 7a6b c03e 4631 ee3e 94ab f53d adf8 643c
000002d0: 79ab dabc 1606 a0bd 1f1f d43e bd16 d1bd
000002e0: c15c bd3d 162e 2abc 98ee a4bc fd2c b33c
000002f0: c30b 9cbd 15aa 503c e9c8 9a3d 9eac 763d
00000300: 8cf4 9ebc 716e b9bc 1ff5 2e3d 90cb d93c
00000310: 05da 893d 9de2 b1bd f438 70bd 4341 9b3c
00000320: b846 9a3a f688 15bd d2e3 2cbe 27d8 243c
00000330: 8b9a be3e 7b2c 06be 3a0c 183c f784 813e
00000340: dd5e a7bd 453b b8bd 508d f13e 68bc 33bd
00000350: 3bce 943d 8b53 8dbd 3fb1 44bb 5cbc 74bc
00000360: 9453 9a3c 613e 2f3d 3e81 05bd 02b4 73bc
00000370: b802 fc3b 6dfe f8bc d8c5 f83c 6891 313e
00000380: 2ceb e73d acaa ac3e e0d4 a83e ca1b 273d
00000390: 0cc1 173e 274d 8d3d 41c8 39bc 0869 b6bc
000003a0: ac7a 4bbd 7713 e3bd 9a83 363a a3d9 b4bb
000003b0: df71 0e3d 7441 443d 2a68 753d 878e c93e
000003c0: 2837 903d 912a 5b3d cb6a 9a3e aaa5 02bd
000003d0: a19b 1e3f d9c6 1bbd 9247 cdbb 88f4 483d
000003e0: 12b4 34bd 8040 29be 5178 c83c 7e9b 233d
000003f0: b0a8 97bd ffb4 9abd b902 abbd 191d 1e3e
0.008999392 -0.031141536 -0.060315933 0.03763074 -0.07858341 -0.049868267 0.08478991 0.02746047
0.032277353 -0.025153957 0.07473119 0.06400537 -0.03415592 0.062028967 0.06730353 0.014648011
-0.009461217 0.08503016 0.05923236 -0.004618965 -0.044088 -0.037488483 0.017206617 0.06019921
0.08555544 -0.08690079 -0.14010018 -0.086470634 -0.005152568 0.07341535 0.05209642 0.07982479
0.0028073192 0.0023944452 0.052832343 0.031370856 -0.08211234 0.04076927 -0.0818984 0.033657596
-0.060838226 -0.048577417 -0.06429865 -0.056261115 -0.04565298 0.051234968 -0.05819252 -0.04750059
-0.075929165 -0.1301595 -0.021037385 -0.010016054 -0.051177718 0.06138598 -0.0578702 -0.035606068
0.033434074 -0.045248456 -0.08947862 0.02052036 -0.02999882 0.04651072 0.023343123 0.0058385916
-0.06480251 0.025659211 0.005080469 0.08587181 0.04384496 0.025349677 -0.06959039 -0.06729706
-0.08541732 -0.027660241 -0.03933776 0.0022078604 -0.019862795 -0.021243751 0.08012647 -0.036204606
0.06069962 0.086273424 -0.045101166 -0.030419614 -0.028690085 0.012497827 -0.03453109 0.112511635
-0.03199912 0.068852685 0.05305972 -0.016524935 -0.00045765936 -0.0066486523 0.0077909403 -0.0933634
-0.02965077 -0.013792208 0.008539274 0.016734853 -0.07372764 0.02657365 0.003797181 -0.079360954
-0.0013467483 -0.0029463395 0.04989671 -0.0127274245 -0.07873128 -0.073229566 0.043468453 -0.0003448966
-0.006873958 0.029105082 -0.044611447 0.013844572 -0.09018197 -0.00060224533 0.05949559 0.029853664
0.008091375 -0.08217749 0.086533405 0.081500076 -0.044433292 0.08242696 0.00020630269 -0.045289494
0.07803369 -0.07531432 0.0075582215 0.012548151 -0.012356295 0.03822938 -0.072603375 -0.020265881
0.006195313 0.27337003 -0.12697995 -0.042627197 -0.0433945 0.01580673 -0.023384787 0.014738786
-0.05876358 0.006735942 0.031102277 -0.15952618 -1.5242294 -0.02674875 -0.17444402 -0.0618266
0.0034788148 0.0009244225 0.6523176 0.022377787 0.021421785 -0.04563558 -0.103107676 0.008610875
-0.035807844 0.038226143 -0.018642766 0.07223422 -0.033783067 -0.047647905 -0.01700931 -0.047606286
0.0016853607 -0.34161028 0.24969862 -0.08622146 0.0651534 -0.032599833 0.10666778 -0.06457248
0.37581998 0.46521968 0.119956166 0.013975305 -0.026693093 -0.07813661 0.41429994 -0.10209415
0.09246207 -0.010386964 -0.020133302 0.021872038 -0.07619431 0.012735863 0.07557852 0.060223214
-0.019403718 -0.02263567 0.042714234 0.026586324 0.06731037 -0.08685801 -0.058648065 0.018952018
0.0011770343 -0.03650757 -0.16883782 0.0100613 0.37227282 -0.13102905 0.009280259 0.25296757
-0.081723906 -0.0899568 0.47178125 -0.04388085 0.07265898 -0.069007 -0.0030012873 -0.0149374865
0.018838681 0.0427841 -0.032593958 -0.01487446 0.007690754 -0.030394757 0.030367777 0.17340624
0.11324152 0.33723962 0.3297491 0.040797986 0.14819735 0.06899481 -0.011339248 -0.02226688
-0.049677536 -0.11087697 0.0006962359 -0.0055191084 0.034776565 0.047913983 0.05991379 0.39366552
0.0704177 0.05350739 0.30159602 -0.03189627 0.6195622 -0.038031433 -0.0062646354 0.04906133
-0.04411704 -0.16528511 0.024471434 0.03994321 -0.074052215 -0.075540535 -0.08350129 0.15440787

network.4.bias f4 [64]
00000000: 9fc8 f2bd 8fc1 0b3f bd62 f0be cbe0 e33e
00000010: b43b 8d3e dbc3 bcbd 59aa 0a3e a409 9c3e
00000020: 1bd3 033f 7d63 51bd 07b1 19be 2b0c c4bd
00000030: eadd 1e3f 7f2d 21be 445d 8abe aed0 a9ba
00000040: e633 23be f5cb ebbd 425f 92bd 2c6e 813e
00000050: 5172 f43d 99d1 08be 1bd3 3d3e c875 e9bd
00000060: bdcc 593e 066f 563d 8ebb c9bd 6380 183f
00000070: d9c2 b33c 5eaf 783e 74ad babd 0fd9 8fbd
00000080: c53a 6f3d c0a5 f13e 0966 9d3e 4bd2 f33e
00000090: 3de5 313e fd05 13be c237 2b3c 4344 47bd
000000a0: 17bf a0bd 2170 d8bd d258 113f f10a 26ba
000000b0: 46e3 cb3e d97f fcbd efac 023e b581 ef3e
000000c0: bc1d cb3d a579 173f 1440 a13d 0fbd b93e
000000d0: 7ad6 613e b2ef 8c3d e4ab 2c3f b4b8 22bd
000000e0: 52bb c63e da24 763e ec4c 89bd 100c ccbd
000000f0: 38d4 ce3d 566a 9d3e 1785 d83e 3858 66bd
-0.11854672 0.5459222 -0.4695033 0.4450744 0.27584612 -0.09217044 0.13541545 0.30476105
0.51493996 -0.05112027 -0.15008937 -0.09572633 0.62057364 -0.15740012 -0.2702428 -0.0012955868
-0.15937766 -0.11513511 -0.07147075 0.25279367 0.119358666 -0.13361205 0.18537562 -0.11399418
0.21269508 0.052351974 -0.09850226 0.595709 0.021943497 0.24285647 -0.09115115 -0.070238225
0.058405656 0.4719677 0.3074191 0.47621378 0.17372604 -0.14357753 0.010450305 -0.048649084
-0.078489475 -0.10568262 0.56776154 -0.0006334028 0.39821833 -0.123290725 0.12761281 0.46778646
0.09917781 0.5916999 0.0787355 0.36277053 0.22054473 0.06881656 0.67449784 -0.039726928
0.3881479 0.24037495 -0.06704125 -0.09963238 0.10099071 0.3074519 0.4228904 -0.056236476

network.6.weight f4 [2, 64]
00000000: edba 983c f1ef 613e d310 d13e 30f5 023f
00000010: a012 36be 127f cfbc 7892 88be 91ef 693e
00000020: 0701 aa3e 0121 28bd 73d7 c4bc aa0b 803c
00000030: e8f5 ad3e b8bf a2bc 1bfc 0b3e f923 15bd
00000040: 6de3 93bd 8874 6d3d 4819 f0bc 231d 7dbd
00000050: 1dc8 7e3d daf2 3abd 392c f7bd 5970 f0bc
00000060: c932 ddbd 39d8 0cbe 192c de3c 92e7 403e
00000070: d061 bfbc 1f3a c3be 43e4 8ebe 158f 0a3e
00000080: d7a3 6bbe 93a3 433e 8cb1 d23e d6b6 503e
00000090: 8e65 5abf 1071 873d c5dd 91be b079 07bc
000000a0: 82b0 cebd c7eb 50bd a39b a63e 41cb c63d
000000b0: 7047 ea3e 88bf 58bd 2b68 83bd 5b73 ca3e
000000c0: efd2 08be 6a5d d93e 6d81 b93d c4e6 9e3e
000000d0: 4e55 e9bb 093e dbbe 7633 963e f837 e4bc
000000e0: 5ead a63d 055b 96be c250 653c 3e98 49bd
000000f0: 223c 8ebe cd49 77bd 9650 b33e dcaf 21bd
00000100: 5715 143c 0c7d f63e 4d77 d63d aab2 d83e
00000110: 90bb d13e d253 dfbc 6a12 a23d 1139 093f
00000120: 3db3 0f3f ef74 11ba cbf6 c8bc ec07 923d
00000130: 914b 263f b39d df3a 5f75 903d 71a2 573e
00000140: f241 543b af1c d0bb 04c7 5ebd 8376 ca3e
00000150: c3cf 53be 9367 06be 6108 213e 6e0b fdbc
00000160: 64fe 3d3e 3743 02be a5b8 a2bd 0af1 3d3f
00000170: df9c 2c3e b311 9dbd 41fc 04bd 9a71 033e
00000180: 7a56 4f3e b4f1 103f 3293 133f dbdd da3e
00000190: 4a18 b73e 0e28 f93b 9d39 20bc 4a2f 2a3d
000001a0: 2519 97bd de9b 07bd 4265 f83e bb8e 04be
000001b0: efde 223f 9cf6 af3c e856 533e 68ae d53e
000001c0: a3b5 e73d b341 fe3e 82aa 1c3f 851d d03e
000001d0: 5ff4 d73e 852a 863e 88d4 1c3f 29c0 c43c
000001e0: 22c3 163f cbdc 7a3e abdd 303d dbc0 c63c
000001f0: 7ebf 613d bcb9 ad3e 9b14 1c3f 20dc c9bb
0.01864382 0.22064187 0.40833148 0.51155376 -0.17780542 -0.025329147 -0.26674247 0.22845294
0.3320391 -0.0410471 -0.024028515 0.015630562 0.33976674 -0.01986681 0.1367039 -0.03641126
-0.072211124 0.05797246 -0.02930893 -0.061795365 0.06220256 -0.045641758 -0.12068982 -0.029350447
-0.10800702 -0.13754357 0.027120637 0.18838337 -0.02336207 -0.3813028 -0.27908525 0.13531144
-0.23011719 0.19105367 0.41151083 0.20382246 -0.8531121 0.06613362 -0.2848951 -0.008268759
-0.1009226 -0.051006105 0.32540616 0.09706736 0.45757627 -0.052917033 -0.06416353 0.39541134
-0.13361715 0.42454082 0.09057889 0.31035435 -0.007120765 -0.42820767 0.29336137 -0.02785872
0.08138536 -0.29366317 0.013996305 -0.049217455 -0.27780253 -0.060373116 0.3502242 -0.039474353
0.009038291 0.48142278 0.104719736 0.4232381 0.4096341 -0.027261648 0.079136685 0.536027
0.5613287 -0.00055487355 -0.024531743 0.07130417 0.64959055 0.0017060548 0.07053637 0.2105806
0.003238794 -0.0063510756 -0.054389015 0.39543542 -0.20684724 -0.13125448 0.15725853 -0.03088924
0.18554074 -0.12720953 -0.079453744 0.7419592 0.16856717 -0.076693915 -0.03246713 0.12836304
0.20247832 0.5661881 0.5764648 0.42747387 0.3576072 0.007603652 -0.009779361 0.041549005
-0.07377843 -0.03310763 0.48514754 -0.12945072 0.6362142 0.021479897 0.20638621 0.41734624
0.11313941 0.496595 0.61197674 0.40647522 0.42178628 0.26204315 0.61261797 0.02401741
0.588915 0.24498288 0.04318015 0.024261883 0.05511426 0.33930767 0.6096894 -0.006160274

network.6.bias f4 [2]
00000000: 852b 813f c7e7 733f
1.0091406 0.9527554
