models/monopoly_ai_trading.pth (torch, 194165 bytes, 8 tensors)

fc1.weight f4 [128, 176]
0	0xbcd064af	-0.025438635
1	0x3ffb87b2	1.9650786
2	0x3e11dfe9	0.14245571
3	0xbfd50b91	-1.6644155
4	0xbc1c8ca3	-0.009555015
5	0xbe5ffed8	-0.21874559
6	0xbeadcdaa	-0.33945972
7	0xbf9c734a	-1.2222683
8	0x3d1d12c8	0.03834799
9	0xbc85f7e4	-0.016353555
10	0xbec764af	-0.38944003
11	0xbf970611	-1.1798726
12	0xbcc2d0fc	-0.023781292
13	0xbdff7cd2	-0.124749795
14	0x3e1feeab	0.15618388
15	0xbf7e52d8	-0.9934516
16	0xbc3a7f80	-0.011382937
17	0xbe8f6925	-0.28009906
18	0xbd412e44	-0.047163263
19	0x3d5177e0	0.051139712
20	0x3de423fa	0.111396745
21	0xbe979826	-0.29608268
22	0xbd4d436d	-0.05011313
23	0x3d089bb6	0.033351623
24	0xbd0cfbcb	-0.034419816
25	0xbe88f221	-0.2674723
26	0xbd0855bb	-0.033284884
27	0xbb5c22a0	-0.0033589974
28	0xbead9885	-0.33905426
29	0xbe5cf103	-0.21576314
30	0xbd99aeca	-0.075040415
31	0x3d1fed8c	0.0390449
32	0x3d4fab94	0.05070074
33	0xbe547c10	-0.20750451
34	0xbd87c660	-0.06629634
35	0xbd41c30c	-0.04730515
36	0x3e81aad7	0.25325653
37	0xbe93cb12	-0.28865868
38	0x3d0a0d20	0.033703923
39	0xbd8286bf	-0.06373357
40	0xbf1c5e26	-0.6108116
41	0xbe83d307	-0.2574694
42	0xbd32a337	-0.043612685
43	0xbc37cfe8	-0.011219002
44	0x3d634328	0.055483967
45	0xbe7933c4	-0.24336153
46	0x3cc9cf7c	0.02463507
47	0x3cbe95e8	0.02326484
48	0x3e176f0c	0.14788455
49	0xbe5f3c37	-0.21800314
50	0xbcb657ea	-0.022258718
51	0xbd98dc08	-0.07463843
52	0x3ea44787	0.3208582
53	0xbe33d9fa	-0.1756362
54	0xbc0a01d8	-0.008423291
55	0x3be8c820	0.007103935
56	0xbd3b433e	-0.045718424
57	0xbe9cd9a3	-0.30634794
58	0x3d425812	0.04744727
59	0x3cc5247c	0.024065249
60	0x3e1cc842	0.15310767
61	0xbe2fea61	-0.17179252
62	0xbcf248b0	-0.029575676
63	0x3d774124	0.060364857
64	0x3fa5e0f2	1.2959273
65	0xbe3ad82d	-0.18246527
66	0x3d914ea0	0.07095075
67	0xba7d4180	-0.00096609443
68	0x3dec65e9	0.11542875
69	0xbe9ca322	-0.3059321
70	0x3d86d536	0.065836355
71	0x3cea2f2c	0.028586946
72	0xbd9aa08b	-0.075501524
73	0xbe976b70	-0.29574156
74	0xbd437a82	-0.047724254
75	0xbd37f7b0	-0.044913948
76	0x3e11a683	0.14223675
77	0xbe8ee422	-0.27908427
78	0xbcd478aa	-0.025936443
79	0x3d840f4c	0.0644823
80	0x3eb434c9	0.35196522
81	0xbe827a09	-0.2548373
82	0x3d51dc2c	0.051235363
83	0xbc0e80a0	-0.008697659
84	0x3d88782c	0.06663546
85	0xbe5a74f0	-0.2133367
86	0xbd4b663f	-0.049658056
87	0xbd8c5c57	-0.0685355
88	0xbf2c4eb0	-0.6730757
89	0xbe9ae0c3	-0.30249605
90	0x3b23a500	0.0024970174
91	0x3d80a5aa	0.06281598
92	0x3ef30890	0.4746747
93	0xbe8de3c9	-0.2771285
94	0x3cc93e14	0.024565734
95	0x3ccb5100	0.024818897
96	0x3cf3a5ec	0.029742204
97	0xbe978e48	-0.2960074
98	0x3d85ce9e	0.0653355
99	0xbd6646ac	-0.05621974
100	0xbe0400f7	-0.12890993
101	0xbe8e436d	-0.27785817
102	0x3d8771aa	0.066134766
103	0xbd8b8430	-0.06812322
104	0xbd893657	-0.06699818
105	0xbe636d41	-0.22209646
106	0xbd52fdfc	-0.05151175
107	0xbd3781ac	-0.0448014
108	0x3f470804	0.77746606
109	0xbe2873bc	-0.16450399
110	0x3d6e30c4	0.058151975
111	0xbd0da7e7	-0.034583952
112	0x3dcc0ad3	0.09963002
113	0xbe7d5bf4	-0.24742109
114	0x3c87731c	0.01653438
115	0xbbd523c0	-0.006504506
116	0xbe3a2fbc	-0.18182272
117	0xbe60f1bf	-0.21967219
118	0xbd917664	-0.07102659
119	0x3b995da0	0.0046803504
120	0xbec2756a	-0.37980205
121	0xbe5c2def	-0.21501897
122	0xbc0da030	-0.008644149
123	0x3d47b76c	0.04875891
124	0x3f5432f2	0.82890236
125	0xbe6439bf	-0.22287653
126	0x3c58ce80	0.013232827
127	0x3d4dfefc	0.050292
128	0x3f1f5bba	0.6224934
129	0xbe982fc5	-0.29723945
130	0x3d215a96	0.03939303
131	0x3cf47d0c	0.029844783
132	0x3eb849b7	0.3599374
133	0xbe454897	-0.19265972
134	0xbc2fc1d0	-0.010727361
135	0x3d47262e	0.048620395
136	0xbd0faee8	-0.035078913
137	0xbe4c131c	-0.19929165
138	0x3d4e4f00	0.05036831
139	0x3d2643f8	0.040592164
140	0xbe840686	-0.25786227
141	0xbe95b191	-0.29237035
142	0xbc321738	-0.010869794
143	0xbbc6c380	-0.006065786
144	0x3e82c757	0.2554271
145	0xbe69a92e	-0.22818443
146	0xbcc4e932	-0.024036977
147	0xbd0be250	-0.034151375
148	0x3d966d38	0.073450506
149	0xbe5c6cf6	-0.2152594
150	0xbd8e60e4	-0.06952074
151	0xbc8e560a	-0.017375011
152	0xbe6019a6	-0.21884784
153	0xbe9a258a	-0.30106765
154	0x3d1a4464	0.03766288
155	0xbd8d5405	-0.06900791
156	0xbde3854a	-0.11109407
157	0xbe992ef0	-0.29918623
158	0xbc53e0b8	-0.012931995
159	0x3d01731c	0.031603917
160	0xbd0d0cfb	-0.034436207
161	0xbe956871	-0.29181245
162	0x3d0c2b12	0.034220763
163	0xbd1e2223	-0.038606774
164	0x3f9327c8	1.1496515
165	0xbe845eb2	-0.25853497
166	0x3d2b3ae0	0.041804194
167	0x3d2abd5c	0.041684493
168	0xbc836038	-0.016037092
169	0xbe73e82e	-0.23819038
170	0x3d99d044	0.07510427
171	0xba3a2a00	-0.00071015954
172	0xbd8c86ca	-0.068616465
173	0xbe93a150	-0.2883401
174	0xbd48d745	-0.049033422
175	0xbd186590	-0.037206233
176	0xbe9f78cd	-0.3114685
177	0xc089c8eb	-4.305776
178	0xbf9b5b44	-1.2137227
179	0xbf2ab7f7	-0.6668696
180	0xbe8e3212	-0.27772576
181	0xbf683b23	-0.90715235
182	0xbeb99404	-0.3624574
183	0xbf3f548f	-0.747384
184	0xbe7a46e9	-0.24441113
185	0xbfa3f6b9	-1.2809669
186	0x3ec63a00	0.38716125
187	0xbf3d2b2b	-0.73893994
188	0xbe8caf25	-0.27477375
189	0xbfc40f15	-1.5317103
190	0xbe2d8369	-0.1694466
191	0xbf0723e6	-0.5278915
192	0x3ce2a618	0.02766709
193	0xbeaaa0eb	-0.33325896
194	0x3cfee33c	0.031114213
195	0xbc36d368	-0.011158802
196	0x3ec2d6f2	0.38054615
197	0xbe59f37f	-0.21284293
198	0x3d381548	0.04494217
199	0x3d509478	0.05092284
200	0x3d0ab8fe	0.03386783
201	0xbe6ad1ed	-0.22931643
202	0xbd8349c9	-0.06410558
203	0xbd964212	-0.07336821
204	0xbf00c44f	-0.50299543
205	0xbe7ff1bd	-0.2499456
206	0xbd8f9452	-0.07010712
207	0x3d1acb08	0.037791282
208	0x3cad2f60	0.021140754
209	0xbeaa7184	-0.3328973
210	0xbcd2ba90	-0.025723726
211	0xbd07baf6	-0.033137284
212	0x3f360159	0.71095806
213	0xbeb3f8e2	-0.3515082
214	0x3c7c81b8	0.015411787
215	0x3d421204	0.047380462
216	0xbe296788	-0.165434
217	0xbe57fdb9	-0.21092881
218	0xbd07f81c	-0.0331956
219	0xbc9ea144	-0.019364007
220	0x3d52602c	0.051361248
221	0xbe8d63ad	-0.2761511
222	0xbc4be348	-0.012444325
223	0xbad01140	-0.0015874282
224	0x3fc761ed	1.557676
225	0xbeaa3551	-0.33243802
226	0x3d698304	0.05700971
227	0x3d541870	0.051781118
228	0x3ec9d7b5	0.39422384
229	0xbe9a4ce2	-0.30136782
230	0xbd1fc89a	-0.039009668
231	0x3d95758c	0.07297811
232	0x3d4b9440	0.04970193
233	0xbe9113cb	-0.28335413
234	0x3d98e154	0.07464853
235	0x3d7c36a4	0.061575547
236	0xbe1bcdae	-0.1521518
237	0xbe7b8961	-0.24564125
238	0x3d068fea	0.03285209
239	0xbbe1e0a0	-0.0068932325
240	0xbf143c09	-0.57904106
241	0xbe729aa1	-0.23691799
242	0x3cd3f664	0.025874324
243	0x3bfcbc50	0.0077128783
244	0x3f75cd72	0.9601661
245	0xbe84fdc6	-0.25974864
246	0x3a6bf200	0.00090005994
247	0xbcd080a6	-0.02545197
248	0x3f02e5c1	0.51131827
249	0xbe602c17	-0.21891819
250	0x3d88517e	0.066561684
251	0xbcfa122c	-0.030526243
252	0xbf934672	-1.1505873
253	0xbe63fc1e	-0.22264144
254	0x3d954808	0.072891295
255	0x3cb2796c	0.021786414

fc1.bias f4 [128]
0	0xbe4191ee	-0.18903324
1	0xbe67b8de	-0.22629115
2	0xbe99c37b	-0.30031952
3	0xbdd92e64	-0.106045514
4	0xbc4afbb8	-0.012389116
5	0xbd1bf795	-0.03807791
6	0x3e0b7a84	0.13620955
7	0xbc00223a	-0.00782066
8	0xbd96dd23	-0.07366397
9	0x3cbe7475	0.02324889
10	0xbe0fa42d	-0.14027472
11	0xbe7143e0	-0.23561049
12	0x3eabf70f	0.33586928
13	0xbe92cdaf	-0.2867255
14	0xbea56175	-0.32300916
15	0xbd9e5b05	-0.07732204
16	0xbe390537	-0.18068396
17	0xbe60efb0	-0.21966434
18	0x3d7599b2	0.05996103
19	0x3e8e102f	0.27746722
20	0xbe3bcf47	-0.18340789
21	0xbdb63ad9	-0.08897943
22	0xbe9ac27e	-0.3022651
23	0xbe77c87b	-0.24197571
24	0xbdbfa9a0	-0.09358525
25	0xbdcfe571	-0.10151184
26	0x3d3c212b	0.04593007
27	0xbe9a2094	-0.3010298
28	0x3cf9f16f	0.030510632
29	0xbe44052f	-0.19142602
30	0x3dbbf517	0.091776066
31	0xbe4dc9a9	-0.20096458
32	0xbdf85237	-0.12125056
33	0xbe39ac73	-0.1813219
34	0xbd93e861	-0.07222057
35	0x3cb6adb2	0.022299621
36	0xbe4587f0	-0.19290137
37	0xbd8c267e	-0.06843279
38	0xbea62e34	-0.32457125
39	0x3e4ef44c	0.2021038
40	0xbe2092c5	-0.15680988
41	0x3e7d12ee	0.24714252
42	0xbda866c7	-0.08222728
43	0xbe637719	-0.22213401
44	0xbe6a3945	-0.22873409
45	0x3dd25ec5	0.10271982
46	0xbe5247c2	-0.20535186
47	0xbd8ef408	-0.06980139
48	0xbda5c71e	-0.08094619
49	0xbd778059	-0.060425136
50	0x3b6575b3	0.003501278
51	0xbe16a1e2	-0.14710191
52	0x3e6b20b1	0.2296169
53	0xbcb3e855	-0.02196137
54	0xbcbed7e3	-0.023296302
55	0xbdbf5d3d	-0.09343956
56	0x3d680564	0.056645766
57	0xbe2f1cbb	-0.17100804
58	0x3b8c1302	0.004274727
59	0xbe9f1e8c	-0.31077993
60	0xbe486aba	-0.19571963
61	0xbd93ad4d	-0.07210789
62	0xbd27e2fd	-0.040987957
63	0xbde38932	-0.11110152
64	0xbdc0ca96	-0.0941364
65	0x3e2486d5	0.1606706
66	0xbd8549d8	-0.06508225
67	0xbea8c3ba	-0.32961828
68	0xbde6bba5	-0.11266259
69	0x3e1286b3	0.14309196
70	0xbdb6179f	-0.08891224
71	0x3e25654d	0.16151924
72	0xbe417fe9	-0.1889645
73	0xbdd321b5	-0.103091635
74	0xbe75979f	-0.2398362
75	0xbe2ba0f2	-0.16760615
76	0xbe01b33f	-0.12666033
77	0xbe9113a6	-0.28335303
78	0xbd9287b0	-0.071547866
79	0xbc2a84fd	-0.010407683
80	0xbe7129f1	-0.23551156
81	0xbe1ab160	-0.15106726
82	0xbe15420e	-0.14575979
83	0xbe913834	-0.28363192
84	0xbe334520	-0.17506838
85	0xbea54540	-0.32279396
86	0xbdf479d4	-0.11937299
87	0x3d050723	0.03247751
88	0x3dadb1bf	0.08481168
89	0xbdb845c5	-0.089976825
90	0xbc0a8190	-0.008453742
91	0xbe08cacd	-0.13358612
92	0xbde864c0	-0.113473415
93	0xbe5ca601	-0.215477
94	0xbc95772e	-0.018245306
95	0x3dc35cbd	0.09539173
96	0xb9e6bfa0	-0.0004401179
97	0xbe6df26b	-0.23237006
98	0xbda54edc	-0.08071682
99	0xbdd6fde2	-0.10497643
100	0xbde249da	-0.11049242
101	0xbd8f8123	-0.07007053
102	0xbe6ffe1b	-0.23436777
103	0x3e6c092c	0.23050374
104	0xbd86ced0	-0.06582415
105	0xbe5ba71e	-0.21450469
106	0xbddca722	-0.107740656
107	0x3e69cee2	0.22832826
108	0xbe2ab0d5	-0.16669019
109	0xbe05d589	-0.13069738
110	0x3e786569	0.24257435
111	0x3ea7a215	0.32740846
112	0xbd7fd510	-0.06245905
113	0xbe9122ba	-0.28346807
114	0xbe83ab8e	-0.25716823
115	0xbdda6fe8	-0.10665876
116	0x3d8136f9	0.06309313
117	0xbe67fc61	-0.22654869
118	0xbeae997d	-0.34101477
119	0xbe36a83f	-0.17837618
120	0xbcfb1453	-0.03064934
121	0xbe1ac7e3	-0.15115313
122	0x3c9ee0e0	0.019394338
123	0xbeb5389d	-0.35394755
124	0x3e9cba0d	0.30610695
125	0xbe09b985	-0.13449676
126	0xbe4ce238	-0.2000817
127	0xbdea6a73	-0.11446085

fc2.weight f4 [128, 128]
0	0xbea945e5	-0.33061138
1	0x3de043a5	0.10950402
2	0x3d6aa67a	0.05728767
3	0x3cd63d04	0.026152141
4	0xbd3b3a17	-0.045709696
5	0xbe35c3c4	-0.1775046
6	0xbf6326e5	-0.88731223
7	0xbd2784c6	-0.040898107
8	0xbda3be61	-0.07995296
9	0xbf4c5c1f	-0.79828066
10	0xbea26064	-0.31714165
11	0xbe842c08	-0.25814843
12	0xbeeb68f4	-0.4597851
13	0xbebb1203	-0.3653718
14	0x3ebb66a9	0.3660176
15	0x3d990237	0.074711256
16	0x3ea98d37	0.3311555
17	0xbe69b1a2	-0.22821668
18	0xbee72c14	-0.45150816
19	0xbee78437	-0.4521806
20	0x3d3aebf2	0.04563517
21	0xbe843fb5	-0.25829855
22	0xbea46ccb	-0.32114252
23	0x398d8568	0.0002699301
24	0xbc98e835	-0.018665412
25	0x3c91e671	0.017810078
26	0xbecab0ba	-0.39587957
27	0x3e804240	0.25050545
28	0xbf264cc4	-0.64960885
29	0xbe66604c	-0.22497672
30	0xbe960dc6	-0.29307383
31	0x3de601b5	0.11230794
32	0x3ead412e	0.3383879
33	0xbe211855	-0.15731938
34	0x3e389661	0.18026115
35	0x3d9bcf4b	0.07607897
36	0x3df27faf	0.1184076
37	0x3e5b3f2e	0.2141082
38	0xbf030e8d	-0.5119408
39	0xbe939e69	-0.28831795
40	0xbc7683a4	-0.015046034
41	0xbe8f577e	-0.2799644
42	0x3d02ea6e	0.03196185
43	0xbe58494a	-0.21121708
44	0x3e74f89c	0.23922962
45	0xbdcef5fd	-0.10105512
46	0xbe34908a	-0.17633262
47	0xbf085bc9	-0.53265053
48	0x3e877d21	0.26462653
49	0x3e4f3253	0.20234041
50	0x3a08fafe	0.0005225389
51	0x3e18c7b3	0.14919929
52	0x3cb27e61	0.021788778
53	0xbef5c0c9	-0.47998646
54	0xbb15477d	-0.0022778206
55	0x3e0aea3c	0.13565916
56	0xbedab50d	-0.42716256
57	0xbdfa0018	-0.12207049
58	0x3d221cc7	0.039578225
59	0xbe1bc772	-0.15212801
60	0xbea5e1dc	-0.3239888
61	0x3dade634	0.084911734
62	0x3e3caf5c	0.1842627
63	0x3b7d486a	0.0038647898
64	0x3f170f54	0.59007764
65	0xbcf8a21c	-0.030350737
66	0x3dc21075	0.09475795
67	0xbc2048bd	-0.009782967
68	0xbc3fb273	-0.01170026
69	0x3d4abff8	0.049499482
70	0xbd0125c3	-0.031530153
71	0xbd350fd3	-0.044204544
72	0xbe634c3b	-0.22197048
73	0xbb1b8763	-0.002373182
74	0x3e882686	0.2659189
75	0xbbabdcab	-0.0052448115
76	0xbda0919d	-0.078402735
77	0xbe0e5af7	-0.13901888
78	0x3eec88cf	0.46198127
79	0xbc6804e1	-0.0141613195
80	0x3e6adab7	0.22934996
81	0xbee8b445	-0.45450035
82	0x3ce9c537	0.028536422
83	0xbf1120fc	-0.56690955
84	0x3e169d6c	0.14708489
85	0x3da350d4	0.07974401
86	0x3e086283	0.13318829
87	0x3ce07d4a	0.027403492
88	0xbda68ce4	-0.081323415
89	0xbd8ff4f2	-0.070291415
90	0xbc390525	-0.01129273
91	0xbd9d743e	-0.07688187
92	0x3c17a2d6	0.009255132
93	0xbe7df056	-0.24798712
94	0xbd44b66c	-0.048025534
95	0xbe926393	-0.28591594
96	0x3bfc177c	0.0076932292
97	0xbe5eb01f	-0.21746872
98	0xbebd006b	-0.3691438
99	0x3e2cc305	0.16871269
100	0xbdcdfcd1	-0.100579865
101	0xbce296d5	-0.027659813
102	0xbf124dad	-0.57149774
103	0x3e5df018	0.2167362
104	0xbe7cbb14	-0.2468074
105	0x3e83d167	0.257457
106	0xbf136d47	-0.5758862
107	0xbe630a82	-0.22171977
108	0xbdf5bb7c	-0.119986504
109	0xbdf34c6c	-0.11879811
110	0xbd5d1a43	-0.053980123
111	0xbdd6c66f	-0.10487067
112	0x3bf5b68f	0.0074985693
113	0xbf20075a	-0.6251122
114	0x3e33cc45	0.17558391
115	0xbc12d59a	-0.008962059
116	0xbe2a17e7	-0.1661068
117	0xbe973a5c	-0.29536712
118	0x3e64b161	0.2233329
119	0xbd6c54c2	-0.05769802
120	0x3d9925c5	0.07477907
121	0x3e77bcfe	0.24193189
122	0xbf0b7395	-0.5447324
123	0xbe91f04e	-0.2850365
124	0xbd28fc7d	-0.041256417
125	0xbeaeaef8	-0.34117866
126	0x3c2756eb	0.010213594
127	0xbde3d693	-0.11124911
128	0xbd7944e5	-0.06085672
129	0x3d174e1b	0.03693972
130	0x3d16cd02	0.036816604
131	0xbd14266f	-0.036169466
132	0xbd1a2001	-0.037628178
133	0xbd13030f	-0.03589159
134	0xbad5fe13	-0.001632633
135	0xbd62237d	-0.055209626
136	0x3bcbaa41	0.006215364
137	0xbde10df9	-0.10988993
138	0x3cd5d45e	0.026102241
139	0x3d17f6dc	0.037100658
140	0xbd220fce	-0.039565854
141	0xbd7d8fe7	-0.061904814
142	0x3ac7adc0	0.0015234277
143	0x3b0540c8	0.0020332802
144	0xbd8fef2a	-0.07028039
145	0x3cf4987f	0.029857872
146	0xbe10d0d7	-0.14142166
147	0xbd360c17	-0.044445124
148	0x3d857a15	0.06517426
149	0xbd741eee	-0.05959981
150	0x3bfa1d5e	0.0076328954
151	0xbcfe8f1c	-0.0310741
152	0xbd5c5a0c	-0.053796813
153	0xbcacede3	-0.021109527
154	0xbb7bbf09	-0.0038413426
155	0xbbf4d5f2	-0.0074717933
156	0xbdb3ed71	-0.08785523
157	0xbd423389	-0.04741243
158	0xbd7f759c	-0.06236802
159	0xbd4e9e9a	-0.050444223
160	0xbca05ed5	-0.01957647
161	0xbbdef942	-0.006804616
162	0x3cf79f0d	0.030227209
163	0xbd6f138b	-0.058368247
164	0xbd17aedb	-0.03703199
165	0xbca19c4a	-0.019727845
166	0xbd9db47a	-0.07700439
167	0x3d0082d2	0.03137476
168	0x3d70d5e7	0.058797743
169	0xbdb7c325	-0.08972768
170	0xbda1749b	-0.07883569
171	0xbc9b0050	-0.018921047
172	0xbd08a575	-0.033360917
173	0x3cd39a8e	0.025830533
174	0xbd1a5ba9	-0.03768507
175	0xbcbd52aa	-0.023110706
176	0xbdb6e733	-0.089308165
177	0xbd9a0a61	-0.07521511
178	0xbbb2befe	-0.005454897
179	0xbd7d9d63	-0.061917674
180	0xbd85d65a	-0.06535025
181	0xbd1fb4d9	-0.03899083
182	0x3b02815a	0.0019913525
183	0x3c86cd2c	0.016455255
184	0xbcf9d475	-0.030496815
185	0xbc99027b	-0.01867794
186	0xbd48d720	-0.049033284
187	0xbca07051	-0.019584807
188	0xbd921848	-0.071335375
189	0x3d9992a4	0.074986726
190	0x3d186e48	0.037214547
191	0x3cf9d141	0.030495288
192	0xbd9e3966	-0.07725792
193	0x3c316eac	0.010829609
194	0x3d07243f	0.03299355
195	0xbd39d865	-0.045372386
196	0xbd3b61c5	-0.045747537
197	0x3ae58342	0.0017510431
198	0x3d99f1d8	0.07516831
199	0xbdb54f15	-0.08852974
200	0xbdd94b1e	-0.106100306
201	0x3bcf691c	0.0063296687
202	0xbd78acdc	-0.060711727
203	0xbc132ae6	-0.008982396
204	0x3c6fcb1f	0.01463583
205	0x3d665e62	0.056242354
206	0xbce10171	-0.027466508
207	0x3c37a7ee	0.011209471
208	0xbc3d4230	-0.011551425
209	0x3d231291	0.03981263
210	0x3d6988be	0.057015173
211	0xbccb2456	-0.0247976
212	0xbe09e494	-0.13466102
213	0x3bed4d22	0.007241861
214	0xbdb56668	-0.08857423
215	0xbd5f4804	-0.05451204
216	0xbc14c226	-0.009079492
217	0xbdadcdfb	-0.08486553
218	0xbc85cd03	-0.016333109
219	0x3c4b1a7e	0.012396453
220	0xbc7db92c	-0.015486043
221	0x3c78a1a5	0.015175258
222	0xbc9b3a28	-0.01894863
223	0xbd9911d2	-0.07474102
224	0xbc8eb086	-0.017418157
225	0x3caae1c7	0.020859612
226	0xbd0cd6de	-0.0343846
227	0xbc0823bf	-0.008309304
228	0xbc0a3d3f	-0.008437454
229	0x3b71f8e0	0.0036922023
230	0x3ced953f	0.02900183
231	0xbdc6bd84	-0.09704116
232	0xbd8a2deb	-0.067470394
233	0xbdd782da	-0.10523005
234	0x3c9ee9f9	0.019398676
235	0xbda82788	-0.08210665
236	0x3d79720b	0.060899775
237	0xbd5d1ca4	-0.053982392
238	0x3d3ee33b	0.046603423
239	0x3d0ba6d8	0.03409466
240	0x3cb5729c	0.022149377
241	0xbd994fdb	-0.07485934
242	0xbd65c430	-0.056095302
243	0xbd122ca2	-0.035687096
244	0x391fc0d3	0.00015235254
245	0xbcd9c767	-0.02658434
246	0xbd66ae01	-0.056318287
247	0xbce36a43	-0.02776063
248	0x3bb22c6f	0.005437426
249	0x3d1fff16	0.03906163
250	0x3cf7504c	0.030189656
251	0x3c274996	0.010210415
252	0x3d21d49d	0.039509404
253	0xbd8eb89a	-0.06968804
254	0xbc869e9f	-0.016433058
255	0xbddc1b07	-0.107473426

fc2.bias f4 [128]
0	0x3e7d3268	0.2472626
1	0xbd4872e0	-0.04893768
2	0xbd45d8c7	-0.048302438
3	0xbdac6af5	-0.08418838
4	0xba906413	-0.0011016153
5	0x3e5087e4	0.20364338
6	0xbea536c6	-0.3226835
7	0xbce8937e	-0.028390642
8	0x3b853c83	0.0040660514
9	0x3ec69875	0.3878819
10	0x3c6606c2	0.014039697
11	0xbdd5b8ad	-0.10435615
12	0x3bcceec3	0.0062540486
13	0x3ea61422	0.32437235
14	0xbe3b425e	-0.18287036
15	0x3d689016	0.056778036
16	0xbaca1b19	-0.0015419453
17	0x3dfffba0	0.124991655
18	0x3dd5d71c	0.104414195
19	0xbd83abd1	-0.06429256
20	0x3ee34cc3	0.44394502
21	0xbe8c51a6	-0.27406043
22	0x3e0a5a81	0.13511087
23	0xbc6ad2d1	-0.014332489
24	0xbd3c8cd1	-0.04603273
25	0x3d651819	0.055931184
26	0x3cbbe3a8	0.022935703
27	0x3da11d17	0.078668766
28	0xbcf1388c	-0.029445909
29	0xbd29455d	-0.041325916
30	0xbcb3ad63	-0.021933263
31	0x3e1befa5	0.15228136
32	0xbc97913f	-0.018501876
33	0xbd8418fc	-0.06450078
34	0x3d467834	0.04845448
35	0x3d6313a7	0.055438664
36	0x3df21d97	0.1182205
37	0xbdb2374e	-0.08701955
38	0x3e89f5e7	0.2694542
39	0x3e16a18f	0.14710067
40	0x3d80d11f	0.06289887
41	0x3c9ae2ad	0.018906916
42	0x3dc1f702	0.09470941
43	0xbcd9c37e	-0.026582476
44	0x3e2f204f	0.17102169
45	0x3f88d5a9	1.0690204
46	0x3d251311	0.040301386
47	0xbdf7c19d	-0.12097476
48	0xbc009e80	-0.007850289
49	0x3d970963	0.07374837
50	0x3df3b3c5	0.11899523
51	0x3e1428d2	0.14468697
52	0xbb637fd0	-0.0034713633
53	0x3e04c93c	0.1296739
54	0xbd2e18d8	-0.04250416
55	0xbbb8615a	-0.0056268396
56	0xb8a4933d	-7.847555e-05
57	0x3c9f6b19	0.019460248
58	0x3d00943d	0.03139137
59	0x3eb0d53c	0.34537685
60	0xbdc54169	-0.096316166
61	0xbd8c0a4b	-0.06837901
62	0xbd154478	-0.03644225
63	0x3ee8aa3f	0.45442387
64	0xbd99ef6a	-0.07516368
65	0xbde99494	-0.11405292
66	0xbdaef966	-0.08543663
67	0x3d8c51d9	0.06851549
68	0xbcde46b3	-0.027133321
69	0xbc912ecb	-0.017722508
70	0xbcf328c1	-0.029682519
71	0x3bcd88f4	0.0062724296
72	0x3b94e3f2	0.0045437748
73	0xbdc2aab2	-0.09505214
74	0xbe05d9ca	-0.13071361
75	0xbd6416d4	-0.055685833
76	0x3e3f4981	0.18680383
77	0x3e8b79d6	0.2724139
78	0xbd0f4747	-0.034980085
79	0xbe0ce180	-0.13757896
80	0xbda5c30b	-0.08093842
81	0x3e26a9a6	0.16275653
82	0x3c98ecad	0.018667543
83	0x3c9b7678	0.018977389
84	0x3e91bf2e	0.2846617
85	0x3d546adf	0.051859733
86	0x3e77c2ad	0.24195357
87	0x3e23ec55	0.16008122
88	0x3c15e5b2	0.009149002
89	0x3e1bccf4	0.15214902
90	0x3ac783c8	0.0015221769
91	0x3dd5b217	0.104343586
92	0xbd7c02dc	-0.061526164
93	0xbba26443	-0.0049558
94	0x3dd8331b	0.105566226
95	0xbd99fd57	-0.07519024
96	0x3d592f8f	0.05302387
97	0x3d5604f9	0.052250836
98	0x3da69f5f	0.081358664
99	0x3eaf5cde	0.3425054
100	0xbd423989	-0.04741815
101	0x3d0112ff	0.031512257
102	0xbe189177	-0.1489924
103	0x3d9326a1	0.07185102
104	0xbdebf642	-0.11521579
105	0x3c7ea80a	0.015542993
106	0xbe360769	-0.17776264
107	0xbdcdbe4d	-0.100460626
108	0x3d857a68	0.06517488
109	0xbde460c7	-0.11151271
110	0xbe06ed83	-0.13176541
111	0x3db3d17a	0.08780189
112	0x3e336955	0.1752065
113	0xbdc20d1a	-0.09475155
114	0xbd3b7332	-0.045764156
115	0xbe1a6f3a	-0.15081492
116	0xbdea27d3	-0.11433377
117	0xbdae1a3b	-0.08501097
118	0x3e672a27	0.22574674
119	0xbdc18989	-0.09450061
120	0xbda166b8	-0.0788092
121	0x3f05d60b	0.5227973
122	0xbe04efee	-0.12982151
123	0xbdec1481	-0.11527348
124	0x3c59f7c5	0.013303702
125	0x3ddec5e2	0.10877587
126	0xbd8c4689	-0.06849391
127	0xbdc4b89f	-0.09605526

fc3.weight f4 [64, 128]
0	0xbc754a7b	-0.014971371
1	0x3d0f3374	0.03496118
2	0xbc9beed1	-0.019034775
3	0xbdcf8f46	-0.10134749
4	0xbd24bcda	-0.040219165
5	0x3d5d03f3	0.053958844
6	0xbd892a1e	-0.06697486
7	0x3c9d74f5	0.019220809
8	0xbd0b440d	-0.034000445
9	0xbdb43a8e	-0.08800231
10	0xbd3387a4	-0.04383053
11	0x3dafa7fd	0.08576963
12	0xbc31f7bf	-0.01086229
13	0xbc91f6a9	-0.017817812
14	0xbe28abb7	-0.16471754
15	0xbc5ccef1	-0.013477073
16	0x3d47ee73	0.048811387
17	0xbc9b94a5	-0.018991778
18	0xbdb64a13	-0.08900847
19	0x3c465268	0.012104608
20	0xbbae81fb	-0.0053255535
21	0xbe4cc0a0	-0.19995356
22	0xbd96156d	-0.073283054
23	0x3d5ddfa0	0.054168344
24	0x3bf09b79	0.0073427525
25	0x3c2eba78	0.010664575
26	0xbbfd9d82	-0.0077397237
27	0xbc339d6c	-0.010962825
28	0x3d573896	0.0525442
29	0x3d8a8b52	0.067648545
30	0x3c276ca3	0.010218772
31	0xbd6ef38f	-0.058337744
32	0x3cfc39d3	0.030789291
33	0x3c88abb6	0.01668344
34	0x3d82f30f	0.06394016
35	0xbd65aef8	-0.056075066
36	0xbb904b49	-0.004403506
37	0x3d32b928	0.04363361
38	0xbc755c19	-0.014975571
39	0xbdf3493a	-0.11879201
40	0xbd60f0b8	-0.054917067
41	0x3d721ade	0.059107654
42	0xbdd77df5	-0.10522071
43	0xbcb89f6c	-0.022536956
44	0xbdb802a0	-0.08984876
45	0xbe51753e	-0.2045488
46	0x3cbb2324	0.022843905
47	0xbc7ff1b8	-0.015621595
48	0xbda89357	-0.08231228
49	0xbda811d6	-0.08206527
50	0x3d5f1029	0.05445877
51	0x3d116177	0.03549334
52	0x3cc386cf	0.023867993
53	0xbd8035ba	-0.062602475
54	0x3cd650dc	0.026161604
55	0xbd43e974	-0.04783006
56	0xbdbb1183	-0.091341995
57	0xbdb19e93	-0.08672824
58	0xbda5e044	-0.08099416
59	0xbcc4660c	-0.023974441
60	0xbd681c47	-0.056667592
61	0xbd89e5eb	-0.067333065
62	0xbdd37676	-0.10325329
63	0xbc945aef	-0.018109767
64	0xbcdbeb87	-0.026845707
65	0xbdc6c8ad	-0.097062446
66	0xbbc58dc3	-0.006028862
67	0x3c8b6854	0.017017521
68	0x3d380117	0.044922914
69	0xbcd68d75	-0.026190499
70	0xbca8002b	-0.020507893
71	0x3d7d4744	0.061835542
72	0x3c027f67	0.007964945
73	0xbda198ad	-0.07890449
74	0x3cdb8370	0.026796073
75	0xbc6a5253	-0.014301854
76	0xbc9eae32	-0.019370172
77	0xbc25061c	-0.010072257
78	0xbb63538c	-0.003468725
79	0x3d9c34f9	0.07627291
80	0x3cbf9f78	0.02339147
81	0x3b5a9433	0.0033352494
82	0xbd47e174	-0.048798993
83	0x3d5f2f0f	0.054488238
84	0xbde8eac2	-0.113729015
85	0xbddb5acd	-0.10710678
86	0x3d6dc19d	0.058045972
87	0xbd96a3e1	-0.07355476
88	0x3d83b7e0	0.06431556
89	0xbde5557a	-0.11197944
90	0xbd8d78c8	-0.06907803
91	0xb936457f	-0.00017382762
92	0x3d2f4a1c	0.042795286
93	0xbdae100b	-0.08499154
94	0x3d513171	0.05107254
95	0xbd98a8b4	-0.074540526
96	0x3d2b7de3	0.0418681
97	0x3cc40386	0.023927461
98	0x3cbfff45	0.023437152
99	0xbd521440	-0.051288843
100	0x3cac931f	0.021066247
101	0x3d0f89ef	0.035043653
102	0x3cf72f40	0.030173898
103	0xbd4d2093	-0.050079893
104	0xbd3bf805	-0.045890827
105	0xbbb01df1	-0.005374663
106	0xbd99fcaf	-0.07518899
107	0xbd73b485	-0.05949833
108	0xbdd52f3a	-0.104093984
109	0x3cda05a9	0.026614027
110	0xbc7f1870	-0.015569791
111	0xbce3a300	-0.027787685
112	0xbd90fc42	-0.07079364
113	0xbdb000c6	-0.085938975
114	0xba9e6fa4	-0.0012087715
115	0xbd394cef	-0.045239385
116	0xbd3a270f	-0.045447405
117	0xbdd9d90a	-0.106371
118	0xbbff6059	-0.007793468
119	0x3d897a7f	0.067128174
120	0x3bcead9e	0.006307318
121	0xbd83147f	-0.06400394
122	0xbbf8c9e0	-0.0075924248
123	0xbd54cf18	-0.051955312
124	0xbd31348a	-0.043262996
125	0xbd5ec78a	-0.054389514
126	0xbd9c4138	-0.07629627
127	0xbd44194a	-0.04787568
128	0x3c3d800c	0.011566173
129	0x3bd01c92	0.006351062
130	0x3ba3886a	0.004990627
131	0x3c425514	0.0118611045
132	0x3d441b66	0.04787769
133	0x3eedc085	0.46435943
134	0xbd910f65	-0.070830144
135	0xbe0b890b	-0.13626496
136	0x3df9029d	0.121587016
137	0x3ec6d399	0.3883331
138	0x3ecd7dd1	0.40135053
139	0x3d008677	0.031378236
140	0x3df255ad	0.118327476
141	0x3e816f5f	0.25280282
142	0xbd71bcc0	-0.059017897
143	0x3cde1c4b	0.0271131
144	0x3de829ea	0.113361195
145	0xbe83e5f9	-0.25761393
146	0xbef72e80	-0.48277664
147	0x3e0261c4	0.12732607
148	0x3f1cd1e1	0.6125775
149	0xbd270850	-0.04077941
150	0x3f0f8437	0.5606112
151	0x3f36eddc	0.71456695
152	0x3e4bf8c2	0.19919112
153	0x3eff8b92	0.4991117
154	0xbdbc0767	-0.091810994
155	0x3e8cfaaa	0.27534992
156	0x3e364254	0.1779874
157	0x3e692f62	0.22771981
158	0x3e0c5e6e	0.13707897
159	0x3d6609c4	0.056161657
160	0x3e37ec29	0.17961182
161	0x3d304cb1	0.04304189
162	0x3e1e5688	0.15462697
163	0x3f592c58	0.8483329
164	0xbdff7570	-0.12473571
165	0x3e8f4793	0.27984294
166	0x3ebde23a	0.3708666
167	0x3f04ddca	0.51900923
168	0xbd3bb540	-0.04582715
169	0x3e1ecf0f	0.15508674
170	0x3d8bbd42	0.068232074
171	0x3e46239f	0.19349526
172	0xbf010d25	-0.5041068
173	0x3f07a33f	0.5298347
174	0x3e8edee7	0.27904436
175	0x3d4d7e01	0.050168995
176	0x3d068835	0.03284474
177	0x3d9cfa9c	0.076649874
178	0x3ed52c58	0.41635394
179	0xbe97a7dd	-0.29620257
180	0x3d8b82b2	0.068120375
181	0x3e36193a	0.1778306
182	0x3da9b0f2	0.08285703
183	0x3e333ddf	0.1750407
184	0x3ecb9513	0.39762172
185	0x3e45a9cb	0.19303052
186	0x3f533e9f	0.8251743
187	0x3f23a4dd	0.63923436
188	0x3d958415	0.07300583
189	0x3ebcbb6e	0.36861748
190	0x3e7cbaec	0.2468068
191	0x3ed4ebb8	0.4158609
192	0x3c38353d	0.011243162
193	0xbec3fba4	-0.38277924
194	0xbd51674f	-0.051123913
195	0x3d691f83	0.056914818
196	0x3d48a092	0.048981257
197	0x3c92eb74	0.017934538
198	0x3e203251	0.15644194
199	0xbd47a7c2	-0.04874397
200	0x3d3fe34a	0.04684762
201	0x3d126da2	0.035749085
202	0xbd99bb28	-0.075064
203	0xbd9b0014	-0.07568374
204	0x3f0dbe65	0.55368644
205	0x3e2ba03e	0.16760346
206	0x3e1b4ea9	0.15166725
207	0xbd836cf1	-0.06417263
208	0xbc9349fe	-0.017979618
209	0x3e235cfa	0.15953436
210	0x3ba290ee	0.0049611246
211	0xbf1f2710	-0.6216898
212	0x3e1ad3c0	0.15119839
213	0xbd5f494c	-0.05451326
214	0x3dc60126	0.09668188
215	0x3e2f60b1	0.17126729
216	0x3ed2436d	0.41067067
217	0x3e20fd22	0.15721563
218	0xbe2dd0bb	-0.16974156
219	0x3f4bcec5	0.7961238
220	0x3d4489d3	0.047983002
221	0x3d91d879	0.07121367
222	0x3d1ce290	0.038302004
223	0x3e3fda81	0.18735696
224	0x3e2e7fde	0.17040965
225	0xbf2f23b7	-0.6841387
226	0x3ea5adc7	0.32359144
227	0x3f094932	0.5362731
228	0x3e06cd5c	0.13164276
229	0xbe3da9b4	-0.18521768
230	0x3c3761bb	0.011192734
231	0xbd28cc13	-0.041210245
232	0xbef13c86	-0.47116488
233	0x3e317d57	0.1733297
234	0xbe881c2f	-0.26584002
235	0x3e35c4e5	0.1775089
236	0x3e4eb281	0.20185281
237	0x3f01a9ac	0.50649524
238	0xbd2800c3	-0.04101635
239	0xbd8557ce	-0.06510888
240	0x3d6821fa	0.056673028
241	0x3ed8e9cb	0.4236587
242	0x3df8c6a9	0.121472664
243	0x3dace3d0	0.08441889
244	0x3db1740b	0.086647116
245	0xbc554858	-0.013017736
246	0x3e74ddaa	0.23912683
247	0xbd238b3e	-0.039927714
248	0x3d5e0ef7	0.05421349
249	0x3e7ddba9	0.24790825
250	0xbd9b3971	-0.075793155
251	0x3ea133ee	0.31484932
252	0xbd57ef9b	-0.05271874
253	0x3e7eccda	0.24882832
254	0xbdb75c9b	-0.0895321
255	0xb9a0e04a	-0.00030684686

fc3.bias f4 [64]
0	0xbd6eee4f	-0.058332738
1	0x3ebc5b01	0.3678818
2	0x3ec95ce5	0.39328685
3	0x40c1d5db	6.0573554
4	0x3e9b295c	0.30304992
5	0x408e41e7	4.4455447
6	0x4047750f	3.1165197
7	0x3e9ecd38	0.31015944
8	0xbeabb345	-0.3353521
9	0xbe129a75	-0.14316733
10	0x3ecf7534	0.40519106
11	0x3dff3333	0.12460937
12	0xbe03c7be	-0.12869164
13	0xbe0d8bf3	-0.13822918
14	0xbe3ecf09	-0.18633665
15	0x3e8d1df9	0.2756193
16	0xbe31e4f5	-0.17372496
17	0x3ea6c6e6	0.32573622
18	0x3eca3463	0.39493093
19	0x3f816a58	1.0110579
20	0x3ec737c4	0.38909733
21	0xbf189a09	-0.5961004
22	0x3ea9bf60	0.3315382
23	0xbeb973cf	-0.36221167
24	0x40a38d35	5.110987
25	0xbc5cbff3	-0.013473499
26	0xbe25aee4	-0.16179997
27	0xbe536c75	-0.20646842
28	0xbe48fef7	-0.19628511
29	0xbfb4b345	-1.4117209
30	0x40874d82	4.2282114
31	0xbdebcaa6	-0.115132615
32	0x3faa91a0	1.3325691
33	0x3e943d04	0.289528
34	0x3ecdd3dc	0.40200698
35	0x3e9e6db8	0.30943084
36	0x3ed16c5f	0.40902993
37	0xbe9c8d4b	-0.30576548
38	0x3eb5d6b7	0.35515377
39	0x3ed046f0	0.4067912
40	0x3dcba77c	0.099440545
41	0x3f023bcf	0.5087251
42	0xbec816a8	-0.39079785
43	0xbe4b345c	-0.19844192
44	0xbf0f761d	-0.560396
45	0x3e8ba19a	0.2727173
46	0x3ea5f6cc	0.32414854
47	0x40877657	4.233196
48	0xbf81da5b	-1.0144762
49	0x3edd1d4f	0.43186423
50	0xbfadb772	-1.3571608
51	0x3e64a5da	0.22328892
52	0xbe5258d9	-0.20541705
53	0xbe6b5f51	-0.22985579
54	0xbda0a5a2	-0.07844092
55	0xbd0bcb52	-0.03412945
56	0xbf13ca72	-0.5773078
57	0xbf5ffbb0	-0.8749342
58	0xbe71cfd6	-0.2361444
59	0x3e9a2c1d	0.3011178
60	0xbec78dc7	-0.38975355
61	0x401b5aba	2.4274125
62	0x3ececc5f	0.40390298
63	0xbd77dfa6	-0.060516022

fc4.weight f4 [3, 64]
0	0xb95f3f88	-0.00021290604
1	0x3f08f113	0.5349285
2	0x3eee212b	0.4650968
3	0xc04195ad	-3.0247605
4	0x3ed01629	0.40641907
5	0xc0287bcd	-2.6325562
6	0xbffdae83	-1.9818882
7	0x3eb3daa2	0.3512774
8	0x3f2a6fbb	0.6657674
9	0x3f7e2d83	0.99288195
10	0x3e8611b0	0.2618537
11	0x3e370db2	0.17876318
12	0xbef7b8f7	-0.48383304
13	0xbd979e5d	-0.07403252
14	0x3fef15a2	1.8678477
15	0x3e93a019	0.28833082
16	0x3dfac1c8	0.12243992
17	0x3e511a71	0.20420243
18	0x3eeeea47	0.46663114
19	0x3fdfbbb3	1.7479156
20	0x3e9422a8	0.2893269
21	0xbd28832c	-0.04114072
22	0x3eb8089d	0.3594407
23	0x3ef7d947	0.48407957
24	0xc00b99e0	-2.1812668
25	0x3fb39084	1.4028478
26	0x3c884454	0.016634144
27	0x3cf668c4	0.030079253
28	0x3ec8e6bf	0.39238545
29	0x3fbb4d9c	1.463306
30	0xc009028b	-2.1407802
31	0x3f38f90c	0.72255015
32	0x40387936	2.8823981
33	0x3e9bc72c	0.30425394
34	0x3c78de42	0.015189709
35	0x3e0cda20	0.13755083
36	0x3e76d420	0.24104357
37	0x3df12157	0.11773937
38	0x3e956998	0.29182124
39	0x3eaae53e	0.33378023
40	0xbcf05e73	-0.029341912
41	0x3e87f4f4	0.26554072
42	0x3f317126	0.69313276
43	0x3e8515ae	0.25993103
44	0xbf96710d	-1.175325
45	0x3e46102c	0.19342107
46	0x3e7da7de	0.24771068
47	0xbfb3be5e	-1.404247
48	0x3f83d0ae	1.0298059
49	0x3ee73ad8	0.45162082
50	0x3f1807e1	0.5938702
51	0x3e1f0cd9	0.15532245
52	0xbebd2c7a	-0.36947995
53	0x39fe12ad	0.0004846057
54	0x3f0044cf	0.50104994
55	0x3e08b447	0.1335002
56	0x3f632b98	0.88738394
57	0xbdeddff3	-0.116149805
58	0xbefdd1f0	-0.49574232
59	0x3e1a7967	0.15085374
60	0x3ee3a40e	0.444611
61	0xbf017668	-0.505713
62	0x3f039df9	0.5141292
63	0x3e3ffd96	0.18749079
64	0xbd26b78e	-0.040702395
65	0x3eb6761b	0.35636982
66	0x3ec26264	0.3796569
67	0xc0804883	-4.0088515
68	0x3f0d920e	0.55300987
69	0xc01f0b0e	-2.4850497
70	0xbfccd0f4	-1.6001267
71	0x3e188fa1	0.1489854
72	0x3f858256	1.04304
73	0x3e5b1562	0.21394876
74	0x3f095769	0.53649
75	0x3b3a825c	0.0028459048
76	0xbf145ff1	-0.57958895
77	0x3c634e81	0.013873697
78	0x3e63093e	0.22171494
79	0x3d8fdd76	0.07024662
80	0x3f2c3d2c	0.6728084
81	0x3e44f7bc	0.19235128
82	0x3f1ffe53	0.6249744
83	0x3ec4af9a	0.38415223
84	0x3e8c4877	0.27399036
85	0xbf6d7d7e	-0.9276961
86	0x3e8f428d	0.27980462
87	0x3ebc1361	0.36733535
88	0xc0463ca0	-3.0974503
89	0x3f1c52c8	0.61063814
90	0xbcb258af	-0.021770803
91	0x3cfd21c6	0.030899893
92	0xbcf87ec2	-0.03033388
93	0x3f4f64cb	0.8101317
94	0xbfc9e440	-1.5772781
95	0x3f1a11ef	0.60183614
96	0x3efecc29	0.49765137
97	0x3e19685a	0.14981213
98	0x3f2186f2	0.63096535
99	0x3e6ca078	0.23108089
100	0x3e90b0cb	0.28259882
101	0xbdd83bad	-0.10558257
102	0x3e6ef6cb	0.23336332
103	0x3ebf5efd	0.37377158
104	0x3d36d363	0.044635188
105	0x3eba0fb8	0.36340117
106	0xbdb452df	-0.08804869
107	0x3ec3919e	0.38197035
108	0xbf83a2ad	-1.028402
109	0x3de64070	0.11242759
110	0x3e287226	0.16449794
111	0xbf9ad054	-1.2094827
112	0x3f3bf9d4	0.7342808
113	0x3f022ae0	0.5084667
114	0x3f251cc7	0.64497036
115	0x3da3685f	0.079788916
116	0xbf16a99d	-0.5885256
117	0x3c7e2380	0.015511394
118	0x3ffa9f72	1.9579909
119	0x3db0e085	0.08636574
120	0x3e9aeabe	0.3025722
121	0xbdc89ebc	-0.09795901
122	0xbf11c783	-0.56945056
123	0x3dd57da9	0.104243584
124	0x3f9f7d7c	1.246017
125	0xbfbd188a	-1.4773114
126	0x3ecf6bc9	0.4051192
127	0xbbb07a0e	-0.005385644
128	0xbd0a733b	-0.0338013
129	0x3ec5775d	0.3856763
130	0x3ed4a948	0.415354
131	0xc0757911	-3.8355143
132	0x3e37a08b	0.17932336
133	0xc014a03a	-2.3222795
134	0xc02cffc8	-2.7031116
135	0x3e87696c	0.26447618
136	0x3f3d856f	0.7403173
137	0xbed09f5b	-0.4074658
138	0x3ec4b032	0.38415676
139	0x3c75877b	0.014985914
140	0xbf4482c3	-0.76762027
141	0xbd74f182	-0.059800632
142	0x3f858fc5	1.04345
143	0x3e6cde57	0.23131691
144	0x3ec7a486	0.3899271
145	0x3e814b36	0.25252694
146	0x3ec56454	0.38553107
147	0x3f68bd78	0.90914106
148	0x3ebe23e6	0.37136763
149	0xbfeaee8d	-1.835405
150	0x3e9177f1	0.2841182
151	0x3e807d37	0.2509553
152	0xc07a1110	-3.9072914
153	0xbf890480	-1.0704498
154	0xbc506ed6	-0.012721738
155	0x3c36df84	0.011161689
156	0x3e04a1c5	0.12952335
157	0x3efceb17	0.4939811
158	0xc0183da2	-2.3787618
159	0x3f046a92	0.51725113
160	0x3f82b3c5	1.0211111
161	0x3e6fca8f	0.23417114
162	0x3ec9a331	0.39382318
163	0x3e669aa7	0.22519933
164	0x3eccfe4e	0.4003777
165	0x3ed15daa	0.40891773
166	0x3e9c6520	0.30545902
167	0x3ed17628	0.4091046
168	0x3d87db26	0.06633596
169	0x3f22bdda	0.6357094
170	0x3eb501a2	0.35352808
171	0x3ee18e69	0.44053963
172	0xbf1620fb	-0.58644074
173	0x3e2d8fb4	0.1694935
174	0x3e82665c	0.2546872
175	0xbfc919fe	-1.5711057
176	0x3fa08daf	1.2543238
177	0x3f085fc2	0.53271115
178	0x3fc39bdf	1.5281943
179	0x3dbee6fb	0.093214
180	0xbf260358	-0.6484885
181	0x3b8ea4d7	0.0043531465
182	0x3f0539c1	0.5204125
183	0xbe1b4a7a	-0.1516513
184	0x3f2edb2a	0.6830317
185	0x3e00310c	0.1251871
186	0xbf38fd07	-0.7226109
187	0x3e367356	0.17817435
188	0x3ed4c9d2	0.41560227
189	0xbf6ac253	-0.91702765
190	0x3ee803ce	0.45315403
191	0x3aad6285	0.0013228214

fc4.bias f4 [3]
0	0xbf8b28ad	-1.0871788
1	0xbf9cc1df	-1.2246665
2	0xbfb90317	-1.4454068
