models/monopoly_ai_200.pth (torch, 379901 bytes, 8 tensors)

network.0.weight f4 [256, 205]
0	0x3ca28081	0.019836666
1	0xbe11578b	-0.14193551
2	0x3d715df6	0.0589275
3	0x3d329e60	0.04360807
4	0xbc98a500	-0.018633366
5	0x3d5ef552	0.054433174
6	0x3991f000	0.0002783537
7	0x3d44cfe3	0.04804982
8	0xbd9d1a13	-0.07670989
9	0xbcc9549f	-0.024576483
10	0x3d5fe714	0.054663733
11	0xbca64e10	-0.020300895
12	0x3c385e60	0.0112529695
13	0xbbc53320	-0.0060180575
14	0xbbe17490	-0.0068803504
15	0x3d556366	0.052096747
16	0xbc4a3fb8	-0.012344293
17	0x3d02a6ab	0.03189723
18	0xbc2be96d	-0.010492665
19	0x3db85661	0.090008505
20	0x3c4ec5c8	0.012620397
21	0x3c7c4218	0.015396617
22	0x3cb7b44c	0.02242484
23	0xbd7aa8ab	-0.06119601
24	0x3d4cd1c2	0.05000473
25	0x3d5b429e	0.053530328
26	0x3b7b1ea0	0.0038317814
27	0xbd923bb0	-0.07140291
28	0xbc605319	-0.013691687
29	0xbd282689	-0.041052375
30	0x3d03eade	0.03220641
31	0xbcc5fdee	-0.024168935
32	0x3d0eb4fe	0.034840576
33	0x3c6422b8	0.013924293
34	0xbd01712e	-0.031602077
35	0x3c701a00	0.014654636
36	0xbd22e4a6	-0.039768837
37	0x3d47d5f8	0.04878804
38	0x3aefc440	0.001829274
39	0xbd80195a	-0.062548354
40	0xbd0843fe	-0.033267967
41	0x3ce558d8	0.027996466
42	0xbcd58c14	-0.026067771
43	0xbd1a99e4	-0.037744418
44	0xbd0d3e0d	-0.034483004
45	0x3d3853e0	0.045001864
46	0xbcc890b8	-0.02448307
47	0xbdc7c06b	-0.09753498
48	0xbcabd0d7	-0.020973606
49	0xbd8c492d	-0.06849895
50	0xbd1420df	-0.03616416
51	0x3ce4f564	0.027949043
52	0xbd8882de	-0.06665586
53	0x3d8a868b	0.06763943
54	0x3d35b9d6	0.04436668
55	0x3d0418c8	0.032250196
56	0x3d8dfcdf	0.06932997
57	0xbd1d892f	-0.038460907
58	0xbd2d0893	-0.042244505
59	0x3c4afa3a	0.01238876
60	0xbd827b23	-0.06371143
61	0x3d0e327e	0.03471612
62	0xbd418885	-0.047249336
63	0xbd63380c	-0.055473372
64	0x3ce58e71	0.028022023
65	0x3d0bb2f4	0.03410621
66	0xbca241e8	-0.019806817
67	0xbdb374bb	-0.08762499
68	0xbdb00e51	-0.08596481
69	0x3d126478	0.035740346
70	0x3cff28e0	0.03114742
71	0x3d601052	0.054703064
72	0xbb270ff3	-0.0025491684
73	0xbd9e7c37	-0.07738536
74	0x3cf10dce	0.029425528
75	0xbd362c40	-0.044475794
76	0xbccc05a6	-0.024905037
77	0xbd721c6a	-0.05910913
78	0xbb98c6e9	-0.004662384
79	0x3d183be7	0.037166502
80	0x3d30dbd6	0.043178402
81	0xbd75fbca	-0.060054578
82	0xbd591e61	-0.053007487
83	0xb9c3cc98	-0.00037345733
84	0xbd227ccb	-0.039669793
85	0xbd04e4c7	-0.03244474
86	0x3d218cf8	0.03944108
87	0x3bc5a620	0.0060317665
88	0x3cf2b424	0.029626913
89	0x3c89d720	0.016826212
90	0xbc40a51c	-0.011758115
91	0x3d0e56ae	0.034750633
92	0xbda403fb	-0.08008572
93	0x3bfd3948	0.0077277757
94	0xbdaca8bb	-0.0843062
95	0x3d67630a	0.056490935
96	0xbd469498	-0.048481554
97	0xbda4e409	-0.08051307
98	0xbdda48c2	-0.10658409
99	0xbc1429e5	-0.009043192
100	0x3d7becc6	0.0615051
101	0x3d6139f4	0.05498691
102	0x3c3bd840	0.011465132
103	0xbd8c7ff1	-0.068603404
104	0xbce6ecb2	-0.028189037
105	0xbd50eec8	-0.05100897
106	0xbc8fca7e	-0.01755261
107	0xbd03d3c7	-0.03218439
108	0xbd86e4a6	-0.0658658
109	0xbdbceb93	-0.0922462
110	0x3d7b8a6e	0.061411314
111	0xbd71be31	-0.05901927
112	0x3d8b5597	0.06803434
113	0xbcbf5fd4	-0.023361124
114	0xbd234ea6	-0.039869927
115	0xbcbd45b6	-0.02310453
116	0x3bb5aa90	0.0055440143
117	0x3dae58af	0.08513009
118	0xbbe2496b	-0.0069057248
119	0xbd47ea1c	-0.04880725
120	0x3d52436c	0.05133383
121	0xbd0f272e	-0.034949474
122	0xbcb2e452	-0.021837387
123	0xbda7cd24	-0.08193424
124	0x3d30f5d0	0.043203175
125	0xbd0a82e6	-0.03381624
126	0xbc824280	-0.01590085
127	0xbd7cde7c	-0.061735615
128	0x3d3e334b	0.046435636
129	0xbd39e062	-0.045380004
130	0x3d40c984	0.04706718
131	0x3d37cef2	0.044875093
132	0xbd4928a7	-0.049111035
133	0xbc9a73df	-0.01885408
134	0xbd589124	-0.052872792
135	0x3d03f214	0.032213286
136	0xbd851949	-0.064989634
137	0xbd46cd7d	-0.048535813
138	0x3bebcaaa	0.0071957903
139	0xbcb5c83c	-0.022190206
140	0x3cab8468	0.02093716
141	0xbd5e8bb2	-0.054332443
142	0x3d09e8b9	0.033669207
143	0xbc5e2019	-0.013557457
144	0xbd90a7b4	-0.07063237
145	0x3d17dd8a	0.03707651
146	0xbc2d0db8	-0.010562353
147	0xbde0f328	-0.109838784
148	0xbcb730ef	-0.0223622
149	0xbd1912c8	-0.037371427
150	0xbc953db6	-0.018217903
151	0x3d07fb2c	0.03319852
152	0xbd86b15f	-0.065767996
153	0x3d84bc23	0.06481197
154	0x3d1d4bd6	0.0384024
155	0x3d8bb9b3	0.06822529
156	0xbb96ce00	-0.004602194
157	0x3cde1c3b	0.02711307
158	0xbd36cd30	-0.044629276
159	0x3cbb0904	0.022831447
160	0xbd0c5bd5	-0.034267265
161	0x3cc7e300	0.024400234
162	0xbc0dcf5a	-0.0086553935
163	0xbd250fd7	-0.04029831
164	0xbc33572a	-0.0109460745
165	0x3cc09628	0.0235091
166	0x3d081324	0.03322138
167	0xbd480f94	-0.04884298
168	0xbcddd55a	-0.027079273
169	0xbc457ebc	-0.012054142
170	0x3d32c930	0.0436489
171	0xbd15a65c	-0.036535606
172	0xbc0cda44	-0.00859696
173	0xbd2e90ec	-0.042618677
174	0x3d532cad	0.051556278
175	0x3d1f1a5e	0.038843505
176	0xb9fe8000	-0.00048542023
177	0x3d55cc38	0.05219671
178	0xbd1a423b	-0.03766082
179	0xbd19baaa	-0.037531532
180	0x3bb75d20	0.005595818
181	0x3c55ba30	0.013044879
182	0xbc2ffa70	-0.010740861
183	0xbd2835c8	-0.041066915
184	0xbd81ba80	-0.063344
185	0x3c8c5b7c	0.017133467
186	0x3d222778	0.03958842
187	0xbda3f303	-0.08005335
188	0xbc91a86a	-0.017780501
189	0xbd798c5b	-0.06092487
190	0x3d5484ce	0.051884465
191	0xbce09670	-0.027415484
192	0xbce32a1a	-0.027730037
193	0x3ca847ac	0.020541988
194	0xbd87686e	-0.06611715
195	0xbd8b4727	-0.068006806
196	0xbd8b2c69	-0.0679558
197	0x3cd728b2	0.026264522
198	0x3abe55bf	0.0014521404
199	0x3d7780b1	0.060425464
200	0xbc0d47a8	-0.008623041
201	0x3c92e84c	0.017933033
202	0xbd6fa447	-0.058506276
203	0xbd751cc0	-0.05984187
204	0xbc9225b0	-0.017840236
205	0xbe12e833	-0.1434639
206	0xbea53047	-0.32263395
207	0x3d52117e	0.051286213
208	0xbd61ab30	-0.055094898
209	0x3c6b0c58	0.014346205
210	0x3cd6d35c	0.02622383
211	0x3d3d55fe	0.046224587
212	0x3d9c3c61	0.07628704
213	0xbe507197	-0.20355831
214	0x3d7c239f	0.06155741
215	0x3cac9e24	0.021071501
216	0xbc16bd14	-0.009200353
217	0x3d53830a	0.05163864
218	0xbd4a60a7	-0.04940858
219	0xbc422080	-0.011848569
220	0x3c868e18	0.016425177
221	0xbcea64e0	-0.028612554
222	0xbd27fb23	-0.041010987
223	0xbc327b08	-0.010893591
224	0xbd5d1f9f	-0.053985234
225	0x3c217ec0	0.00985688
226	0xbd8d99d3	-0.06914105
227	0x3d4c1116	0.049820982
228	0xbd8dc198	-0.06921691
229	0xbcbfcb8c	-0.023412488
230	0x3cc80abc	0.024419181
231	0x3c86849c	0.016420655
232	0xbb78fc04	-0.003799201
233	0xbe109927	-0.14120923
234	0x3d693f52	0.056945153
235	0x3d86c5e5	0.06580714
236	0xbd85c838	-0.06532329
237	0x3d2882f0	0.041140497
238	0xbe30b21b	-0.17255442
239	0xbd21e731	-0.039527122
240	0x3d8384fb	0.064218484
241	0x3c77d238	0.015125804
242	0x3d7b562a	0.06136147
243	0xbd3b9706	-0.045798324
244	0x3d7465ce	0.0596674
245	0xbc1acc08	-0.009448059
246	0x3d825755	0.063643135
247	0xbd0570fb	-0.03257845
248	0x3e1fdee0	0.15612364
249	0xbe750bc1	-0.23930265
250	0xbbdc4610	-0.0067222193
251	0xbbd142f0	-0.0063861534
252	0xbc95881b	-0.018253377
253	0x3e197333	0.14985351
254	0xbe35e1eb	-0.17761962
255	0x3d079a8a	0.033106364

network.0.bias f4 [256]
0	0xbd112576	-0.035436116
1	0xbd3391d0	-0.04384023
2	0xbb9c6a16	-0.0047733886
3	0xbdc0426a	-0.093876675
4	0x3cc378ae	0.023861255
5	0xbdb94490	-0.090462804
6	0x3d4fe78c	0.05075793
7	0xbd6218af	-0.05519932
8	0xbd0c24dc	-0.03421484
9	0x3c813f52	0.015777264
10	0xbd8d99d4	-0.06914106
11	0xbc703219	-0.014660382
12	0x3d10def8	0.03536889
13	0xbd95301a	-0.07284565
14	0xbe0577b4	-0.13033944
15	0x3b8e8884	0.00434977
16	0x3d4eac20	0.05045712
17	0xbd6887d6	-0.05677017
18	0x3ceed8d9	0.029156135
19	0x3d116bb3	0.0355031
20	0xbdab390d	-0.08360491
21	0x3d274d5c	0.04084526
22	0x3dbc669f	0.09199261
23	0x3d9722d7	0.07379692
24	0xbcef19f2	-0.029187176
25	0x3bfd168d	0.0077236355
26	0xbd0192b4	-0.031634048
27	0x3d24920b	0.04017834
28	0xbc87198f	-0.01649168
29	0x3cc1d5fa	0.023661602
30	0xbd2a6e93	-0.041609358
31	0xbd9d17c4	-0.076705486
32	0xbd89c6a7	-0.06727343
33	0xbc064ca9	-0.008196988
34	0x3d6003b3	0.054691028
35	0x3cd39a5b	0.025830438
36	0x3dc5a7f9	0.09651179
37	0x3d8153d1	0.06314815
38	0xbc66893b	-0.014070804
39	0xbd596832	-0.053077884
40	0xbd3d0e58	-0.046156257
41	0x3d117a89	0.03551725
42	0xbdad9637	-0.08475917
43	0x3da8763e	0.08225678
44	0x3ca45282	0.020058874
45	0xbdab161e	-0.08353828
46	0x3be7fb3c	0.00707951
47	0x3d1f1144	0.038834825
48	0x3d8ea229	0.06964523
49	0xbd84b78c	-0.06480321
50	0x3e2c9d21	0.16856815
51	0x3cfffca4	0.031248398
52	0xbcdaabf6	-0.026693325
53	0x3d360606	0.04443934
54	0xbd427e11	-0.047483508
55	0x3d84f7c9	0.06492574
56	0xbd3523fc	-0.04422377
57	0x3d85020c	0.06494531
58	0xbcaeb534	-0.021326639
59	0xbc0172be	-0.007900892
60	0xbdba8c88	-0.091088355
61	0x3d763a24	0.06011404
62	0x3d79f7d8	0.061027378
63	0x3d9262b6	0.07147734
64	0xbda3e68e	-0.08002959
65	0xb9f090dc	-0.00045884296
66	0x3d602822	0.054725774
67	0xbd158493	-0.036503386
68	0x3d3d305c	0.046188697
69	0xbc98dc8d	-0.018659854
70	0x3ce58571	0.028017731
71	0xbc5b9ecc	-0.013404559
72	0xbd329546	-0.04359939
73	0x3db93dea	0.09045012
74	0xbde69e67	-0.112606816
75	0xbd1a21e6	-0.037629984
76	0x3d81870c	0.06324586
77	0xbdb72fb3	-0.08944645
78	0xbd8d9523	-0.06913211
79	0x3c45927d	0.012058851
80	0xbdbb1482	-0.09134771
81	0xbd4c4ab6	-0.049875937
82	0x3d2651f0	0.040605485
83	0x3cb34ce3	0.021887248
84	0x3cb1bf9a	0.021697808
85	0xbd0b0397	-0.03393897
86	0x3bba62f1	0.0056880643
87	0x3b818671	0.0039527942
88	0x3c43c563	0.011948916
89	0xbdc6ab4a	-0.097006395
90	0xbdb67f8a	-0.08911045
91	0xbd762458	-0.060093254
92	0x3ba3aa94	0.0049946997
93	0xbd2e9430	-0.04262179
94	0x3d1a2ca5	0.037640233
95	0xbbeef582	-0.0072924504
96	0xbc389ede	-0.011268346
97	0xbd8bfb27	-0.06835013
98	0x3c890608	0.016726509
99	0x3b0225b1	0.0019858892
100	0x3cde974a	0.02717175
101	0xbd759f08	-0.059966117
102	0xbd02ab3a	-0.031901576
103	0xbd1a7234	-0.03770657
104	0xbd2fba40	-0.04290223
105	0x3be0cc01	0.0068602567
106	0x3d193a5c	0.03740917
107	0x3d8c52d4	0.06851736
108	0xbd9ad94c	-0.07560977
109	0xbb05df4d	-0.0020427287
110	0x3c6113d4	0.013737638
111	0xbca15c81	-0.01969743
112	0xbd425e9a	-0.0474535
113	0x3d2a34ed	0.04155438
114	0xbbf08857	-0.0073404717
115	0xbcc50e69	-0.024054723
116	0x3c4342ce	0.011917783
117	0x3d81e6b7	0.063428335
118	0x3b647435	0.0034859304
119	0xbdb12c7a	-0.08651061
120	0x3d37371d	0.044730294
121	0xbda37ab4	-0.07982388
122	0x3d183e8c	0.037169024
123	0x3d5c799b	0.05382691
124	0xbc2efe94	-0.010680813
125	0xbdb833ec	-0.08994278
126	0x3cdba071	0.026809903
127	0x3d21520e	0.039384894
128	0x3bd15070	0.0063877627
129	0xbce10498	-0.02746801
130	0x3da33690	0.07969391
131	0x3c22e362	0.009941908
132	0x3b5d9cec	0.0033815457
133	0xbcb0be8c	-0.021575235
134	0xbd4544a8	-0.04816118
135	0x3b9cab23	0.0047811433
136	0x3d106d63	0.03526057
137	0x3d2abeb4	0.041685775
138	0x3da4464d	0.08021221
139	0xbd428d50	-0.047498047
140	0x3d9463cc	0.07245597
141	0xbde50b97	-0.11183851
142	0x3d0d11d1	0.03444082
143	0xbde5fa41	-0.11229373
144	0xbd289140	-0.041154146
145	0xbcf35469	-0.029703336
146	0xbd3d756b	-0.046254557
147	0x3cf48e93	0.029853141
148	0xbbf05cf4	-0.0073352996
149	0xbd646ef7	-0.055769887
150	0xbcdc9a0b	-0.026928922
151	0xbd507be4	-0.0508994
152	0xbda95ba2	-0.08269431
153	0xbc367a62	-0.011137577
154	0xbd8bd4cf	-0.068276994
155	0x3d3f9291	0.046770636
156	0xbc056da8	-0.00814382
157	0xbcad45c7	-0.021151436
158	0xbc0a2ef0	-0.008434042
159	0xbc495292	-0.012287753
160	0xbd9f92f6	-0.077917024
161	0x3d9b4803	0.075820945
162	0xbdc0a087	-0.09405618
163	0xbd191242	-0.037370928
164	0x3c8c2964	0.01710958
165	0x3c8d469f	0.017245589
166	0xbd6625ce	-0.056188397
167	0x3d81f97e	0.06346415
168	0xbbb71eba	-0.0055883797
169	0x3d5b0724	0.053473607
170	0x3c1330e6	0.008983826
171	0x3db8fa4e	0.09032117
172	0x3d2cddd2	0.04220373
173	0x3ca53849	0.02016844
174	0x3d91afc6	0.07113604
175	0xbd241993	-0.040063452
176	0xbd3a5f23	-0.045500886
177	0x3d04b00b	0.03239445
178	0x3db1ba70	0.08678138
179	0x3c95816f	0.018250195
180	0x3bc7af1f	0.006093874
181	0x3cd5a048	0.026077405
182	0x3d3f9eee	0.046782427
183	0xbd003323	-0.031298768
184	0xbd5fd7a5	-0.054649014
185	0x3c93df90	0.018050939
186	0xbd4d8ebe	-0.050184958
187	0x3d5f7342	0.054553278
188	0x3b86d176	0.004114325
189	0xbd89e31f	-0.06732773
190	0xbd27dd9b	-0.040982824
191	0xbca00217	-0.019532247
192	0xbd543501	-0.05180836
193	0x3b49c2e4	0.003078633
194	0xbafb071e	-0.0019151901
195	0x3c728436	0.014802029
196	0x3cbc6200	0.022995949
197	0xbccb1d60	-0.02479428
198	0xbc8b1f0e	-0.016982581
199	0x3c9a37ff	0.01882553
200	0xbdaf2105	-0.0855122
201	0x3ccec594	0.025240697
202	0x3d63132d	0.05543821
203	0xbc760325	-0.015015398
204	0xbd5f6974	-0.054543927
205	0xbc104489	-0.008805403
206	0x3d9ecb8c	0.07753667
207	0x3b904b51	0.0044035097
208	0xbd287ca9	-0.04113451
209	0xbdb580f8	-0.088624895
210	0xbd9f7302	-0.07785608
211	0x3d25f81e	0.040519826
212	0xbcd6e12c	-0.026230417
213	0x3d0681f8	0.03283879
214	0x3ac2e048	0.0014867866
215	0x3cee0d71	0.029059144
216	0xbd3b8074	-0.0457768
217	0xbcefdf0d	-0.029281164
218	0x3e190eb2	0.14947012
219	0xbdbc55e4	-0.0919607
220	0x3ce21bbd	0.027601117
221	0x3ca3e199	0.020005034
222	0xbcb958ab	-0.022625288
223	0x3d398e3d	0.045301665
224	0xbc2d471d	-0.010576037
225	0xbd93240e	-0.07184611
226	0xbb6bce62	-0.0035981168
227	0xbc0ae38a	-0.008477101
228	0xbd4bfac5	-0.0497997
229	0xbc8da500	-0.017290592
230	0xbc00c8d7	-0.007860384
231	0xbd920eb1	-0.071317084
232	0x3d26b9d9	0.040704582
233	0xbd8e558a	-0.06949909
234	0x3cce70c3	0.025200253
235	0xbd81910c	-0.063264936
236	0xbd126bc7	-0.035747316
237	0x3c95da10	0.018292457
238	0x3e5d40af	0.21606706
239	0x3d21c61b	0.03949557
240	0xbd82c475	-0.063851275
241	0xbd5eb3e6	-0.054370783
242	0x3d60b698	0.054861635
243	0xbdf050fe	-0.11734198
244	0x3cfbbc24	0.03072936
245	0xbd6bc0f4	-0.05755706
246	0xbddddf8b	-0.10833653
247	0xbc83885a	-0.016056228
248	0x3d08c74f	0.0333932
249	0xbd255711	-0.040366236
250	0xbc501328	-0.01269988
251	0xbba73a26	-0.0051033674
252	0xbd63eb51	-0.055644337
253	0xbd2951d1	-0.04133779
254	0x3d0d23ef	0.034458097
255	0xbdab0924	-0.08351353

network.2.weight f4 [128, 256]
0	0x3d7e6a80	0.062113285
1	0xbd5a665a	-0.053320266
2	0xbc93d213	-0.018044507
3	0x3c2a1570	0.010381088
4	0x3cc52763	0.024066633
5	0x3d47e17c	0.048799023
6	0xbdba68a6	-0.09101991
7	0xbcbfc27c	-0.023408167
8	0xbc518c60	-0.012789816
9	0xbd9e010c	-0.077150434
10	0xbd8e39c7	-0.06944614
11	0x3ae2b73e	0.0017297042
12	0x3c874523	0.01651246
13	0x3d256822	0.040382512
14	0x3c100178	0.008789413
15	0x3d12682a	0.03574387
16	0xbc379aae	-0.011206312
17	0x3c1b818a	0.009491334
18	0xbc7910a0	-0.015201718
19	0xbd6fd20a	-0.05854992
20	0xbd4174bc	-0.047230467
21	0xbd3dbad8	-0.046320766
22	0xbd90d682	-0.07072164
23	0xbc719505	-0.014745002
24	0xbd404ab4	-0.046946242
25	0x3d3d62ce	0.046236806
26	0x3d230d4e	0.03980761
27	0x3c8b64bf	0.017015813
28	0xbd4544a9	-0.048161183
29	0xbd8b07b8	-0.067885816
30	0x3c8cd540	0.01719153
31	0x3cdcfd40	0.026976228
32	0x3c5aa100	0.013344049
33	0xbd07dfd4	-0.033172444
34	0xbcbaf9a4	-0.022824116
35	0xbc98fc3c	-0.018674962
36	0xbd30aec2	-0.043135412
37	0xbcdc22ec	-0.02687212
38	0xb8cd8000	-9.7990036e-05
39	0x3d5904fe	0.052983277
40	0xbb72b315	-0.003703301
41	0x3d2bc108	0.041932136
42	0x3cc04390	0.023469716
43	0xbd78fd46	-0.060788415
44	0x3cacd4d9	0.021097587
45	0xbd2ce952	-0.0422147
46	0x3d38ddc6	0.045133375
47	0x3ad608cf	0.001632953
48	0x3bc6e480	0.00606972
49	0xbbeff129	-0.0073224497
50	0x39f85401	0.00047364834
51	0xbc5cd050	-0.0134774
52	0xbd7c6490	-0.06161934
53	0x3b1ade94	0.0023631202
54	0x3b951f70	0.004550867
55	0xbcdcaa9d	-0.026936824
56	0xbd86f339	-0.0658936
57	0x3cc2d6bc	0.023784034
58	0x3cdc88da	0.026920725
59	0x3d08093e	0.03321194
60	0xbd539808	-0.05165866
61	0xbc0c7f24	-0.008575235
62	0x3b19a35a	0.0023443312
63	0xbd17e66e	-0.03708499
64	0x3ca40484	0.020021684
65	0x3d66da2e	0.056360416
66	0x3d4ecac9	0.05048636
67	0xbd72b9fc	-0.0592594
68	0x3c8f4abb	0.017491689
69	0xbd8553e5	-0.06510142
70	0xbd5326fc	-0.05155085
71	0xbd3f7154	-0.046738937
72	0x3c2eaf00	0.01066184
73	0x3c9dc8ab	0.019260725
74	0xbc2eb3d8	-0.010662995
75	0x3ca144ac	0.019686066
76	0xbd2d4dfe	-0.042310707
77	0x3c94cf70	0.01816532
78	0xbc253068	-0.010082342
79	0xbae73780	-0.0017640442
80	0xbd79be20	-0.060972333
81	0xbc056c3e	-0.008143483
82	0x3bfe9b45	0.0077699744
83	0x3d534551	0.051579777
84	0xbd262a98	-0.040567964
85	0xbd1c15c5	-0.0381067
86	0x3c8067f3	0.015674567
87	0xbd2e0044	-0.042480722
88	0x3cf35e63	0.029708093
89	0xbc1eabfa	-0.009684557
90	0xbd4e0e26	-0.05030646
91	0xbaae84c8	-0.0013314718
92	0xbd79ce1a	-0.06098757
93	0xbda53b71	-0.08067978
94	0xbb73c038	-0.0037193429
95	0x3d0bc8f6	0.0341272
96	0xbc9f4014	-0.019439735
97	0x3ca36d4e	0.019949581
98	0xbc061350	-0.008183315
99	0x3d066839	0.03281424
100	0xbdab3746	-0.08360152
101	0x3c249750	0.010045841
102	0xbd5bf6cb	-0.053702157
103	0xbd4cbd31	-0.049985114
104	0x3c87e344	0.01658786
105	0xbd8b609f	-0.068055384
106	0x3c645348	0.013935871
107	0xbcce9258	-0.025216267
108	0x3cddad10	0.027060062
109	0xbd6d0cde	-0.0578736
110	0x3c4e0323	0.01257399
111	0xbcebd642	-0.02878869
112	0x3d388374	0.04504724
113	0xbdac64bf	-0.08417653
114	0xbd0c9b2c	-0.03432767
115	0x3c9b151c	0.018930964
116	0xbcd42255	-0.025895277
117	0xbb36af06	-0.0027875318
118	0x3b9963d3	0.0046810894
119	0xbc3eb4f8	-0.011639826
120	0xba7f3a80	-0.0009736195
121	0xbd7551ce	-0.05989247
122	0xbd1cb296	-0.03825625
123	0x3c8b25b0	0.016985744
124	0xbd5c8a6b	-0.053842943
125	0x3d05e5a6	0.032689713
126	0x3c83f1df	0.016106544
127	0xbdcbe638	-0.0995602
128	0xbd4a14c4	-0.04933621
129	0x3c7287d0	0.014802888
130	0x3cf93fb8	0.030425891
131	0x3d338519	0.043828104
132	0xb9426c00	-0.00018541515
133	0x3b095f20	0.002096124
134	0x3c8c89cc	0.01715555
135	0xbc2e3e7a	-0.010635013
136	0xbdcb9c09	-0.09941871
137	0x3c20a348	0.009804554
138	0xbd7c82e7	-0.061648276
139	0x3c996a2b	0.018727383
140	0x3cec0fd6	0.028816145
141	0x3d680254	0.056642845
142	0x3d775926	0.060387753
143	0x3c625090	0.013813153
144	0x3d5399c0	0.0516603
145	0x3af0f040	0.0018382147
146	0xb98b806d	-0.0002660783
147	0xbd09139a	-0.03346596
148	0x3b44f640	0.0030054003
149	0x3cbe2692	0.023211751
150	0x3a8edaa6	0.0010898903
151	0x3ca1bd00	0.019743443
152	0x3c67330b	0.014111291
153	0xbbd88fd1	-0.006608941
154	0x3cdde8c8	0.027088538
155	0x3c8da6f7	0.01729153
156	0x3d14fff7	0.03637692
157	0xbb7d23fe	-0.003862619
158	0x3d39e90a	0.04538826
159	0x3d1e2e32	0.038618274
160	0xbd8598d4	-0.0652329
161	0xbdb079fd	-0.086170174
162	0xbd81f819	-0.06346149
163	0x3c59fb4f	0.013304546
164	0x3d4da53f	0.05020642
165	0xbd29a251	-0.041414563
166	0x3b2dec00	0.0026538372
167	0x3d260932	0.040536113
168	0x3b194e7f	0.0023392735
169	0xbdaa93f4	-0.08329001
170	0x3b5836de	0.0032991688
171	0x3c7fdd27	0.015616692
172	0xbca37218	-0.019951865
173	0xbccbe75d	-0.024890596
174	0xbd686ef2	-0.05674643
175	0xbd6ae178	-0.05734393
176	0xbc79bb6d	-0.01524244
177	0x3acab1fb	0.0015464419
178	0xbc7425cb	-0.014901589
179	0x3d0c34e7	0.03423014
180	0xbc312a6e	-0.010813339
181	0xbd6c2422	-0.057651646
182	0xbada9cfa	-0.0016678863
183	0xbcad0580	-0.021120787
184	0xbce8e3d9	-0.028428959
185	0xbda776be	-0.08176945
186	0x3d4deb3f	0.050273176
187	0xbd73d784	-0.059531704
188	0xbcf7e902	-0.030262474
189	0xbd82ddd7	-0.06389969
190	0x3d04220f	0.032259043
191	0xbd249fcc	-0.040191457
192	0x3d1dea78	0.038553685
193	0x3d55c1f6	0.05218693
194	0x3d6776ba	0.05650971
195	0x3c84b8a6	0.016201328
196	0x3bbd3591	0.005774208
197	0xbd39475a	-0.04523406
198	0x3c5a2a77	0.0133157885
199	0xbd03cf69	-0.032180224
200	0x3c1dfea0	0.009643227
201	0xbd16b994	-0.036798075
202	0xbdb3b458	-0.08774632
203	0x3d44fd78	0.04809329
204	0x3d063414	0.03276451
205	0x3cf1f9ec	0.029538117
206	0x3c167c12	0.009184854
207	0x3c2299be	0.00992435
208	0x3cd635ac	0.02614864
209	0xbabf28c0	-0.0014584288
210	0xbd44b02b	-0.04801957
211	0x3a093858	0.0005234531
212	0xbc2163b6	-0.009850433
213	0xbc75438a	-0.014969716
214	0x3a0d4680	0.00053892285
215	0x3d360e3a	0.04444716
216	0xbd692b0c	-0.05692582
217	0xbb340a34	-0.0027471902
218	0x3c9fd023	0.019508427
219	0x3cdc9d7d	0.026930565
220	0x3bc12125	0.0058938437
221	0xbd27c00b	-0.04095463
222	0x3d19c9fc	0.037546143
223	0xbd0b9c81	-0.0340848
224	0x3cac6db5	0.021048406
225	0x3d0e1e30	0.034696758
226	0xbd1034f8	-0.035206765
227	0xbd3eadae	-0.046552353
228	0x3cc86ddc	0.024466448
229	0x3d5162e8	0.051119715
230	0xbc726b97	-0.014796159
231	0x3c29df30	0.010368153
232	0xbc9dbfe0	-0.019256532
233	0x3d40c67c	0.04706429
234	0xbd672245	-0.056429166
235	0xbd5c30cb	-0.05375747
236	0x3c75dfd8	0.015006982
237	0x3d62c2f4	0.055361703
238	0xbd550a76	-0.05201193
239	0xbd6b02ae	-0.057375602
240	0xbd79a66c	-0.060949728
241	0xbce61950	-0.028088242
242	0xbd466767	-0.048438456
243	0x3d4b7a72	0.04967732
244	0xbced68f1	-0.028980704
245	0x3d07f71a	0.03319464
246	0x3cdc127a	0.026864279
247	0xbcdadc9a	-0.02671652
248	0x3c68dcd7	0.014212809
249	0xbd890e0b	-0.066921316
250	0x3cb5d177	0.022194607
251	0xbdb0dce0	-0.086358786
252	0xbda4636e	-0.08026777
253	0xbd1e237a	-0.03860805
254	0x3c0b2050	0.008491591
255	0xbd81ec23	-0.06343868

network.2.bias f4 [128]
0	0xbd691068	-0.05690041
1	0xbda5a662	-0.08088376
2	0x3c8786a0	0.016543686
3	0xbd2ed865	-0.04268684
4	0x3c029aeb	0.007971506
5	0x3dd8b879	0.1058206
6	0xbd3857c0	-0.04500556
7	0xbd724a49	-0.059152875
8	0x3db4ebd1	0.08834041
9	0x3dec9fd1	0.1155392
10	0xbd09f844	-0.03368403
11	0xbdd500b1	-0.104005225
12	0xbd7670f1	-0.060166303
13	0x3d874480	0.06604862
14	0xbd4cb99f	-0.04998171
15	0xbcf06284	-0.02934385
16	0xbca5c61c	-0.020236067
17	0xbd937f54	-0.0720202
18	0xbc3e1f1b	-0.011604096
19	0x3dbd8779	0.09254355
20	0x3dd47e61	0.10375667
21	0xbd839f82	-0.06426908
22	0xbbb4ed23	-0.005521433
23	0xbd8a92bf	-0.06766271
24	0xbd472bc0	-0.048625708
25	0x3c8ae736	0.016955953
26	0x3e50cf74	0.20391637
27	0xbd5e034e	-0.05420237
28	0xbe033469	-0.12812962
29	0x3de47b69	0.11156351
30	0xbc711ec6	-0.01471681
31	0xbd3977a3	-0.04528011
32	0x3cdda534	0.027056314
33	0xbca648f8	-0.020298466
34	0x3d872dea	0.06600554
35	0xbd496271	-0.049166147
36	0xbd443a0f	-0.04790693
37	0xbd54333d	-0.051806677
38	0x3d9a67c8	0.07539326
39	0xbd381219	-0.044939134
40	0x3d017bd7	0.031612244
41	0x3d5fe766	0.054664038
42	0xbd10a8c1	-0.035317186
43	0x3c421814	0.011846561
44	0xbcfa276b	-0.030536374
45	0xbcf278bc	-0.029598586
46	0x3dee1208	0.11624533
47	0x3d101804	0.035179153
48	0xb9f79f0c	-0.0004723001
49	0xbd86cf6d	-0.06582532
50	0x3de0f9f6	0.10985176
51	0x3d568cb4	0.05238028
52	0xbd45dafa	-0.048304535
53	0xbd1e426f	-0.038637575
54	0x3cfcf56a	0.030878741
55	0x3b89bff9	0.004203793
56	0x3d43695e	0.047707908
57	0x3e03a957	0.12857567
58	0x3d0ad39d	0.033893216
59	0xbcb3c7b2	-0.021945808
60	0xbda4c79a	-0.080458835
61	0x3ce7383b	0.028225055
62	0xbd2d60bc	-0.04232858
63	0x3dd45e82	0.103695884
64	0xbd5718f4	-0.05251403
65	0x3d581a5c	0.052759513
66	0xbd8a1f56	-0.06744258
67	0xbd344d49	-0.044019017
68	0x3cc80ac5	0.024419198
69	0x3cd4487e	0.025913473
70	0xbd8413b1	-0.06449068
71	0x3d9277e7	0.07151776
72	0xbbc01c78	-0.0058627687
73	0x3db18e71	0.08669747
74	0x3cfc6a18	0.030812308
75	0x3e04a712	0.12954357
76	0x3d065b2e	0.0328018
77	0x3d85e9d7	0.06538742
78	0xbdb2bc75	-0.087273516
79	0x3cb62b83	0.022237545
80	0x3d5afc19	0.053463075
81	0x3db2b840	0.08726549
82	0x3df5fd45	0.12011198
83	0x3dc1bf08	0.094602644
84	0x3c2004a7	0.009766734
85	0x3caf245c	0.021379642
86	0x3d72de6c	0.05929415
87	0xbd8fcaf6	-0.070211336
88	0xbd345904	-0.044030204
89	0x3c294e5e	0.010333626
90	0xbda713f3	-0.08158102
91	0xbc08a70a	-0.0083406065
92	0x3d5b7156	0.053574882
93	0x3cbdd3bb	0.02317225
94	0xbd8e98f2	-0.06962766
95	0x3da70052	0.08154358
96	0x3c28df36	0.010307124
97	0x3d7a8e11	0.06117064
98	0x3dd83f13	0.105589055
99	0xbdec4dd9	-0.11538286
100	0x3d8ce0af	0.068787925
101	0xbc97355c	-0.01845806
102	0x3d536e93	0.051619124
103	0x3c43466b	0.011918644
104	0x3db22155	0.08697764
105	0xbd416caa	-0.04722277
106	0xbd27bd9c	-0.04095231
107	0xbd9d9d9d	-0.07696078
108	0xbd36ad08	-0.04459861
109	0xbcbc4c46	-0.022985589
110	0xbc31587c	-0.010824319
111	0x3dd78de2	0.10525109
112	0xbd74dd40	-0.059781313
113	0xbca9029e	-0.02063113
114	0x3c538260	0.012909502
115	0xbdbf5e11	-0.093441136
116	0x3e66a8e8	0.2252537
117	0xbd58a7ec	-0.052894518
118	0xbd258966	-0.040414236
119	0xbd34b2dc	-0.044115886
120	0x3df6e330	0.12055051
121	0x3db3c357	0.087774925
122	0xbd86665f	-0.065624945
123	0x3d6a5a88	0.057215244
124	0xbde637eb	-0.11241134
125	0xbd9eca76	-0.0775346
126	0x3cd5d7b8	0.02610384
127	0x3d9db66d	0.077008106

network.4.weight f4 [64, 128]
0	0x3c137230	0.008999392
1	0xbcff1c89	-0.031141536
2	0xbd770dd7	-0.060315933
3	0x3d1a22b1	0.03763074
4	0xbda0f057	-0.07858341
5	0xbd4c42ab	-0.049868267
6	0x3dada655	0.08478991
7	0x3ce0f4c8	0.02746047
8	0x3d8328e3	0.06404283
9	0xbcce0fac	-0.025153957
10	0x3d990cab	0.07473119
11	0x3d83153f	0.06400537
12	0xbd0be714	-0.03415592
13	0x3d7e1216	0.062028967
14	0x3d89d66f	0.06730353
15	0x3c6ffe36	0.014648011
16	0xbc1b0338	-0.009461217
17	0x3dae244b	0.08503016
18	0x3d729da2	0.05923236
19	0xbb975ab0	-0.004618965
20	0xbc49e344	-0.012322251
21	0xbd198d86	-0.037488483
22	0x3c8cf4e4	0.017206617
23	0x3d769372	0.06019921
24	0x3daf37b1	0.08555544
25	0xbdb1f90b	-0.08690079
26	0xbd9b8743	-0.075941585
27	0xbdb11784	-0.086470634
28	0xbba8d6e0	-0.005152568
29	0x3d965ac9	0.07341535
30	0x3d55630e	0.05209642
31	0x3da37b2e	0.07982479
32	0x3b37fb00	0.0028073192
33	0x3b1cec20	0.0023944452
34	0x3d5866ba	0.052832343
35	0x3d007eba	0.031370856
36	0xbda82a84	-0.08211234
37	0x3d26fdae	0.04076927
38	0xbda7ba59	-0.0818984
39	0x3d09dc8c	0.033657596
40	0xbd793181	-0.060838226
41	0xbd46f91d	-0.048577417
42	0xbd83af03	-0.06429865
43	0xbd66720e	-0.056261115
44	0xbd3afe9f	-0.04565298
45	0x3d51dbc2	0.051234968
46	0xbd6e5b48	-0.05819252
47	0xbd428ffb	-0.04750059
48	0xbd9b80c0	-0.075929165
49	0xbe054888	-0.1301595
50	0xbcac5698	-0.021037385
51	0xbc241a60	-0.010016054
52	0xbd519fba	-0.051177718
53	0x3d7b6fde	0.06138598
54	0xbd6d094e	-0.0578702
55	0xbd11d7ab	-0.035606068
56	0x3d3d339e	0.046191804
57	0xbd395672	-0.045248456
58	0xbdb74091	-0.08947862
59	0x3ca81a50	0.02052036
60	0xbcf5c016	-0.02999882
61	0x3d3e8206	0.04651072
62	0x3cbf3a14	0.023343123
63	0x3d400616	0.046880804
64	0xbd84b72e	-0.06480251
65	0x3cd23344	0.025659211
66	0x3ba67a10	0.005080469
67	0x3dafdd8f	0.08587181
68	0x3d3396c6	0.04384496
69	0x3ccfaa20	0.025349677
70	0xbd8e8568	-0.06959039
71	0xbd89d30a	-0.06729706
72	0xbdaeef47	-0.08541732
73	0xbce297bb	-0.027660241
74	0xbd2120a2	-0.03933776
75	0x3b10b1c0	0.0022078604
76	0xbca2b74d	-0.019862795
77	0xbcae0760	-0.021243751
78	0x3da41959	0.08012647
79	0xbd144b48	-0.036204606
80	0x3d78a02a	0.06069962
81	0x3db0b01f	0.086273424
82	0xbd38bc00	-0.045101166
83	0xbcf9328e	-0.030419614
84	0xbceb0778	-0.028690085
85	0x3c4cc3b0	0.012497827
86	0xbd0d7079	-0.03453109
87	0x3de66c80	0.112511635
88	0xbd031182	-0.03199912
89	0x3d8d02a3	0.068852685
90	0x3d595526	0.05305972
91	0x3c79b20d	0.0152402045
92	0xb9eff200	-0.00045765936
93	0xbbd9dcf0	-0.0066486523
94	0x3bff4b25	0.0077909403
95	0xbd8003a9	-0.06250698
96	0xbcf2e62c	-0.02965077
97	0x3d56d879	0.05245254
98	0x3c0be850	0.008539274
99	0x3c891788	0.016734853
100	0xbd96fe84	-0.07372764
101	0x3cd9b0fc	0.02657365
102	0x3b78da20	0.003797181
103	0xbda287ff	-0.079360954
104	0x3cf83284	0.030297525
105	0xbb411760	-0.0029463395
106	0x3d4c607e	0.04989671
107	0xbc5086b0	-0.0127274245
108	0xbda13dde	-0.07873128
109	0xbd95f962	-0.073229566
110	0x3d320bfa	0.043468453
111	0xb9b4d33d	-0.0003448966
112	0xbbe13ef0	-0.006873958
113	0x3cee6dc8	0.029105082
114	0xbd36ba7e	-0.044611447
115	0x3c62d458	0.013844572
116	0xbcc31d58	-0.023817703
117	0xba1de000	-0.00060224533
118	0x3d73b1a6	0.05949559
119	0x3cf48fac	0.029853664
120	0x3c0491b0	0.008091375
121	0xbda84cac	-0.08217749
122	0x3db1386d	0.086533405
123	0x3da6e983	0.081500076
124	0xbd35ffaf	-0.044433292
125	0x3da8cf77	0.08242696
126	0x395852f5	0.00020630269
127	0xbd39817a	-0.045289494
128	0x3d9fd021	0.07803369
129	0xbd9a3e65	-0.07531432
130	0xbd26d80d	-0.040733386
131	0x3c4d96c3	0.012548151
132	0x3c50db2b	0.012747566
133	0x3e64b6cc	0.22335356
134	0xbd94b114	-0.072603375
135	0xbca604a2	-0.020265881
136	0x3df814db	0.12113353
137	0x3e660f13	0.22466688
138	0xbdb5cbe6	-0.08876781
139	0xbd2e99db	-0.042627197
140	0xbd31be6e	-0.0433945
141	0x3e082242	0.13294318
142	0xbd61e2a6	-0.05514779
143	0x3c717af3	0.014738786
144	0xbd70b214	-0.05876358
145	0x3d3789b4	0.04480906
146	0x3cfeca34	0.031102277
147	0x3d20f091	0.039291922
148	0xbf4f0790	-0.80870914
149	0xbcdb2032	-0.02674875
150	0x3cd8ef12	0.026481185
151	0xbdbfad22	-0.09359194
152	0x3b63fcd4	0.0034788148
153	0x3db62042	0.088928714
154	0x3eec40ae	0.46143097
155	0x3cb7519f	0.022377787
156	0x3caf7cbd	0.021421785
157	0x3d83214c	0.06402835
158	0xbd921c11	-0.071342595
159	0x3c0d14a1	0.008610875
160	0xbd8a640a	-0.06757362
161	0x3db04265	0.08606414
162	0x3e31f19c	0.17377323
163	0x3dd4fb2c	0.1039947
164	0xbd0a601d	-0.033783067
165	0xbd432a73	-0.047647905
166	0xbc9d1312	-0.019174132
167	0xbd42fecf	-0.047606286
168	0x3adce752	0.0016853607
169	0xbeab8170	-0.3349719
170	0x3d1e113b	0.03859065
171	0x3e38a322	0.1803098
172	0x3da5b4ab	0.080911
173	0xbd058767	-0.032599833
174	0x3e67335b	0.22578184
175	0xbdb257a7	-0.087081246
176	0x3e622cfd	0.22087474
177	0x3e301132	0.1719406
178	0x3e582d9b	0.21111147
179	0x3e0565b7	0.13027082
180	0xbd21b0db	-0.039475303
181	0xbda00616	-0.07813661
182	0x3e85cfa9	0.26134995
183	0xbd9b5817	-0.07585161
184	0x3e7386b0	0.23781848
185	0x3e17e452	0.14833191
186	0x3dd93bec	0.10607132
187	0x3cb32cfd	0.021872038
188	0x3bbcfa89	0.005767171
189	0xbc9be330	-0.01902923
190	0x3d9ac8e9	0.07557852
191	0x3e5cad57	0.21550499
192	0x3c4a8a50	0.012362078
193	0xbd5ed403	-0.05440141
194	0x3d2ef51f	0.042714234
195	0x3d6f029b	0.058352094
196	0x3d89da05	0.06731037
197	0xbd802829	-0.0625766
198	0xbd7038f4	-0.058648065
199	0x3daf3944	0.085558444
200	0x3a9a46b8	0.0011770343
201	0x3db57918	0.088609874
202	0x3d2842be	0.041079275
203	0x3dd73f1f	0.10510086
204	0x3e83f5cc	0.25773466
205	0x3df21dfc	0.11822125
206	0x3c180c3a	0.009280259
207	0x3e0ae4c6	0.13563833
208	0xbd50c0f8	-0.05096528
209	0x3e0d235d	0.13783021
210	0x3e93512f	0.28772876
211	0x3dc8ab7d	0.09798334
212	0x3d94ce3b	0.07265898
213	0x3e0332f0	0.128124
214	0x3de4f76e	0.11180006
215	0xbc74bc5c	-0.0149374865
216	0x3c9a5394	0.018838681
217	0x3d2f3e61	0.0427841
218	0xbd05813e	-0.032593958
219	0x3e707ccf	0.2348511
220	0x3de93b6f	0.11388289
221	0xbcf8fe6d	-0.030394757
222	0x3cf8c5d8	0.030367777
223	0x3d617b46	0.055049203
224	0x3dee15c6	0.11625247
225	0x3e090691	0.13381411
226	0x3e41f418	0.1894077
227	0x3d271bca	0.040797986
228	0x3e5b7eaa	0.21435037
229	0x3d187e6a	0.037229933
230	0xbd308ed5	-0.043104965
231	0x3df30f42	0.118681446
232	0x3dc893a5	0.09793786
233	0xbde31377	-0.11087697
234	0x3d04f690	0.032461703
235	0xbbb4d9a3	-0.0055191084
236	0x3d0e71df	0.034776565
237	0x3c846237	0.016160114
238	0x3d75682a	0.05991379
239	0x3e7313df	0.23738049
240	0x3d9ffdb3	0.07812061
241	0x3d5b2a91	0.05350739
242	0x3e691438	0.22761619
243	0xbd02a5aa	-0.03189627
244	0x3ed888ff	0.4229202
245	0xbda29e15	-0.07940308
246	0xbd1bc5c4	-0.0380304
247	0x3d48f488	0.04906133
248	0x3da7bd2f	0.08190381
249	0x3d352abe	0.044230215
250	0x3cc12c03	0.023580557
251	0x3df49203	0.11941912
252	0xbd97a8b0	-0.074052215
253	0xbd9ab4ff	-0.075540535
254	0x3b233521	0.0024903493
255	0x3dd90dd2	0.10598339

network.4.bias f4 [64]
0	0xbd515dd1	-0.05111486
1	0x3e4aeac3	0.19816117
2	0x3cf26132	0.029587362
3	0x3e0e0122	0.1386762
4	0xbcaf372a	-0.021388609
5	0x3dacd77a	0.084395364
6	0x3d1336c6	0.035940908
7	0x3d07edb7	0.033185687
8	0xbe07ae2e	-0.13250038
9	0xbd51637d	-0.05112027
10	0xbdabc2f8	-0.08386797
11	0xbd831688	-0.06400782
12	0x3e8142a1	0.25246146
13	0xbe00a67b	-0.12563507
14	0xbcbc829d	-0.0230115
15	0x3d7ee1ad	0.06222694
16	0xbdf162b7	-0.117864065
17	0xbdb7b585	-0.08970169
18	0xbd2478ae	-0.04015415
19	0x3dfcb492	0.123391286
20	0x3c9c27b6	0.019061904
21	0xbdca5fc1	-0.09881545
22	0x3de20d81	0.11037732
23	0xbde975c8	-0.11399418
24	0x3e02ca3f	0.12772463
25	0xbe5af374	-0.21381932
26	0xbdc9bb8e	-0.09850226
27	0x3e7d1c8d	0.24717923
28	0x3d751b18	0.05984029
29	0xbd314c16	-0.04328545
30	0xbdf26f22	-0.11837603
31	0xbda4fb8b	-0.080557905
32	0x3d31c3dc	0.043399677
33	0x3e406356	0.18787894
34	0x3cdad7cd	0.02671423
35	0x3d9b2c5a	0.07576819
36	0x3d48c3c2	0.049014814
37	0xbde506ee	-0.11182962
38	0xbd150421	-0.03638089
39	0xbd474443	-0.048649084
40	0xbda0bf17	-0.078489475
41	0xbd976d46	-0.07393889
42	0x3e33fd38	0.17577064
43	0xbe264fb9	-0.1624135
44	0x3dd6d1a8	0.104892075
45	0xbdfc7fd9	-0.123290725
46	0x3e0d55ac	0.13802212
47	0x3dc67550	0.09690344
48	0x3dccb85e	0.09996103
49	0x3e2bda98	0.16782606
50	0xbd3b797d	-0.045770157
51	0x3dd65a80	0.1046648
52	0x3d1b46bb	0.03790925
53	0xbcd2da91	-0.025738986
54	0x3e8850ca	0.26624137
55	0xbd22b8b4	-0.039726928
56	0x3e1e84a5	0.15480287
57	0x3e3da21b	0.1851887
58	0xbd109a87	-0.03530362
59	0xbda924fc	-0.08259007
60	0x3d57d5a4	0.052693978
61	0x3d9364a7	0.07196932
62	0x3e221b02	0.15830615
63	0xbd665838	-0.056236476

network.6.weight f4 [2, 64]
0	0x3d4e06fc	0.05029963
1	0x3e76956b	0.24080436
2	0xbde8342c	-0.11338076
3	0x3ec8b75d	0.39202395
4	0xbdb6fe3a	-0.089352086
5	0x3d07925a	0.033098556
6	0x3e3857ee	0.18002293
7	0x3ec1b358	0.3783214
8	0x3dbe82dc	0.09302303
9	0xbd282101	-0.0410471
10	0x3d84dd00	0.06487465
11	0x3d41506f	0.047195848
12	0x3ee4ad6a	0.44663554
13	0xbca2bfb8	-0.01986681
14	0x3e4bab82	0.19889644
15	0xbd8ba065	-0.06817702
16	0xbdd462b8	-0.103703916
17	0x3d6d7488	0.05797246
18	0x3b1e41b3	0.0024148047
19	0x3e3534a5	0.17695864
20	0xbe3a4607	-0.18190776
21	0xbd979672	-0.07401742
22	0x3e00abff	0.12565611
23	0xbcf07059	-0.029350447
24	0x3de47bef	0.11156451
25	0xbea4edbe	-0.32212633
26	0x3cde2c19	0.027120637
27	0x3e2ff186	0.17181978
28	0x3daa8045	0.08325247
29	0xbea624e9	-0.32450035
30	0xbeb8c3b8	-0.36086822
31	0x3eb08680	0.34477615
32	0x3e5d5c73	0.21617298
33	0x3ece1183	0.40247735
34	0x3eab1334	0.33413088
35	0x3ee6c193	0.4506956
36	0x3d396e7e	0.04527139
37	0x3d877110	0.06613362
38	0xbcc675f6	-0.02422617
39	0xbc0779b0	-0.008268759
40	0xbdceb082	-0.1009226
41	0xbda8f825	-0.08250455
42	0x3eb7d625	0.35905567
43	0xbe810aaf	-0.25203463
44	0x3eb0af51	0.34508756
45	0xbd58bf88	-0.052917033
46	0x3de016cc	0.10941848
47	0x3f036f7b	0.5134198
48	0x3e03ac89	0.12858786
49	0x3edb1305	0.42787948
50	0x3c891790	0.016734868
51	0x3e864650	0.2622552
52	0x3e291e99	0.16515578
53	0xbdd95ae5	-0.1061304
54	0x3ed0cd66	0.40781707
55	0xbce437f8	-0.02785872
56	0x3e3ccdea	0.18437925
57	0x3da3805a	0.079834655
58	0x3d3afd2c	0.0456516
59	0x3e855f60	0.26049328
60	0x3e356528	0.1771437
61	0x3d2651db	0.040605407
62	0x3e8ee06c	0.27905595
63	0xbd21afdc	-0.039474353
64	0xbbbfb30d	-0.005850202
65	0x3e540a1b	0.2070698
66	0x3d3bc6cf	0.045843896
67	0x3d627cce	0.055294804
68	0x39f0268e	0.00045805093
69	0x3d84e769	0.064894505
70	0x3e4ca5f1	0.19985177
71	0x3e710e7c	0.23540682
72	0xbd878f63	-0.06619146
73	0xba1174ef	-0.00055487355
74	0xbd526664	-0.05136718
75	0x3d9207ec	0.07130417
76	0x3ebc0f61	0.36730483
77	0xbcf63bdf	-0.030057846
78	0xbdc5eb4a	-0.096640185
79	0x3e78298b	0.24234597
80	0x3c9776de	0.018489297
81	0x3bdeb2b6	0.0067962063
82	0xbd5ec704	-0.054389015
83	0x3dca7632	0.09885825
84	0xbe84ba73	-0.259235
85	0xbe066793	-0.13125448
86	0x3e336be2	0.17521623
87	0xbcfd0b6e	-0.03088924
88	0x3e27da0d	0.16391774
89	0xbdf3a8c1	-0.11897422
90	0xbda2b8a5	-0.079453744
91	0x3ecb2943	0.39679918
92	0x3e12780e	0.1430361
93	0xbcd382db	-0.025819233
94	0xba91d098	-0.0011124788
95	0x3dcd1113	0.10013022
96	0x3e1dc137	0.15405737
97	0x3e8e0450	0.27737665
98	0x3e7ffa44	0.24997813
99	0x3dd3689b	0.10322686
100	0x3e2b4cd8	0.16728532
101	0x3d204500	0.039128304
102	0xbc74c990	-0.014940634
103	0x3d2a2f4a	0.041549005
104	0xbd971925	-0.07377843
105	0xbd079bde	-0.03310763
106	0x3e3b7f40	0.18310261
107	0xbe087c52	-0.13328674
108	0x3e9bf07e	0.30456918
109	0x3caff69c	0.021479897
110	0x3e25b095	0.16180642
111	0x3dac8f4c	0.08425769
112	0x3e1f70a9	0.1557032
113	0x3e3e2372	0.18568209
114	0x3e119f8a	0.14221016
115	0x3d5285d4	0.05139716
116	0x3e0fb82a	0.14035097
117	0xbda71d1a	-0.081598476
118	0x3eab1e00	0.33421326
119	0x3cc4c029	0.02401741
120	0x3e8d7dc2	0.27635008
121	0x3ea75166	0.3267929
122	0x3d30ddab	0.04318015
123	0x3db84204	0.089969665
124	0x3e56c33a	0.2097291
125	0x3e91f81a	0.285096
126	0x3e93a891	0.28839543
127	0xbbc9dc20	-0.006160274

network.6.bias f4 [2]
0	0x3ea5c716	0.32378453
1	0x3e991fba	0.29907018
