models/monopoly_ai_trading.pth (torch, 208656 bytes, 8 tensors)

fc1.weight f4 [128, 205]
000000 aa 44 52 3c 34 23 cd bd 01 04 99 3c 81 58 02 bd
       0.012833754 -0.1001648 0.018678667 -0.031822685
000010 8d 6e 1a 3d 99 e5 5a bd ec 81 04 bd 34 eb 8e bd
       0.037703086 -0.053441618 -0.032350466 -0.06978455
000020 8f 3a cd bd ec 5e 32 3d 60 73 02 bc fd 7c 6b 3d
       -0.10020935 0.043547556 -0.007962078 0.057492245
000030 11 8d 3b bd cf 58 89 3d 35 50 fd 3c 5a 53 57 bd
       -0.04578883 0.06706392 0.030922035 -0.052569725
000040 72 7a 7f bd 04 16 6b 3d bb 3c 01 3d 99 25 4a bd
       -0.062372632 0.057394043 0.031552058 -0.049352262
000050 88 a2 fb bb 31 62 55 bd e4 4f 4a 3c 58 0c 38 3d
       -0.0076792873 -0.052095596 0.012348149 0.044933647
000060 ea b9 89 bd e8 17 59 bd 7a 2f 13 ba 70 01 58 bd
       -0.067249134 -0.053001314 -0.00056146795 -0.052735746
000070 7b be be 3c 1e 65 93 3c 00 55 1c bc b4 76 89 bd
       0.023284188 0.017992552 -0.00954175 -0.06712094
000080 b0 60 d0 bd 57 39 03 bd 3e ed 4d be 2d 02 80 3d
       -0.10174692 -0.032037105 -0.20110032 0.06250415
000090 6b 3c 50 3d 7f e7 ec 3c 56 8b 70 bd 0c ee 3f bc
       0.05083887 0.02891898 -0.05872663 -0.01171447
0000a0 9f e9 86 3d 47 29 2e 3c 5e 9f 6a bd f9 1a 5f 3d
       0.065875284 0.0106299585 -0.05728089 0.054469083
0000b0 e4 75 1b be 97 c7 c5 3b 12 1d ac bc be 9d 4b bd
       -0.1518169 0.006035756 -0.021009956 -0.04971098
0000c0 16 01 94 bd 96 18 7c 3d 4b e2 c4 bc 02 02 e8 bc
       -0.072267696 0.061546884 -0.024033686 -0.02832127
0000d0 a0 7b 8c bd e6 2b 84 3d 6a 28 69 3a 7e 07 fe bc
       -0.06859517 0.064536855 0.0008894267 -0.031009432
0000e0 ec e0 69 3d d9 82 ab bd 9e 29 47 bd d9 23 e0 bd
       0.057099268 -0.083745666 -0.048623674 -0.109443374
0000f0 57 22 8a 3d e1 4d 2b 3b 5e f9 87 3d d0 8f 48 bd
       0.06744831 0.0026138949 0.0663936 -0.048965275
000100 c1 33 a6 3d 1b 23 ca 3c 57 48 cd bc 85 b0 fb 3c
       0.0811534 0.024674943 -0.025058908 0.03072382
000110 bc 55 6b 3d e2 d1 82 bc 50 c7 07 bd 95 89 10 3b
       0.05745481 -0.01596922 -0.033149064 0.0022054662
000120 de 45 30 be 61 4f 00 be a8 07 6a 3d 68 a9 74 bd
       -0.17214152 -0.1253028 0.057136208 -0.05973187
000130 d8 e6 86 3d 62 f6 d1 bd 1e a9 cc 3c 4d ba 71 bd
       0.06586999 -0.10252072 0.024982985 -0.05901556
000140 1c 5b 98 bc a7 d4 ef 3c f9 12 40 3c 70 fe 82 bd
       -0.018598132 0.029276205 0.011723273 -0.06396186
000150 2a 51 ea bd a7 cd 1c bc 72 f9 81 3c 57 d2 5d 3d
       -0.11441262 -0.009570516 0.015866015 0.054155674
000160 7d b6 71 bd c5 d2 56 3d b4 4b 84 3d 41 6d 1e 3c
       -0.059011925 0.0524471 0.06459752 0.009669603
000170 1a c9 ac bc f0 c6 2f 3d 45 f6 b1 bd 2f b0 3d bb
       -0.021091986 0.04291433 -0.0868955 -0.0028944125
000180 da 61 4d bd 29 c2 38 3d ba d7 34 be 1d 7b 35 be
       -0.050142147 0.04510704 -0.17660418 -0.17722745
000190 07 53 9e bc cb b9 25 bd 9f 52 36 bd 74 4c cc bc
       -0.0193267 -0.04046039 -0.044512387 -0.0249388
0001a0 80 ff 66 bc 79 eb 2d bd 7c 6d 83 bd d8 52 05 be
       -0.014099002 -0.042460892 -0.06417367 -0.13019884
0001b0 21 0d 29 be 09 91 99 3d 1e 00 04 bc 31 a2 49 bc
       -0.16508915 0.074983664 -0.008056669 -0.012306736
0001c0 bf f4 c9 3c 67 0f 82 3d 89 03 83 3d bd 15 13 3c
       0.024652837 0.06350594 0.06397159 0.008977351
0001d0 4c fa b3 3c b1 f6 9c bd 25 9c bd bd 76 d6 95 bd
       0.021969937 -0.0766424 -0.09258298 -0.07316296
0001e0 8b 43 2b 3c e8 f9 7b b9 41 9b ef bd 80 c6 1b bd
       0.010453115 -0.00024030323 -0.11699534 -0.0380311
0001f0 df 35 76 bd d2 0a 6b 3d 28 78 09 bc 57 31 6c 3c
       -0.06010997 0.057383366 -0.008390464 0.01441606
000200 30 0e d3 bd 56 68 ce bd 41 b2 8b bd a7 da c3 bc
       -0.103054404 -0.10078494 -0.068211086 -0.023907972
000210 ab cd 7d bd cf 17 7a bc a9 59 37 bd fc 06 e8 bc
       -0.06196372 -0.0152644655 -0.04476324 -0.028323643
000220 48 37 06 3c 50 8a 72 3d 2f ec 2e be 9d aa f5 3c
       0.008191891 0.059213936 -0.17082284 0.029988581
000230 71 c2 a3 bb 78 38 0a 3c a7 99 d5 bc f1 b1 d0 bc
       -0.0049975445 0.008436315 -0.026074244 -0.025475474
000240 8b 51 e4 3c ff 91 5d bd c7 0e f7 3c 50 23 c1 bd
       0.027870914 -0.05409431 0.030158414 -0.094305634
000250 56 c1 86 3d fd 2e 98 bc 6e 17 47 bc cb 6f a4 ba
       0.06579845 -0.018577093 -0.012151582 -0.0012545524
000260 11 22 6b bd 26 e2 dd bc 17 49 98 3c 87 3d 98 3a
       -0.057405535 -0.027085375 0.01858954 0.0011615016
000270 a9 b0 26 bd 71 81 91 3b fa 64 d6 3a 68 a4 59 bd
       -0.04069582 0.0044404794 0.0016356998 -0.053135306
000280 12 e1 39 bd fc 89 61 3d 9c 35 90 bd d8 02 86 3c
       -0.04538066 0.055063233 -0.07041475 0.016358778
000290 92 f0 e4 bc ce b9 c6 bc dd ce f9 3b 07 20 6c 3d
       -0.027946744 -0.02425852 0.007623537 0.05764773
0002a0 f4 74 37 3d be 69 4a 3d dd 8e dd bc ca 8b 68 bd
       0.04478927 0.04941725 -0.027045662 -0.05677394
0002b0 c5 6d 06 3d b7 ca 8a 3d 95 0c c9 bc 01 f2 a3 3c
       0.032819528 0.06776946 -0.024542132 0.020012857
0002c0 37 56 59 3c b1 bf 36 be 09 a9 97 bc d8 b1 a1 bd
       0.013265184 -0.17846562 -0.01851322 -0.07895249
0002d0 e6 cb 9b bc fa 02 a6 bc 32 b2 4c bd 7e 37 cf 3c
       -0.019018125 -0.020265091 -0.049974628 0.025295015
0002e0 b7 09 fb bc a0 8e 85 3c cb 16 87 bd 89 79 ba bd
       -0.03064428 0.01630336 -0.06596144 -0.09105212
0002f0 a3 46 90 bd b5 15 0a be 21 71 08 3d 04 9f 27 3d
       -0.07044723 -0.13484843 0.033311013 0.040923133
000300 13 3f e5 bc e6 a2 55 bc 41 62 0c bc e0 ee b3 b9
       -0.027984178 -0.013039326 -0.008568347 -0.00034319516
000310 ff a8 f4 b8 e5 6b 30 bd 2b 8e cf bd 0b c1 34 bd
       -0.000116663046 -0.043071646 -0.10134538 -0.044129413
000320 07 5b bb bb 6d b0 8b 3d ab fd 36 3d 0b 8a 8f bc
       -0.0057176384 0.0682076 0.04467551 -0.017521879
000330 92 95 e1 3a 38 4a fc bc da 15 17 be 11 50 37 3d
       0.0017210713 -0.030797109 -0.1475443 0.04475409
000340 4f 83 8c 3d be 11 fe bc 82 02 1d 3d 47 b3 39 bd
       0.068609826 -0.03101432 0.03833247 -0.045336988
000350 bd 04 b9 3c ff 11 ee bd a0 1e 32 ba df f3 db 3b
       0.022585267 -0.11624526 -0.00067947246 0.0067124213
000360 70 40 c8 3c 9a 50 32 bd a4 84 19 3d e9 9e d4 bc
       0.024444789 -0.0435339 0.03748001 -0.02595468
000370 8f 96 28 3c 70 5b 45 bc d5 06 bd 3d c4 37 f8 3b
       0.010289802 -0.012045726 0.09229819 0.007575007
000380 41 a4 34 3c 8e 14 7f bd a9 27 11 bd 06 f0 19 bd
       0.011025489 -0.06227546 -0.035438213 -0.03758242
000390 4d d1 65 bd 5d 8c 76 3d b6 69 5a 3c 42 1a b5 3c
       -0.056107808 0.060192455 0.0133308675 0.022107247
0003a0 62 ce 39 3c b6 78 9a bd b0 19 90 bc 6f 9b 5d bd
       0.011340709 -0.07542555 -0.017590374 -0.05410331
0003b0 83 00 c8 bc e4 03 9d bd c7 05 a8 3a fd 03 92 bd
       -0.024414307 -0.07666758 0.0012819105 -0.07129667
0003c0 ed 09 38 bd 22 c1 84 3d e2 45 f7 3c 2d 33 37 bc
       -0.04493134 0.0648215 0.03018469 -0.011181635
0003d0 8d 0d 8a 3c 85 47 ea bc a6 51 75 3d db d0 dd 3c
       0.016852165 -0.028598556 0.05989232 0.02707713
0003e0 82 1c 20 bb a5 94 2a 3d 00 a4 70 bc 79 9d 7d 3d
       -0.0024431054 0.041645665 -0.014687538 0.061917756
0003f0 48 7e b7 bc dd a4 dc bd bc 91 0e 3b 47 1f 49 3d
       -0.022399083 -0.10773633 0.0021754345 0.049102094

fc1.bias f4 [128]
000000 94 66 08 bd 96 17 0c be 97 72 e9 bd fa 8b 81 bd
       -0.03330095 -0.13680872 -0.113988094 -0.063255265
000010 85 44 19 bd fa bb 2b bd c9 32 af be 67 8d a5 bd
       -0.03741886 -0.041927315 -0.34218433 -0.08083611
000020 03 cf 32 bf 00 19 09 be 99 97 a7 bb 6e 06 2b be
       -0.69847125 -0.13388443 -0.0051145074 -0.16701671
000030 fa d8 b8 be cc 96 8c be cb 45 28 bf 5b f5 25 3c
       -0.3610304 -0.274588 -0.65731496 0.010129298
000040 0c b8 13 be 11 46 bc be 2d 91 f3 bb ce 0a 54 bf
       -0.14425677 -0.36772206 -0.007433078 -0.82828987
000050 e0 1b bc be b7 ed b5 be d5 57 0c bf 51 a4 99 3a
       -0.36740017 -0.35532925 -0.5482152 0.0011721944
000060 9a 01 db bd 84 e2 5b be 62 fe 52 be 27 58 15 bf
       -0.10693665 -0.21473128 -0.20604852 -0.58337635
000070 51 c3 3e bf b5 d2 b6 bd 68 85 e5 bd 21 c4 66 bd
       -0.7451678 -0.08926908 -0.11207086 -0.056339387
000080 95 0a fa bd eb 71 2d bd ed d2 05 be 2f 1f 4c be
       -0.122090496 -0.04234497 -0.13068743 -0.1993377
000090 e9 d3 61 bd 38 45 93 be 39 58 9e bd 2d 80 b3 be
       -0.055133734 -0.28763747 -0.07731671 -0.35058728
0000a0 a2 18 1a bf 91 75 ce be 09 82 fe be 83 ff 99 bd
       -0.60193837 -0.4032407 -0.49708584 -0.07519438
0000b0 de f5 74 bd a3 1d ee be 56 89 14 be 38 e6 81 bd
       -0.05980479 -0.46506986 -0.14505515 -0.06342739
0000c0 de ed 90 bd f2 a5 15 bf bd 52 08 bd 9d ae e8 be
       -0.070766196 -0.5845634 -0.03328203 -0.4544572
0000d0 f8 b7 77 be 68 c8 c9 bd b4 46 74 be 8c 42 a9 bd
       -0.24191272 -0.098526776 -0.23855096 -0.08264646
0000e0 72 d7 9b be b8 a8 8c 3c fd 81 2f bf 1d a8 28 bf
       -0.3043781 0.017170295 -0.6855772 -0.6588152
0000f0 6c 2b db bc 25 fa 60 be 46 05 7d bd c2 2d 5e bd
       -0.026754104 -0.21970423 -0.061772607 -0.054242857
000100 88 dc 29 bb a0 72 5d be d9 b4 b8 bd c4 4e 6c be
       -0.00259188 -0.21625757 -0.09018869 -0.23076922
000110 17 24 7f bf 93 b7 fd bd a2 9c c8 bd d4 fc 4d bd
       -0.99664444 -0.1238853 -0.097955 -0.050289944
000120 3b 1b 61 be 34 6f d6 bf 06 77 ab bd da 4a 1b bf
       -0.21983044 -1.6752687 -0.08372311 -0.6066109
000130 1e b2 86 be 33 92 95 be 49 67 04 bf 04 8a 5f be
       -0.26307768 -0.29213104 -0.517201 -0.21829993
000140 5a e1 02 be ad 86 4b bd 5c 89 fb bd 21 8f 97 be
       -0.12781277 -0.049688984 -0.122820586 -0.29601386
000150 e5 46 16 3b 54 fb 86 be 41 af d5 be 72 af 37 be
       0.002293044 -0.26363623 -0.4173527 -0.17938021
000160 b5 ca a6 be 38 e3 29 bf f5 c3 7a be cd 1e c2 be
       -0.32576528 -0.66362333 -0.24488814 -0.37914124
000170 34 42 14 be 5c b5 0a bf e7 1c 21 bd 5f 8b 0f bf
       -0.1447838 -0.5418298 -0.039334204 -0.5607204
000180 e2 31 d1 bd 8c 31 31 bf 04 21 6f bc 83 82 10 be
       -0.102145925 -0.6921623 -0.014595274 -0.14112286
000190 83 d3 41 bb 73 eb 0d be 84 eb 93 be 8f 61 be bd
       -0.0029575534 -0.13859348 -0.28890622 -0.092959516
0001a0 fd 09 a6 bb cf 68 04 bc af a1 c5 be e8 e3 0c bf
       -0.0050671087 -0.008081629 -0.38599917 -0.5503526
0001b0 33 01 0d bf c9 f3 d1 be 08 29 07 be ba 9d 4e bf
       -0.55079955 -0.41006306 -0.13199246 -0.8070942
0001c0 9f b9 db be bf 7e 18 3c fd 8b 96 bd 87 45 32 be
       -0.42915055 0.009307562 -0.073509194 -0.17409335
0001d0 35 23 cf bc 3a 7d a1 bd b8 92 23 be 25 4b ac bd
       -0.025285343 -0.07885213 -0.15973938 -0.0841277
0001e0 17 e3 3a c0 7b d0 65 be a0 17 9d bc 10 56 6e be
       -2.9201105 -0.2244281 -0.019176304 -0.23275018
0001f0 fa 67 59 bd 8f 69 c3 bd 46 1a 0a bf 77 f7 8a bc
       -0.053077675 -0.09541618 -0.5394634 -0.016963704

fc2.weight f4 [128, 128]
000000 2d 70 0f be 67 d8 32 bd aa 3b f8 bd cc 0f aa bc
       -0.14007635 -0.04366341 -0.12120755 -0.020759486
000010 32 77 65 3d 0f 83 20 bd 04 38 06 3d b4 4c d9 bd
       0.056021877 -0.039187487 0.032768264 -0.10610333
000020 2c 82 cd be 52 82 ad bd 28 d4 e8 3c 90 29 32 be
       -0.40138376 -0.08472122 0.028421476 -0.17398667
000030 7d 2b 8e be c4 2c fd bd 1c e0 88 be 3c c9 91 3d
       -0.27767554 -0.12362054 -0.26733482 0.071184605
000040 7c 47 ba bd 66 fb 9e be de 34 03 be 64 ca 4e be
       -0.09095666 -0.31051177 -0.12813136 -0.20194393
000050 9e ce 1c bf 64 22 b5 3b b9 40 1d be fe f8 26 bd
       -0.6125277 0.0055277813 -0.15356721 -0.0407648
000060 e6 9b 2d bd ef 93 0a 3d 0c a9 65 bc 03 29 65 be
       -0.042385004 0.033832487 -0.014017355 -0.22378926
000070 03 eb c2 bd 76 09 0e be b7 28 81 3c 1f a3 88 3d
       -0.09517481 -0.13870797 0.015766485 0.06671738
000080 d2 b2 28 3d 1b 0d ae bd 00 6c 2c bd c0 92 05 bc
       0.04118616 -0.084985934 -0.042095184 -0.008152664
000090 b3 60 53 3d e8 84 e9 3c 21 53 5e 3d 11 8f 13 be
       0.05160589 0.028505757 0.054278497 -0.14410044
0000a0 3f 7f 82 3d db b8 ce be c4 25 54 be 9d a4 af bd
       0.063719265 -0.4037541 -0.20717531 -0.08576319
0000b0 6d f0 95 b9 24 d5 5b 3c 81 af 0d be 66 23 7f bd
       -0.00028598626 0.013417516 -0.1383648 -0.062289618
0000c0 df ed 35 3c 3b ad 8b be b1 ca 71 3d 89 26 24 bf
       0.011104076 -0.27280602 0.059031192 -0.641213
0000d0 f9 2d 07 3e f7 cd ca 3b d0 b7 96 3d 85 23 fe bd
       0.13201131 0.0061891037 0.07359278 -0.124091186
0000e0 38 3b 70 bd 94 d1 b5 3c 6f 8c 4d be 14 c3 92 be
       -0.058650225 0.022194661 -0.20073102 -0.28664458
0000f0 b5 69 44 bd 3a a7 35 3e 48 02 f6 bd 9f 80 11 3d
       -0.047952373 0.17739573 -0.12012154 0.035523053
000100 58 c8 24 3c 94 1f 83 be 5c a7 25 be 19 64 0a bd
       0.010057531 -0.2561003 -0.16177124 -0.033786867
000110 1a 40 e4 bd 2b a0 9a 3d 86 d9 06 3d 0d 72 87 3d
       -0.11145039 0.07550081 0.03292229 0.0661355
000120 93 8f 9c bd 31 04 88 be fb 3f 0e bd 1c 5c 42 be
       -0.07644572 -0.26565698 -0.034728985 -0.1898045
000130 9f 60 5a be 93 e9 32 bd 86 20 1e bf cf 95 b1 3d
       -0.2132592 -0.043679785 -0.61768377 0.08671152
000140 89 5f 26 3d 15 e4 c1 bd d7 64 d1 3a 4c 92 c2 bd
       0.040618453 -0.09467331 0.0015975487 -0.0950056
000150 0d ad 99 bd 4b 0f 3a bd b7 2a 29 bf 58 96 42 be
       -0.0750371 -0.04542474 -0.660808 -0.19002664
000160 78 cf 90 be af 46 2f be bd 84 7d be 02 2a 11 be
       -0.28283286 -0.17116807 -0.24757667 -0.14176181
000170 94 01 41 be 76 be 8a be 59 10 9e bd a6 c9 4a be
       -0.18848258 -0.27098435 -0.07717962 -0.19803485
000180 34 58 90 3d f6 1a 45 bf 2f 51 81 3c 47 fa d9 3c
       0.070480734 -0.76994264 0.015785782 0.0266086
000190 ab 3a 5f bd e0 64 02 be 4c 18 2a be 6e 37 7f bc
       -0.05449931 -0.12733793 -0.16610831 -0.01557718
0001a0 d2 0f 05 bd a3 53 06 be 00 97 4a bf dc 28 cd be
       -0.03248579 -0.13117842 -0.7913666 -0.40070236
0001b0 bb 3e 12 bd 03 b5 3a be 4a 1f ae bd a8 f4 a7 be
       -0.035704356 -0.18233113 -0.08502062 -0.32803845
0001c0 d5 2e 49 be 46 34 bf 3c 08 29 19 bd e9 9c 90 bd
       -0.19646771 0.023340356 -0.037392646 -0.07061178
0001d0 88 57 32 3c f5 7b 90 3d 6d 9f 3c be 5f b4 d4 bd
       0.010885127 0.07054893 -0.18420191 -0.103859656
0001e0 3e 7b 67 bf 3f 6e 4a be 5b 5e 2c 3d 26 e8 2b be
       -0.9042243 -0.19768618 0.042082172 -0.16787776
0001f0 7b 80 e5 bc 32 1d 16 be 08 91 03 be 1e 82 99 bd
       -0.028015366 -0.14659575 -0.12848294 -0.07495521
000200 ed 3b e4 bc 78 07 9c 3d 61 b2 78 3d 63 ac 64 3d
       -0.027860606 0.07618612 0.06071699 0.055828463
000210 2f 51 af 3d 90 19 c2 bd 06 d8 aa 3c 62 b1 bc bd
       0.085604064 -0.09477532 0.020854961 -0.092135206
000220 04 2c 4d bd fb be 2b bd 50 e1 ac bc f1 a8 dc bc
       -0.050090805 -0.04193018 -0.021103531 -0.026936026
000230 f6 a3 88 bd 3f 49 1e bd 05 37 a1 bc ca 4d 8c bd
       -0.06671898 -0.03864407 -0.019679556 -0.068507746
000240 0a 7a 6a 3c 0f d1 07 be 7d 93 b9 bd 46 13 bc 3b
       0.014311323 -0.13263343 -0.09061334 0.0057396023
000250 87 96 c5 3c 48 b8 cd 3c 2e 68 48 3d b5 85 46 bc
       0.024119629 0.025112286 0.04892748 -0.012116839
000260 57 96 90 3d 62 80 06 3d b1 8b 7c bd 9b 63 47 bd
       0.07059925 0.03283728 -0.061656658 -0.048678976
000270 3a 0b d8 bc 72 9b 90 bd d0 75 99 3d 9d 5a 84 bc
       -0.02637254 -0.07060899 0.07493174 -0.016156489
000280 bb 71 c6 3a 26 db a6 bd 19 8b c2 3c 9a 49 00 bd
       0.0015140095 -0.08147268 0.023747968 -0.031320192
000290 d4 5a 84 3d d9 d5 d9 bd 13 7a b3 3d 13 18 d1 3b
       0.064626366 -0.10636491 0.08763518 0.0063810437
0002a0 e0 b4 0f bd c9 ea 94 bd 37 da 04 be df 18 45 3c
       -0.035084605 -0.07271344 -0.12973867 0.0120298555
0002b0 15 39 77 3d 60 b5 72 bd 2d b9 77 bd a4 7d 84 bd
       0.060357172 -0.059255004 -0.06047933 -0.064692765
0002c0 4b 98 1c 3d 16 c1 6c bd d4 ba 93 3d d0 d3 96 bd
       0.038231175 -0.05780133 0.07213369 -0.07364619
0002d0 4b b0 08 3d 3f e9 15 3c f7 d2 80 3d a1 78 93 3d
       0.03337125 0.0091498485 0.06290238 0.072007425
0002e0 d9 fa 35 3d 0c 58 3d 3d 1f 83 bb bc fb e2 b8 bd
       0.04442868 0.046226546 -0.022889672 -0.09027668
0002f0 7c d9 67 3d e5 b6 bf bd 5d 14 83 bd 62 33 55 bd
       0.056603894 -0.09361056 -0.06400368 -0.052050956
000300 13 9a 08 bd fb d2 ca bd 43 dc 9c 3d 2c 31 b2 bd
       -0.03335006 -0.099035226 0.07659199 -0.08700785
000310 85 fb e9 bc cb 9b dd bb ff 7b aa bd 6e 0e 0d bd
       -0.028562317 -0.0067629567 -0.08324432 -0.03443759
000320 b8 80 96 bd d2 a3 a3 bd 5a 28 88 bd 13 ba 91 bd
       -0.0734877 -0.079902306 -0.066483214 -0.07115569
000330 1c d0 a2 bc dd 87 b3 bd 57 48 ae bd bb b1 92 bc
       -0.019874625 -0.08766148 -0.085098915 -0.017907014
000340 58 bf a7 bd 15 98 dd bc 47 a7 c0 3b 18 de c5 bd
       -0.08190793 -0.027050057 0.005879316 -0.09661502
000350 20 21 e9 bc 7c 1a e2 bd 87 e4 8b 3d 0f af 48 bd
       -0.028458178 -0.11040208 0.068306975 -0.048995074
000360 14 b2 97 bd f8 2e 06 bd 05 e2 e5 3c 66 11 ff 3c
       -0.074070126 -0.032759637 0.028061876 0.031136226
000370 12 fd ff bd 7f 7c 14 3d af 88 92 3d 80 11 45 bc
       -0.12499441 0.03625154 0.071549766 -0.012028098
000380 9c a7 87 3d f6 27 55 bd cc 20 ef 3c f8 e6 c8 bb
       0.06623766 -0.052040063 0.029190443 -0.0061310492
000390 da 74 13 3d 79 f7 4f bd 99 a3 47 3c c1 98 9d bd
       0.03600011 -0.050773118 0.012185001 -0.07695151
0003a0 5e 48 a3 bd 29 81 9d 3d f8 af c0 bd e2 f7 31 3d
       -0.07972787 0.07690651 -0.094085634 0.04344929
0003b0 89 f2 fc bc bf c2 1e 3b 6b 2e e5 bb 37 fe 78 bc
       -0.030877369 0.0024224964 -0.006994059 -0.015197328
0003c0 b5 8c 2f bd e8 e5 e2 3b fb 19 88 3c 28 4f ec 3b
       -0.042858798 0.0069243796 0.016613951 0.0072115846
0003d0 4b 78 96 3d aa af ae 3c 2d 3e 1c bd 05 23 f5 3a
       0.07347163 0.021323998 -0.038145233 0.0018702453
0003e0 ac 8b b9 bd ba 97 02 bd 2b c9 2a bd 76 a0 44 3b
       -0.090598434 -0.03188298 -0.041695755 0.0030002869
0003f0 9a 30 41 3c 7d 70 3d 3d 0d 0d 89 3d 9c 36 b8 bc
       0.011791373 0.046249855 0.06691942 -0.022486977

fc2.bias f4 [128]
000000 41 99 82 bc 2c 5e 75 bd b6 1d ea bd 19 0b e5 bd
       -0.015942218 -0.059904262 -0.11431448 -0.11183757
000010 bd 4f 07 be 18 0a 91 c0 99 4f ba bc fb 11 d9 bd
       -0.13214011 -4.532482 -0.022743033 -0.105991326
000020 dd d8 4d 40 72 ff 43 40 fe 90 68 40 11 b6 cd 3f
       3.2163613 3.0624661 3.6338496 1.6071187
000030 42 25 46 be 94 5a 09 3f 99 e1 c2 bc ed 65 13 bd
       -0.1935015 0.53653836 -0.023789214 -0.035985876
000040 c0 3f 24 c0 fe 1d 0d be 27 ba e6 be 23 99 cb 3e
       -2.566391 -0.13780972 -0.45063898 0.39765272
000050 ea be 39 be 47 91 f2 bd 72 39 8b 3f c2 e7 d0 bd
       -0.18139234 -0.11844116 1.0876906 -0.10200454
000060 b4 f2 8e be 6b 89 8e 3f 1c a7 30 40 1f 02 d9 3f
       -0.27919543 1.1135687 2.7601995 1.6953772
000070 f3 95 12 3f 22 ea c7 3f 9d 90 00 be a0 e1 0e 40
       0.57260054 1.5618327 -0.12555166 2.232521
000080 22 05 6a 3f 2b ee fb bd 12 03 ff bd c0 e1 b4 bd
       0.9141408 -0.12301286 -0.124517575 -0.08832121
000090 57 70 d5 3f b2 4f 99 bd e6 85 fb 3f fa 65 fe 3f
       1.6674908 -0.07485904 1.9650238 1.9874871
0000a0 1c ae 3c 40 ab 6b 14 41 1d 1d bf 3f 52 89 a6 bd
       2.9481268 9.276286 1.493076 -0.081316605
0000b0 d9 e2 2d be 29 25 12 bf ff 1b f9 bd 06 da 75 40
       -0.16981067 -0.5708795 -0.12163543 3.841432
0000c0 bf 3b 43 be 26 ac 8b c0 1b 7c 08 be 86 60 6a 40
       -0.1906576 -4.364764 -0.13328592 3.6621413
0000d0 56 2d a0 40 63 c8 a5 be 0b e6 26 be 68 77 cf bd
       5.005534 -0.32379445 -0.16298692 -0.10130197
0000e0 5c be 92 3e d5 a8 03 be b6 d5 95 3e 30 4a aa bc
       0.28660858 -0.12857373 0.2926461 -0.020787328
0000f0 ac fa d7 3f b4 c5 e2 3f 7d 57 62 c0 d3 35 4c 40
       1.6873374 1.7716584 -3.5365899 3.1907852
000100 35 0d a2 3f f3 72 da 3f 65 d2 88 ba 9b 70 85 be
       1.266028 1.706633 -0.0010438679 -0.26062474
000110 58 3c 89 bd 0f 54 dc bc 78 2a c0 bd cf 61 a7 bd
       -0.06700963 -0.026895551 -0.093831 -0.081729524
000120 15 87 18 bd 78 06 5a 3f cb 07 d1 bd 9e 8e 9a be
       -0.0372382 0.8516612 -0.102065645 -0.30186933
000130 90 0c c9 bd d1 7a e8 bd df 0f ef 3f 93 20 45 40
       -0.09816849 -0.1135155 1.8676718 3.0801132
000140 83 1c 8a bd 4b 0a 4f 40 38 22 df bd 24 49 36 be
       -0.067437194 3.2350032 -0.108951986 -0.17801338
000150 3e 6d 15 40 44 90 36 41 ad 50 06 be 53 31 0d be
       2.3347926 11.410221 -0.13116713 -0.13788347
000160 c8 08 25 40 e0 b9 93 be 90 be a1 bc 61 28 ae 40
       2.578661 -0.2885275 -0.019744188 5.442429
000170 58 e1 8a 3f 42 08 9a be da 1a 88 3f ae 57 ee bd
       1.085002 -0.30084425 1.0633194 -0.11637817
000180 be ea eb 3f a3 ca f1 be 1c 3f 86 40 d3 2b 52 bd
       1.8431013 -0.47224912 4.195204 -0.051311325
000190 26 ec cd 3f 27 10 a8 3f 58 b7 cd 3f ac 73 2c be
       1.6087692 1.3129929 1.6071577 -0.16841
0001a0 2e 3b 16 40 8d 61 8d bd e1 0c 4f 40 34 7a 51 be
       2.347362 -0.06903372 3.235161 -0.20456773
0001b0 8b bb 88 3f b3 45 e4 be 5a c8 42 be 49 75 1f bc
       1.0682234 -0.44584426 -0.1902174 -0.009732553
0001c0 38 77 3c bd 33 b6 6d be 3d 87 be bd ed 12 5f bd
       -0.046012133 -0.23214035 -0.093031384 -0.05446141
0001d0 04 6e 09 c1 3b c8 e8 bd c0 7d 00 be 68 1b 17 be
       -8.589359 -0.11366316 -0.1254797 -0.14756548
0001e0 49 23 c9 bd 21 4a dd 3f 57 d5 e0 bd 02 c6 d5 bc
       -0.09821183 1.7288247 -0.10978191 -0.026095394
0001f0 9f 19 11 be 88 e4 08 be 3d ae 16 be 8f 92 1f be
       -0.1416993 -0.13368428 -0.14714904 -0.15583251

fc3.weight f4 [64, 128]
000000 c8 01 c7 bd 8f ea 1c 3b 53 93 17 3d f6 1d 80 bd
       -0.097171366 0.0023943519 0.037005734 -0.062557146
000010 f7 91 45 bd 0b 2b 73 bd 53 ce 5c bd 99 4c 33 bb
       -0.048234906 -0.05936722 -0.053907704 -0.0027358888
000020 bb 6a 00 be 30 7d 24 3d 72 6f fc 3b 7e 43 b3 bc
       -0.12540714 0.04015845 0.007703715 -0.021882769
000030 ad 1b 9e 3c 7a e1 89 3d de ec f2 bd 4e cc 9f 3d
       0.019300306 0.06732459 -0.11861585 0.0780264
000040 6f da 1a be 6a d1 f8 bc f5 55 09 3d d8 09 88 bd
       -0.15122388 -0.030373294 0.03352924 -0.066425025
000050 ed d0 1a bd 50 59 b6 3c e7 c8 e3 bd a9 90 58 3d
       -0.037796903 0.022259384 -0.111223035 0.052872334
000060 24 f5 c2 3c 7a 4d 06 3d da ec 4b 3d 0f 8b 7b bc
       0.023798533 0.03278873 0.049786426 -0.015352978
000070 18 95 12 3b 43 fa d2 bd 5d 06 86 bd e0 97 dc bd
       0.0022366699 -0.1030164 -0.065441824 -0.10771155
000080 64 7a 0e bd f0 95 1e 3d a8 aa f0 3b 6e fb 09 bd
       -0.03478469 0.03871721 0.0073445626 -0.033687048
000090 26 2c f4 bd 1d a0 0b bc a2 ad f1 bc ab 2f 3e bd
       -0.11922483 -0.008522061 -0.02950174 -0.04643218
0000a0 ca c5 92 bd fb ab a1 bd b5 c0 01 be 38 36 b3 3d
       -0.071666315 -0.07894131 -0.12671168 0.08750576
0000b0 52 c1 b0 bd 17 4d cb bc dc 30 83 bd d3 92 69 bd
       -0.08630623 -0.024817033 -0.064058036 -0.057024788
0000c0 bf c7 63 bd d5 8e b6 3c 9f fb 92 3d 94 47 1f bd
       -0.055610415 0.022284904 0.07176899 -0.03888662
0000d0 07 9c ce bd 57 64 7d bd f3 ec 82 bd ec a6 a8 bd
       -0.100883536 -0.06186327 -0.06392851 -0.08234963
0000e0 97 a1 9f 3d e2 66 fd bc b7 a2 f3 bc a8 5c 83 3d
       0.07794493 -0.030932847 -0.029740674 0.06414157
0000f0 f8 28 d6 bc 04 6c 4b 3b 34 ea ff bd c2 3e 6c 3c
       -0.026142582 0.0031039724 -0.124958426 0.0144192595
000100 ec a6 09 bd b9 72 f3 bc fc d5 9d bd df a0 43 3c
       -0.033606455 -0.02971779 -0.0770683 0.01194021
000110 71 f1 da bd d8 23 dd bd 34 d0 0c 3d 02 ab 87 3c
       -0.106905825 -0.10797852 0.034378245 0.016561035
000120 d4 63 10 3d 7c 99 15 ba 6f fe 9d bd 60 be fb bc
       0.035251454 -0.000570677 -0.07714545 -0.030730426
000130 df dd 9f bd 3e ec 1d 3d fb c8 d0 bd e9 7f 55 bd
       -0.078059904 0.038555376 -0.10194584 -0.052123938
000140 ad 0e ae bd 8f 69 8d 3c e6 6d 7f bd 18 f9 0c 3c
       -0.08498893 0.017262248 -0.062360667 0.00860431
000150 0d e9 c5 3b 4b b0 15 be 31 8a e8 bc 83 d6 04 3d
       0.0060397447 -0.14618032 -0.028386207 0.032431137
000160 d1 e3 55 3d 1e 0e ac bd 92 8a 46 3d 31 e0 20 3d
       0.052219216 -0.0840113 0.048471995 0.039276306
000170 ba f8 90 bd a2 5f cf bc 8f f3 9f 3d 97 2d 43 3d
       -0.07078691 -0.025314156 0.07810127 0.0476509
000180 a3 7a 0b 3c 42 74 f5 bc ea ba a1 bc f1 65 1c 3d
       0.008513126 -0.029962663 -0.019742448 0.038183156
000190 02 9f 5f bd 67 ad 62 bd 43 dc 3d 3d 26 b9 89 bd
       -0.054595 -0.05534115 0.046352636 -0.067247674
0001a0 95 e3 9f bd fe 08 0d bd 75 11 0e bd 68 5d 76 bd
       -0.0780708 -0.034432404 -0.034684617 -0.060147673
0001b0 dc 88 c4 bc b7 39 2f 3d ff c3 3e 3d 65 17 92 3d
       -0.02399104 0.04277965 0.046573635 0.071333684
0001c0 fb a7 0b 3c b2 47 a7 bd ba 00 1c bd 23 9d 25 3d
       0.008523936 -0.08167972 -0.03808663 0.04043306
0001d0 c9 6d 98 bd f8 8d 21 3d 8e 50 a3 3d 0d 51 1a bd
       -0.07442815 0.039442033 0.07974349 -0.037674952
0001e0 9d 7b b0 3d 8a ba 7f bd b9 e7 24 3d 59 57 07 bc
       0.08617327 -0.062433757 0.04026005 -0.008260571
0001f0 f1 72 2c 3d 21 40 9c bd 97 67 9a 3d 1f 83 57 bb
       0.042101804 -0.07629419 0.075392894 -0.003288455
000200 df 14 94 3e 12 0e 68 3b 66 d4 a9 bd 44 45 d4 bc
       0.28922173 0.0035408777 -0.08292465 -0.025911935
000210 51 ba d8 3d 3f 37 30 c0 71 42 a0 bb 0a 1e 7e be
       0.10582412 -2.753372 -0.004890733 -0.24816146
000220 3f 06 22 3c 7f 3d 88 bf 27 c6 5a be 24 ac 18 40
       0.0098891845 -1.0643767 -0.21364652 2.3855066
000230 9c b8 88 bf b0 9f a2 be 27 f5 a4 3d f4 27 d2 bc
       -1.0681338 -0.31762457 0.080545716 -0.025653817
000240 30 5a 31 c0 b5 76 66 3c 38 f2 20 3f 18 dc 89 3d
       -2.7711296 0.014066388 0.62869596 0.06731433
000250 7d fb fd bc c8 70 88 3d b7 36 4d bf fa 63 40 bc
       -0.031003708 0.06662136 -0.80161613 -0.011742586
000260 a3 32 41 3e ca 24 8b bf ce e7 14 bf 47 e2 5b bf
       0.18866973 -1.0870602 -0.58166206 -0.85892147
000270 f3 f6 6a be 46 d2 fd be c4 ba 6a 3f 7e 31 62 40
       -0.22945766 -0.49574488 0.9169123 3.5342708
000280 51 1b 98 bf 62 12 ff 3c 8d 65 c3 bc d5 8c 29 bc
       -1.1883336 0.031136695 -0.023852134 -0.010348518
000290 79 82 fe 3f 0a 3a 11 3c ca 6a 05 bf eb 38 91 be
       1.9883567 0.008863935 -0.5211607 -0.28363737
0002a0 7c d6 b6 bf 65 61 11 bf 98 43 c1 be aa c5 45 bd
       -1.4284205 -0.5678924 -0.37746882 -0.04828421
0002b0 70 ea 9b 3e b9 68 8a 3c 6d 90 f5 3d 59 9e 81 bf
       0.304523 0.016895639 0.11990438 -1.0126449
0002c0 58 38 08 bf 91 3c 26 c0 22 89 0e 3d ac b5 29 bf
       -0.53210974 -2.5974467 0.03479875 -0.66292834
0002d0 ae c8 a9 bd 06 d0 13 3f fa f7 ec bd a8 5b 57 bd
       -0.0829023 0.57739294 -0.11570735 -0.052577645
0002e0 5f 97 18 c0 59 fa 31 bd aa ca be 3f 16 1d 3c 3f
       -2.384239 -0.04345164 1.4905598 0.7348188
0002f0 61 63 67 3e f0 9d 4d be 49 90 00 c0 d5 9a bc be
       0.22596504 -0.2007978 -2.0088065 -0.36836877
000300 cc 1c 8f 40 fa fb 87 bf d8 42 fc bf 19 33 aa 3e
       4.4722652 -1.0623772 -1.9707899 0.3324211
000310 20 f2 29 be 87 0d 08 bd e1 12 79 bd 01 c8 8c bf
       -0.1659627 -0.033216026 -0.06080902 -1.0998536
000320 20 d6 98 3f cc ad b4 bf 5c 94 a8 3d 88 e8 68 3d
       1.1940346 -1.4115539 0.08231422 0.056862384
000330 b6 af a5 bb c8 ba 73 bd b8 6e 9e bf a0 fe 18 bf
       -0.0050563468 -0.0595043 -1.2377539 -0.59763527
000340 0f 41 9b 3d 6d 59 0c bf 8d 2f 81 bd fe 98 81 bd
       0.07580768 -0.5482395 -0.06307898 -0.06328009
000350 61 fb bb be 13 51 8a bf 4d df 02 bd f9 d8 a8 bd
       -0.36715224 -1.0805992 -0.031951237 -0.08244509
000360 9c 3e 82 bf 59 9b 3f 3f 36 81 f9 be d1 44 1c 40
       -1.0175357 0.74846417 -0.48731393 2.4417002
000370 88 7d b5 3f e4 7a 26 3f ec bb 97 bf 0d 04 f2 3c
       1.4178934 0.65031266 -1.1854224 0.029542947
000380 7f b0 d1 bd 29 0e 0f 3c e4 9b 9a bf 97 8f dc bd
       -0.10238742 0.008731403 -1.2078824 -0.10769575
000390 42 51 8b 3c 29 b8 4d 3e 9d 3f f5 be d5 4f a1 3b
       0.01700652 0.20089783 -0.47900096 0.004922847
0003a0 4b 85 90 3f ed 43 91 3e 5a 5c a4 3f fb f7 25 3f
       1.1290678 0.28372136 1.2840683 0.64831513
0003b0 e0 c1 8a bf dc ce 01 3f 44 74 02 3e 80 e1 51 be
       -1.0840416 0.5070627 0.12739664 -0.20496178
0003c0 d4 e6 19 3d ca e8 d4 3d f5 f1 ae bc b7 7e 53 bd
       0.03757365 0.103959635 -0.021355608 -0.051634517
0003d0 6d 37 05 bf 69 50 04 bd 23 7d a6 ba 1c 8c 7c bd
       -0.520377 -0.032303248 -0.0012702089 -0.061657056
0003e0 48 2f 8b 3d 08 4f 71 bf 8b e9 0b bd 61 59 7b 3d
       0.067961276 -0.9426122 -0.03415827 0.061364535
0003f0 47 03 92 bf 05 3b 05 3d d5 d8 03 bc 0f 68 7b 3b
       -1.140725 0.03252699 -0.008047302 0.0038361584

fc3.bias f4 [64]
000000 14 fc f0 bd f9 96 13 3f e0 75 2b be 81 c6 cb bb
       -0.1176683 0.5765224 -0.16744184 -0.006218732
000010 61 2f 6c 40 cc 51 65 bd d4 4a 2d be a3 bf 34 bd
       3.6903918 -0.05598621 -0.16923076 -0.04412807
000020 2f 4e e9 3e c2 cb d0 bd 57 41 81 3f f2 25 92 be
       0.45567462 -0.10195114 1.0098065 -0.28544575
000030 5f a4 11 40 6c 56 1b be 95 89 e8 bd 09 44 d1 bd
       2.2756574 -0.15169686 -0.11354367 -0.10218055
000040 5c d5 8b 3f 33 1f 0b be c0 1f 33 3f 62 e4 d5 3e
       1.0924487 -0.1358612 0.6997032 0.41775805
000050 01 89 a1 3e a5 f4 8c 3d 65 bb 91 be 1d 6c 8f 3f
       0.31549838 0.068826 -0.28463283 1.1204869
000060 11 03 b2 bd 90 47 04 be c4 fa 08 be 2a 0b 25 3d
       -0.08691991 -0.12917924 -0.1337691 0.04029385
000070 9d 34 1c 40 da c8 65 3f 08 06 e8 3e fd 76 02 41
       2.4407113 0.897596 0.453171 8.15405
000080 41 7b 9d 3f a7 a8 eb 3f 8b f2 f1 bd 6e e8 55 be
       1.2303239 1.8410844 -0.118138395 -0.20889446
000090 98 38 cb 3c 2c fb db 3e d9 e8 c4 3f fc 86 8a 3e
       0.02480726 0.42965066 1.538356 0.2705611
0000a0 19 ac cd 3e 1b 43 e1 3e 09 a6 88 3f 95 71 89 3e
       0.40170363 0.4399651 1.067567 0.2684447
0000b0 8f 83 34 40 c6 e4 d6 3e c5 2f d9 bc 09 4d 1b 3e
       2.8205297 0.41971415 -0.026512036 0.15166105
0000c0 b4 a3 fd bc da a4 43 3f 4d b2 3a 40 22 17 4c be
       -0.030961849 0.7642342 2.9171326 -0.199307
0000d0 8d 6a 04 40 97 2f 9a bd c1 ed 51 3f 01 22 af bd
       2.0690033 -0.07528608 0.8200341 -0.085514076
0000e0 7e e8 08 3d 9a 5f 6d bf 10 16 76 3c 4e c1 52 be
       0.033424847 -0.92724 0.015019909 -0.20581552
0000f0 7d 7f 5b be 05 b2 d5 3f a2 5e 99 3e 8f 93 7c 3f
       -0.21435352 1.6694952 0.29955012 0.98662657

fc4.weight f4 [3, 64]
000000 58 62 d2 3d da c0 33 c0 21 4a 4c bd 6a 70 19 3e
       0.10272664 -2.8086457 -0.049875382 0.14984289
000010 f2 35 87 40 54 d0 9f 3d 7f 0f cd bd 73 a4 05 bd
       4.225335 0.07803407 -0.10012721 -0.032627534
000020 c9 33 d6 bf b8 b0 2b bf fe fd 49 40 fe 32 88 bf
       -1.6734554 -0.67066526 3.1561275 -1.0640562
000030 75 b2 bd bf 9f 5d fa bc af 2a f0 bd 0d 1f ae bd
       -1.4820086 -0.03056222 -0.11726891 -0.08502016
000040 91 11 be bf 2a a0 8c bd 23 dc 05 40 52 d6 38 40
       -1.4849111 -0.06866486 2.091561 2.888081
000050 db bc 57 c0 7a f0 32 3f 23 b6 88 bd a8 e5 92 bf
       -3.3709018 0.6989819 -0.06675365 -1.1476336
000060 62 76 dc 3c 7a c1 16 bd 20 f0 66 bc 14 9c ca bf
       0.026911918 -0.036805607 -0.014095336 -1.5828881
000070 44 74 bb c0 ae 8c 2b 40 89 a7 38 40 f4 9c 87 40
       -5.8579426 2.6804614 2.8852255 4.2379093
000080 4b 37 84 40 6a 73 fc bf 8e 52 1c be d1 cb 8c 40
       4.1317496 -1.9722722 -0.15265867 4.39988
000090 9b 73 a7 bc 8f 2a 56 c0 6c f2 72 c0 91 89 d7 3e
       -0.020440867 -3.3463476 -3.7960463 0.42097142
0000a0 6f e4 f1 bf c7 60 00 c0 a7 4a 92 bf a3 eb 0e be
       -1.8897837 -2.0059068 -1.1429032 -0.13957076
0000b0 7b 2f 45 c0 21 f2 a1 bf b1 43 af bf c1 ea 93 bf
       -3.081023 -1.2652017 -1.3692533 -1.1556016
0000c0 93 a7 c2 3f 38 92 41 40 ac b6 4a 40 80 59 0d 3d
       1.520739 3.0245495 3.1673994 0.034509182
0000d0 4a 77 d1 40 7e 61 3f bf da 04 5d c0 f2 b1 8f bc
       6.5458117 -0.74758136 -3.453421 -0.017540906
0000e0 b5 5f 71 bf 9b 73 d7 bf c8 ff 96 bf 41 e9 b6 bd
       -0.9428666 -1.6832155 -1.1796808 -0.089312084
0000f0 46 67 b1 bc 4a 62 03 c0 2a 91 bc be d3 32 34 40
       -0.02165569 -2.052874 -0.368295 2.815602
000100 90 cc 51 bc 53 ba 22 c0 0d ac 1f 3c 46 ce 52 bd
       -0.012805119 -2.5426223 0.00974561 -0.05146625
000110 e3 5e 4f 40 d6 65 29 bd f6 e5 a7 bc 55 6a a2 bc
       3.2401664 -0.041356884 -0.020495396 -0.019826094
000120 55 08 88 bf 82 5c 84 bf 79 cb 3b 40 49 9a a7 bf
       -1.0627543 -1.0340731 2.934294 -1.3093959
000130 31 1b 04 c0 b3 dc de bc f5 9a 17 bd 30 21 60 bb
       -2.0641596 -0.027204847 -0.037013013 -0.0034199469
000140 8d 78 84 bf c5 04 9e bc d0 a0 c8 3f b9 b4 2b 40
       -1.0349289 -0.019289384 1.5674076 2.6829054
000150 2a 91 23 c0 22 74 bb 3c 76 52 f3 be e5 71 26 3f
       -2.555735 0.022882525 -0.4752385 0.6501754
000160 ee bf b8 3c 2c 01 91 3b af a1 3c 3d 3f 46 d2 bf
       0.022552457 0.0044251885 0.04605263 -1.6427687
000170 de e4 b9 c0 65 a0 32 40 67 a8 2d 40 1c 54 7d 40
       -5.809188 2.7910397 2.7134035 3.9582586
000180 09 67 72 40 21 b4 bb bf 9a 51 bf bd 0d 16 96 40
       3.7875388 -1.4664346 -0.09341736 4.6901917
000190 0d 84 b1 bc e7 d5 70 c0 3a 94 85 c0 e9 3c 0f 3f
       -0.021669412 -3.7630556 -4.174344 0.55952317
0001a0 e1 87 23 c0 76 43 d4 bf 74 6b cb bf ad 1a 01 be
       -2.5551684 -1.6583087 -1.5892167 -0.12607832
0001b0 30 2e 5d c0 57 02 b7 bf 29 de dc bf 5e c5 68 bf
       -3.455944 -1.4297589 -1.7255298 -0.9092616
0001c0 a7 48 c2 3f 60 e3 35 40 37 54 3c 40 c0 a7 9c bb
       1.5178422 2.8420029 2.94264 -0.0047807395
0001d0 e6 aa aa 40 ac 46 f6 be cb 56 4a c0 84 45 c1 3c
       5.3333616 -0.48100793 -3.1615474 0.023592718
0001e0 9c 8b 6d bf f8 cf c8 bf 0d 6c 03 c0 8a 12 7e bc
       -0.9279115 -1.5688467 -2.05347 -0.01550735
0001f0 41 88 32 3e 6c 26 1a c0 c1 d4 0f c0 2f 5a 3e 40
       0.17434789 -2.408595 -2.2473605 2.9742544
000200 b8 4e 5a 3c 5b 16 64 c0 d0 5a c9 3d a9 76 d2 bd
       0.013324432 -3.5638645 0.09831774 -0.10276539
000210 51 cd b1 40 20 3a c2 3b 6a e3 86 3c f4 3a c1 3d
       5.556313 0.005927339 0.016465861 0.094350725
000220 79 d6 52 bf 27 39 7f bf 25 f9 59 40 f5 88 44 bf
       -0.8235851 -0.9969658 3.4058316 -0.7677148
000230 ad 8c b1 bf 0b f7 59 3d cf 33 39 3c 28 30 77 3d
       -1.3871056 0.053214114 0.011303856 0.06034866
000240 57 82 c0 bf 98 c4 e4 3c 57 09 1e 40 ab 79 45 40
       -1.5039777 0.027925774 2.46932 3.085551
000250 5e 9c 42 c0 cf 54 13 3f 0e 0a a8 bd 2c 16 e4 bf
       -3.040794 0.5755128 -0.08205043 -1.7819266
000260 a9 c6 16 be 3d 34 8a 3b 18 35 76 3d db df d1 bf
       -0.1472422 0.004217653 0.060109228 -1.639644
000270 fd 9e bc c0 a2 ae 2a 40 3f 75 29 40 9f e5 92 40
       -5.8944077 2.6669087 2.6477811 4.59053
000280 81 62 65 40 a6 42 1c c0 f8 83 25 be 8e 62 ab 40
       3.5841372 -2.441568 -0.16163623 5.3557806
000290 d4 7f a4 bd 6c 91 83 c0 db 06 82 c0 e0 90 1e 3e
       -0.08032194 -4.1115017 -4.063337 0.15484953
0002a0 a4 24 14 c0 0b 26 d5 bf 81 93 de bf 3c f7 0e bf
       -2.3147364 -1.6652235 -1.7388765 -0.55846
0002b0 67 3a b9 c0 93 ac 8e bf b6 58 d9 bf a3 03 86 bf
       -5.788379 -1.1146415 -1.6980197 -1.046986
0002c0 31 05 e0 3f 41 5a 4f 40 c9 76 47 40 cc c9 7d bc
       1.7501584 3.2398837 3.116625 -0.015490007
0002d0 f6 46 ce 40 97 88 11 bf f5 a4 72 c0 df a8 49 3d
       6.446162 -0.56849045 -3.7913182 0.049233314
0002e0 3a 2e d3 bf 79 cf e2 bf 97 e2 2d bf 7d af 1e ba
       -1.6498482 -1.7719566 -0.67923874 -0.00060533715
0002f0 df 8b ad 3d 55 79 82 bf 26 de 94 3f 37 2e 4c 40
       0.08473944 -1.0193278 1.1630294 3.1903207

fc4.bias f4 [3]
000000 d6 aa c4 40 85 d4 98 41 f7 43 32 c0
       6.145854 19.10377 -2.7853982
